results/soh_individual_dataset_results/Dataset 3/pre_trained_model.pth (torch, 95584 bytes, 27 tensors)

cnn1.0.weight f4 [16, 1, 3]
00000000: 81b6 c63d 0c42 a4bc 1a8f f43e e487 db3e
00000010: 2eb2 03bd d63d 853e 52f0 c63e b3c1 fabe
00000020: b630 e2be 6419 a63e 920a d73d a8f6 013f
00000030: 1b9d ab3e 8be4 003f bda1 cbbe e409 ec3e
00000040: 1aef eabe 0ac0 863e e61a 083c 9781 b7be
00000050: 37a0 0dbf c9f9 e33e 7935 ecbe 7fc2 7bbe
00000060: 4423 953e eb62 cd3e 3e28 63bd c6ee 82be
00000070: fb0a 8b3d 5d92 adbe 369d 703e 6e64 ccbd
00000080: 461b 1e3e eec3 d93e 5525 e6be 3fd8 c23d
00000090: 3910 fe3e 1600 9e3e 7a7c 933e a557 b1be
000000a0: e344 b7be b24e 833d 5b3b 953e 7c0a fa3e
000000b0: 905e 8b3e 255e cbbe 5ec9 793d 9269 6bbe
0.097027786 -0.020051025 0.47765428 0.42877114 -0.032152347 0.2602374 0.38855225 -0.48975906
-0.44177788 0.32441247 0.10500063 0.5076699 0.335183 0.5034873 -0.39771834 0.46101296
-0.45885545 0.2631839 0.008307194 -0.35841057 -0.55322593 0.44526508 -0.46134546 -0.24585913
0.29128468 0.4011453 -0.0554583 -0.25572795 0.06789204 -0.3390073 0.23497471 -0.09980093
0.15440091 0.42532295 -0.44950357 0.09513902 0.49621752 0.3085944 0.28805906 -0.3463718
-0.35794744 0.06411494 0.29146847 0.48836124 0.27220583 -0.39720264 0.060983054 -0.2298949

cnn1.0.bias f4 [16]
00000000: 4edc 843e 9949 9fbe d03a 11be 23a4 a0be
00000010: 83d3 04bf 9d19 8d3e 3485 683e 8e1a 853e
00000020: 22b8 47be 0bb4 ccbe 496c f63d 04c2 0abf
00000030: ec51 9ebe 138b e13d 3fb0 c93e 43a2 a1bd
0.2594933 -0.31110838 -0.14182591 -0.31375226 -0.5188524 0.27558604 0.22707063 0.25996822
-0.19503835 -0.39981112 0.120323725 -0.54202294 -0.30921876 0.110128544 0.39392278 -0.07892277

cnn2.0.weight f4 [32, 16, 3]
00000000: f181 edbd 74d7 9cbc 5216 583d c64d ed3d
00000010: 9f4c 863d c6c5 383d 0c19 dcbd 391d 023e
00000020: ef08 ff3d 185a 9cbc a6bc c5bd 3536 a23d
00000030: 475c d6bc 4fea 833d 9883 11be bdcd 273b
00000040: a14b 9b3d 6507 613d 29c5 0bbe 99f6 883d
00000050: a9d4 e63c 5584 04bd 4e13 f7bd ca92 12bd
00000060: 22b2 543d 2cdd af3d 1696 a13c 7262 ae3d
00000070: 9442 a9bd e72f cd3b c919 863d a1ab d5bd
00000080: 29f0 d23d cb4e 913d f216 9ebd 480d f2bd
00000090: 3361 3c3e a8fd 3e3d e0bc a73d 1c1b bf3d
000000a0: 8757 04be 1e4d 193d 2a62 b4bd 1278 b93d
000000b0: bbf0 ea3d 93f2 793a 499c 83bc 6a9e cd3d
000000c0: 58d5 e83d 0090 b83c 9778 8a3d dd50 283d
000000d0: 41d6 94bd af25 c23d 4627 793d 3be1 ccbd
000000e0: 88aa ecbd 9741 183d 7b82 0cbe 8f0a 263d
000000f0: e0df bd3d 3d6f f1bd fae3 0f3d d934 8a3c
00000100: ecf7 e03b 1c1f fb3d 0e2e adbd 9c6e 9b3d
00000110: 891a d83d c5a6 c5bd 05c3 debc 88e7 e3bd
00000120: b7b9 eebd 5010 2bbe 9ac2 8abd 2166 40bd
00000130: 7ae5 083e 9448 11be d376 50bd 6bbd 1cbb
00000140: 976d 5b3d ec33 0fbe 3ab6 00bd fb97 0cbd
00000150: 6a6b 67be b5fa 0abe b495 13be b2ba e53d
00000160: 77f6 ce3c 5707 03bd bff4 15be 5f00 f73d
00000170: f82d 733d 52d4 97bd fc74 7abc 3021 d63d
00000180: 157f 40bd f401 05be 51e4 f5bd 5d46 10be
00000190: cdb4 a43d 48b7 b0bd 166b 05bd 5f63 5bbd
000001a0: 3591 903d 9261 01be 4318 06be c8bc d53d
000001b0: 2a71 36bd 8db2 aabd 72e2 c7bc 877d b23d
000001c0: 986a 63bd 46d0 0e3c 5352 30bc d563 00be
000001d0: cf0b afbd 8974 e3bd 3e20 00be fd0b 3e3d
000001e0: 7471 e83d e1c5 f2bd 15e9 e83d ddf5 343c
000001f0: 50de 5dbd e3d9 fdbd c4d1 6c3d 497d cbbd
00000200: 1bda dcbd ce18 2ebd 2201 2c3c 6027 e0bd
00000210: 2f7c 01be 0d97 b53c b286 0e3e c974 00be
00000220: b1de 123d c7f6 12bd a83b febd 45af 0d3e
00000230: 1433 e2bd eca5 ed3c 123e 523d 7272 1bbb
00000240: 1947 cdbd 41b9 9ebd c6e1 43bd 2745 bbbd
00000250: 6a97 86bd d368 32bd 7b10 8cbd ff02 ffbd
00000260: 0fca 023d 614d a13d bbef 923d ba6e b33d
00000270: 5b74 983d 7f42 a5bb a11b b83d 6ce4 cabd
00000280: 7796 813d 5fc1 9c3d 17e4 fc3d ce73 56bd
00000290: 4f18 6abd 8d6e d33c 0be3 fdbd 692d c63d
000002a0: a61f 9dbd e593 003c 1ae2 fabd b522 733d
000002b0: f9c1 07be 6a04 0e3d fe97 df3d e7b4 bfbc
000002c0: 9a6b 97bd 9563 d2bd f170 03be bad3 1cbd
000002d0: c5d6 5bbd 4007 ae3d 815b 07be d71c e2bd
000002e0: 66cc 623d c58a dfbd 4710 d9bd f96d 883d
000002f0: 35e5 fcbc 456d a0bd d573 683d 2e18 08be
00000300: 977f 0f3d 9c29 e7bc 7972 f6bd db6b aebd
00000310: f3f8 01be aba0 b63b 7e98 ffbd c1f4 81bd
00000320: 90de 0e3b 4992 8abd 3805 ecbc b55d 11bd
00000330: 65b7 f5bd 5231 593d e7b3 0cbe d0bd d83c
00000340: 3dce babd ed09 07be 94dc ff3d 7892 7ebd
00000350: 99b0 333c 2ffe e03d 8e52 723b d08a 763d
00000360: 87e1 d63d 2c4f 1ebd 293e 04bd de19 833d
00000370: 760d f4bd d468 05be c52d 44bd d544 063e
00000380: cc48 b83d e92f 01be c12c 89bb bf43 c8bd
00000390: 0837 b2bd 770b ef3d e388 0bbe 91ca c73d
000003a0: 3571 0bbd ed30 003e fb2f 6cbd 3760 11bd
000003b0: d3ea a0bd fb37 913c c92d 0ebd 0bbb f03d
000003c0: af82 ce3d 02e6 b83d 17d2 57bd 98d5 993d
000003d0: 5a54 87bd dace a0bd f552 633d 37e2 c1bd
000003e0: 72d7 cf3c 759d 333d e797 943d d865 423d
000003f0: 9721 2dbd 7043 093e 9727 39bb fe93 313d
-0.1159705 -0.019145705 0.05275566 0.115871 0.06557583 0.045110486 -0.10746965 0.1270646
0.12452876 -0.019085929 -0.096551225 0.079204954 -0.026167048 0.06441175 -0.14210355 0.0025604807
0.075827844 0.054938693 -0.1364943 0.0668766 0.028177576 -0.032352764 -0.12064229 -0.03578452
0.051927693 0.08587107 0.019724887 0.08514871 -0.08264652 0.006261814 0.06547887 -0.10433126
0.10299713 0.07095107 -0.0771922 -0.118189394 0.18396454 0.046628624 0.08190322 0.093313426
-0.12924014 0.03742706 -0.08807786 0.09056105 0.11471697 0.00095347426 -0.016065734 0.10039981
0.11368817 0.022529602 0.06761282 0.041092742 -0.07267428 0.09479844 0.06082847 -0.10003897
-0.11555964 0.037171926 -0.1372165 0.040537413 0.092712164 -0.11788795 0.035129525 0.016870903
0.006865492 0.12261793 -0.0845605 0.075894564 0.10551936 -0.096509494 -0.027192602 -0.111281455
-0.11656516 -0.16705441 -0.067753986 -0.046972398 0.13368788 -0.14187843 -0.05089457 -0.0023916613
0.05357131 -0.1398465 -0.031423785 -0.034324627 -0.22599569 -0.135722 -0.14412576 0.1121725
0.025264008 -0.03198942 -0.14644144 0.12060618 0.05937001 -0.07413544 -0.01528668 0.10455549
-0.046996195 -0.12989026 -0.120064385 -0.14089341 0.080422975 -0.08628708 -0.03257283 -0.053561565
0.07058946 -0.12634876 -0.13095193 0.10436398 -0.044541515 -0.08334837 -0.02439997 0.08715349
-0.055521578 0.008716648 -0.010761815 -0.12538083 -0.08547174 -0.11106212 -0.125123 0.04639815
0.113497645 -0.11854149 0.11372582 0.0110449465 -0.05416709 -0.12395074 0.057817236 -0.099360056
-0.10783788 -0.042504124 0.010498317 -0.1094501 -0.12645029 0.022166753 0.1391857 -0.1254455
0.035856906 -0.035879876 -0.12413722 0.13836391 -0.11044899 0.029009782 0.051328726 -0.0023719338
-0.100233264 -0.07750178 -0.047822736 -0.09144049 -0.06571849 -0.043557 -0.06839081 -0.12451743
0.03193098 0.07876087 0.07174631 0.08761354 0.07444068 -0.0050433273 0.08989645 -0.09906849
0.06327527 0.0765407 0.12348192 -0.052356534 -0.05715209 0.02580955 -0.12396821 0.0967663
-0.07672052 0.007847761 -0.12250157 0.05935927 -0.13257588 0.03467218 0.10917662 -0.02340169
-0.0739357 -0.102729 -0.12836052 -0.038287856 -0.053671617 0.084974766 -0.132185 -0.11040657
0.05537071 -0.1091514 -0.10598808 0.066616006 -0.030871013 -0.078333415 0.05675109 -0.13290474
0.03503379 -0.028218083 -0.12033553 -0.085166655 -0.12692623 0.0055733523 -0.124802575 -0.06345511
0.0021800138 -0.06766183 -0.028811082 -0.035489757 -0.1199787 0.05302555 -0.13740502 0.026457697
-0.09121368 -0.1318738 0.12493244 -0.062151402 0.010967397 0.10985982 0.0036975476 0.060190976
0.10492235 -0.038649723 -0.032285843 0.06401418 -0.1191663 -0.1302827 -0.04789521 0.13112195
0.0899826 -0.12615933 -0.0041862433 -0.097785465 -0.08701903 0.116721086 -0.13626437 0.09755433
-0.03404351 0.12518664 -0.057662945 -0.03549215 -0.07857289 0.017726889 -0.034711633 0.117544256
0.1008352 0.090282455 -0.05269059 0.07511443 -0.06607886 -0.07851954 0.055499036 -0.09466975
0.025371287 0.043851335 0.072555356 0.047460407 -0.042268362 0.13404632 -0.0028252357 0.043354027

cnn2.0.bias f4 [32]
00000000: f581 c9bd ab65 843d c174 cfbc 9d86 e6bd
00000010: 338b 52bd d13c 3b3d dd39 063e eda2 dc3d
00000020: 6ab4 973a d051 413d e28b 9ebd 1b8e 9d3d
00000030: 0121 8ebd 526f 0b3e e142 9fbd 22fc fa3d
00000040: 768b b9bd 6c2b c53d bba0 b2bd 5dd3 8abd
00000050: 3867 4a3d bc72 e9bd 3518 a73c 2c05 77bd
00000060: 2249 823d 69c5 ce3d 8d0c 733d c6e7 e7ba
00000070: e340 223a 5d4e 10be d256 843d 7fd2 2abc
-0.098392405 0.06464704 -0.025324227 -0.11256144 -0.051402282 0.045712296 0.1310801 0.10773263
0.0011574153 0.047197163 -0.07741524 0.0769312 -0.06939889 0.13616684 -0.07776428 0.12255122
-0.09059803 0.09627423 -0.08722063 -0.067785956 0.049414843 -0.11398837 0.020397285 -0.060307667
0.06361605 0.10096247 0.05933814 -0.0017692975 0.00061894784 -0.14092393 0.06461872 -0.010426163

lstm1_1.weight_ih_l0 f4 [64, 32]
00000000: 2db8 553e 67a7 303e 021f 313e 2ca1 783e
00000010: 886b c53d 4ff6 a1bd 887b 793e bad8 2cbe
00000020: adc9 833c 941f 29be a9a9 303d dc81 943e
00000030: a01c 65be 7caf 03be 26cc 18be a1cd f33d
00000040: 0994 353e 1cd4 b13c b4bb e43d a767 5dbd
00000050: 6e63 4b3e 1c9d 50be 1521 e73d 0b07 48be
00000060: 7d1e ec3d f69a 263e 6d05 803e 3482 dbbd
00000070: 1c75 5abe b786 8e3e d283 683e b90d 77bd
00000080: c9f8 97bd ac4e a6bd 000e 863d 4a54 1a3e
00000090: fc3e 293e 84ca 73be 7cd1 52be f0e2 1abe
000000a0: 6e26 6ebe 8dba d6bc bfa8 d63d 45e1 bebd
000000b0: 039d 423e 90b6 0cbd ec43 dc3d 65f0 413d
000000c0: 02e2 6b3e 2572 4fbe 401c 61bd ad23 1cbe
000000d0: 8e8c 2b3e 342b 66be d7ed 2cbe b007 53bc
000000e0: 06c1 45be 63ea 163b f226 63be 860e 243e
000000f0: 803e 1cbd 01b0 debd a38a 9f3d ab90 a33d
00000100: 0e14 433d e09d 523e f4cc 6dbe 0002 60bd
00000110: 78ad cabd 90d7 6d3e f034 48bc 7042 823d
00000120: 2c89 963b c6ca c83c 3307 26be 9a0f 78bd
00000130: 51f7 1d3d e893 113e c0ea 623c edaf 6cbd
00000140: 18d4 27be 6bfb 5fbe 6cae 8dbd 6448 98bc
00000150: a293 803e 3e4a 483e 2297 4d3e d698 393e
00000160: 0fa9 f4bd 3f88 26bc f57f febc c0fd 843b
00000170: f0f0 013d ec1d 24bd bcad 833d e6e3 62be
00000180: 1a98 f03d f068 f43d 0e29 69be ec49 f83d
00000190: b616 0d3e fb15 13be 70d8 e9bb 3844 ac3d
000001a0: 0138 babd e89f 833c c319 e0bd e3ca 5c3e
000001b0: a01d c7bd b471 b33d 4023 2c3d ad49 f0bc
000001c0: b58f 883d 1549 92bd d4e5 b03d 6c6d 32bd
000001d0: 540d 3f3d f2d0 0fbe e468 c1bd b675 dd3c
000001e0: 071f 963e 3bb8 1d3e 4816 3ebe 2a19 4b3e
000001f0: 84c6 f4bd a1a6 013d 535f 2b3e e74a ae3e
00000200: 4d2c 7d3e dba2 2cbe bc85 72be aaf0 2f3e
00000210: 9c93 0e3e e932 52bc 29cf 0bbe d0b8 c83d
00000220: be87 333e 5d87 4abe 6ee2 5fbe f585 a7bd
00000230: eb7d 3ebd 279f c63d f8fa e9bd 6d3a ad3d
00000240: 44b9 f5bd a7c0 433d 389e 4bbd 40f0 adbc
00000250: b49c 9bbb 7683 733e 3f32 bbba fb12 0bbe
00000260: 839c 4ebd 1336 983c c885 23be c82e 9b3d
00000270: c4c8 023e 1392 02be f22d 4ebe 8d78 c93d
00000280: 066e 0a3e edfd 083e bcc1 4ebe 70db 283e
00000290: 2498 72be 1b23 82be d9e7 43be 7a9c 6cbe
000002a0: bdd1 5c3e d8a3 1dbe bc74 06be 0ee5 a2bc
000002b0: 59c7 c73d 26a1 6e3e b007 06bd 58f1 4fbd
000002c0: 0413 a0bd 624d c23d 3097 1b3e 52f0 3b3e
000002d0: 57f0 463e 1c83 8b3d 7030 bfbb 7abb 11bc
000002e0: 1407 673e 3aae 9d3d d731 4dbe 3e73 5a3e
000002f0: 56c9 09be c043 1ebe a64a 9bbd da89 15be
00000300: f053 023e 65e1 5fbd 7882 6dbe 1471 d3bd
00000310: f833 46be b73b 943c a2a0 53be 646a e73d
00000320: a245 1cbe de30 2dbe e3f1 f33d 068b 873b
00000330: ebc9 283e 5374 b83c accf 573e 7ede 6ebe
00000340: 7fcb 273e 63e0 383d 3474 e4bd 1199 63be
00000350: 139b 1fbc 5ab0 7c3e 0ae3 e0bc 50f7 813e
00000360: e6c5 f63c b7dc fdbd 611d d73d f861 b6bd
00000370: 80e0 45be 2cc2 543e c9ff d5bd 5621 053e
00000380: 1c20 0b3e 696a 1f3e c06d 08be 528a 36be
00000390: c00d 61bc b4d1 6bbd 542d cbbd f29f 453e
000003a0: 5259 a3bd 33f7 6f3e 6946 73bd 6e96 03be
000003b0: 0bbd 79be 320d 54be 40d1 8c3b b272 f03d
000003c0: d42f 453d ac78 3a3d c8fc 553d 95e4 30bd
000003d0: 317a 84bd 9428 73be 7877 32be f73e 4ebe
000003e0: 42e4 6a3e 7e67 363e 59f9 94bd 8011 3abb
000003f0: bc67 41be ab17 153e d3c2 dfbc b6bc 9dbd
0.20871039 0.17251359 0.17296985 0.24280232 0.096396506 -0.07908308 0.2436353 -0.1687955
0.016087377 -0.16515952 0.04313055 0.29005325 -0.22374201 -0.1285991 -0.14921626 0.11904455
0.17732252 0.021707587 0.11168614 -0.05405393 0.19862148 -0.20372432 0.11285607 -0.19533937
0.11529253 0.1627005 0.2500414 -0.10718194 -0.21333736 0.27837154 0.22706535 -0.06031582
-0.07420499 -0.08120474 0.06545639 0.15071216 0.16527933 -0.23807722 -0.20587724 -0.15125632
-0.23256847 -0.026212001 0.104814045 -0.093203105 0.19005208 -0.034353793 0.107551426 0.0473484
0.23035434 -0.20258386 -0.054958582 -0.15247984 0.16752836 -0.22477418 -0.16887604 -0.012880251
-0.19311914 0.002302789 -0.22182825 0.16021165 -0.038145542 -0.10873414 0.07790115 0.079865776
0.047626548 0.20568037 -0.23222715 -0.054689407 -0.09896368 0.23226762 -0.0122196525 0.06360328
0.004593989 0.024510752 -0.16213684 -0.060561754 0.038565937 0.14216578 0.013849914 -0.057784963
-0.16389501 -0.21873252 -0.06918034 -0.018589206 0.25112635 0.19559571 0.20077184 0.18124709
-0.11946308 -0.01016432 -0.031066874 0.0040585697 0.031723917 -0.0400676 0.064296216 -0.22157249
0.11747761 0.11934078 -0.22769567 0.121234745 0.13778195 -0.14363854 -0.007136397 0.08411449
-0.09092713 0.01606746 -0.10942414 0.2156177 -0.097224474 0.087619215 0.042025805 -0.029332006
0.06668035 -0.071428455 0.08637586 -0.043561384 0.04664357 -0.1404455 -0.094438344 0.027033668
0.29320547 0.1540231 -0.18563187 0.19833818 -0.11951926 0.03165305 0.16735582 0.3404152
0.2472393 -0.16859 -0.23683828 0.1718165 0.13923496 -0.012829521 -0.13653244 0.09800875
0.1753225 -0.197782 -0.2186372 -0.08179847 -0.046506803 0.09698325 -0.114248216 0.084584095
-0.11998227 0.04779115 -0.049711436 -0.021232724 -0.004748905 0.23780617 -0.0014281942 -0.13581459
-0.05044223 0.018580472 -0.15969002 0.07577282 0.12771899 -0.12751035 -0.20134714 0.09837446
0.13518533 0.13378115 -0.20191091 0.16489959 -0.2369085 -0.25417408 -0.19131412 -0.23106566
0.21564384 -0.15394533 -0.13130468 -0.019884612 0.097548194 0.23303661 -0.032722175 -0.050767273
-0.07816127 0.09487416 0.15194392 0.18353394 0.1942762 0.068121165 -0.0058346316 -0.008894796
0.22561294 0.07699247 -0.20038544 0.21333024 -0.1345571 -0.15455532 -0.075825974 -0.14603367
0.12727332 -0.054658312 -0.23194301 -0.10324302 -0.19355762 0.01809488 -0.20666745 0.11299589
-0.15260938 -0.16913173 0.119113706 0.004136446 0.16483276 0.022516405 0.21075314 -0.23327062
0.16386221 0.045135867 -0.111549765 -0.22226359 -0.009741562 0.24676648 -0.02745201 0.25383997
0.030123662 -0.12395614 0.105036505 -0.08905405 -0.19323921 0.20777196 -0.10449178 0.13000998
0.13586468 0.15567936 -0.13323116 -0.17826203 -0.013736188 -0.057573035 -0.09920755 0.19299296
-0.07976021 0.23434143 -0.05939332 -0.12850353 -0.2438852 -0.20708159 0.0042974055 0.117406264
0.048141316 0.045525238 0.052243024 -0.043186743 -0.06468619 -0.23745948 -0.17428386 -0.20141207
0.22938636 0.17812917 -0.07274122 -0.0028391778 -0.18887228 0.1455981 -0.02731458 -0.077020094

lstm1_1.weight_hh_l0 f4 [64, 16]
00000000: 22ae 3e3e 2197 463d b115 f73c 62dc 8abe
00000010: 0d7e 133e 7c50 10be 350e 623d 4625 13be
00000020: 82a4 863d d0f2 dfbd 1fd8 a4be 5dec b5bd
00000030: 7f1f 5a3e 2848 73be 5769 103e 6d3d 023e
00000040: a75e ecbc 67d1 b7ba ae42 91bd e5c4 6e3c
00000050: 26cd 34be fa63 703e 7e8c 803d 6d24 f63d
00000060: 431c ecbd 347c dabd 978e 3ebe 66c9 d8bc
00000070: 2eca 9ebd a153 453d 69f0 4ebe 692e 353e
00000080: 15a4 d3bd 2698 e23d abe2 c7bd 12a9 6d3d
00000090: 3fe6 d0bb f031 733e 7a78 1bbe 2353 dabc
000000a0: 2c6c 333d b7be f9bc 7f72 1a3d 8809 16be
000000b0: 03b5 68be c82a 6abe ede8 1c3e a544 fbbb
000000c0: ebff 1dbd 982e 2b3d 0424 413e a4c2 72bc
000000d0: a04e 05be d6ec e9bd 2b29 663d 56cd 223e
000000e0: e3ff 96be 3243 47be 5934 a1be dc45 8ebe
000000f0: 0dd0 783e f3c9 38bc d14f 973e 6f39 3d3d
00000100: 66f5 5abe 93e4 18be 1619 e43d 5329 bebd
00000110: 841a 78be 1a1a 603d 1789 823e 9f43 3d3e
00000120: 1ee7 90be d6ab da3d b6fd c4bd aabf e03c
00000130: ac9f 9c3e eaf7 d9bb f7a4 f23d 8eaf 723e
00000140: c694 6cbd 050d 163d 3870 243e d76a 5e3d
00000150: 4aef 993c a848 32bd a053 dd3c a8c6 b23c
00000160: 4006 d53d 055f b2bc eaa5 7c3d afd2 0abc
00000170: f657 29bd b90f 6b3e 8079 1f3d 9a13 3a3d
00000180: 169a 493e 5be4 7d3e a4ef 36be cf31 24bb
00000190: eb3e 4d3c 4060 2b3e aaa9 cebd 3179 443e
000001a0: 75fd 78be 4d0a 743d 4eb4 a5be 9f81 793e
000001b0: fdab 213d 3783 633e 0a80 bbbc 3071 203e
000001c0: e9a9 5a3e e510 c73c 323f 4dbe ba7f 45be
000001d0: ac71 133e cfd7 9c3d d04b c93d 77b6 05be
000001e0: ef1b 583e c82f d2bd b3b1 2ebd 016b 213e
000001f0: 83a1 d03c 0921 98bb 6043 22be 8669 513d
00000200: b8d0 973d fcc5 693e babd bebd dfd8 7d3d
00000210: ea7a d5bd aaf5 8f3d 82db 11be 1978 6abe
00000220: fe6f 22bd 009d 37be 9536 4abd 2c4b 573e
00000230: 3b1b 87be 00cb 5abe 273a d5bd 9107 6fbd
00000240: 2a8c 993c 6688 94bd fc6e 743d 802e 27be
00000250: bce5 d43d 9d8f fabd 98e0 e4bd 95df ae3d
00000260: 04e0 a33d 994d 43be 8ef3 e13b d293 653e
00000270: f930 8ebd 823f 2fbe 4a8e 4e3e e905 4b3d
00000280: 0736 1cbd 67d1 933d 53f0 053c 5007 163d
00000290: 34ce 00bd 770d bbbd 8be8 583c ad96 c2bd
000002a0: 9797 6bbe 4fe5 a33d 4502 2fbe 4c67 f83d
000002b0: 2ed8 093e db49 0bbe 379e f2bd bb31 fa3d
000002c0: 0e93 d2bd 7d5c b73c ebe1 bbbd f553 293e
000002d0: 6963 3bbe 3481 b63d 759a 09be dfac ac3d
000002e0: ad7f 55bc 2c85 243e bd33 2b3e 864d 18be
000002f0: 9e93 693e 9fd8 1bbe 5922 963c de6e 7abe
00000300: 5fb9 2a3d ae98 ccbc 3881 ddbd e4f8 03be
00000310: 5fc3 a83b 68ef 0bbe d876 ea3d 870a abbd
00000320: cd3a e83d 9a81 0fbe a213 6f3d 91aa a33d
00000330: f5c3 32be d5c1 c0bc 5ba0 e6bd f9df 39bc
00000340: 4ea1 6ebd b19d 7cbd 0da7 e53d 8774 6e3e
00000350: be6c f83c 09b2 ae3c d055 213e dbb2 753e
00000360: 8f4c 4cbe 47ab 33be e707 80be 66ae bc3d
00000370: 1e64 8f3e 4d74 513e a73b 4ebe 00d0 9bbd
00000380: 2bf4 e7bd fc94 463d d65d 89bc 40af 22be
00000390: 67cd 06be be46 19be 44eb fb3d bf81 35be
000003a0: a93f 243e 3f0c 44be 3b65 93be e422 1dbe
000003b0: a4f2 a63e 2fa4 593d 6022 8a3e 5704 06be
000003c0: 0c68 0cbb 1580 593e eb36 d6bd 3e9f 1abe
000003d0: a2f3 82bd f406 f0bd 1101 1d3e a62b 7abe
000003e0: e88c 0a3d 3096 8cbd d8c3 89be 0816 183d
000003f0: 33f1 64bd 3da7 33bd 603f 583e a6fc 17be
0.18621114 0.04848397 0.03016171 -0.27121264 0.14403553 -0.14093202 0.05518933 -0.14369687
0.06574346 -0.10934985 -0.32196137 -0.08882973 0.21301077 -0.23757994 0.14102684 0.12718745
-0.028853728 -0.0014024199 -0.07092796 0.0145733105 -0.17656383 0.23475638 0.06276797 0.120186664
-0.11528828 -0.10668221 -0.18609081 -0.026463222 -0.077534065 0.048175458 -0.20208897 0.17693485
-0.103340305 0.11064176 -0.0976003 0.058022566 -0.0063751037 0.23749518 -0.15182677 -0.02665097
0.043804333 -0.030486448 0.03770685 -0.14652073 -0.227253 -0.22867882 0.15323229 -0.007668095
-0.03857414 0.041792482 0.18861395 -0.014816914 -0.13018274 -0.11422126 0.056191605 0.15898642
-0.294921 -0.19459227 -0.3148525 -0.27787673 0.24298115 -0.011278617 0.29553083 0.04619735
-0.21382675 -0.14930944 0.11137597 -0.09285226 -0.24228865 0.054712392 0.25495216 0.18482827
-0.28301328 0.10677306 -0.09618704 0.027435143 0.3059057 -0.006651868 0.11847871 0.23699781
-0.05775907 0.03663351 0.16058433 0.05430111 0.01879086 -0.04352632 0.027017415 0.021823242
0.10401583 -0.021773824 0.061681665 -0.008473082 -0.04134365 0.22955216 0.03893423 0.04542885
0.19687685 0.24794142 -0.17864853 -0.0025054102 0.012527208 0.16735935 -0.100909546 0.19186856
-0.24315436 0.059580136 -0.32364124 0.24365853 0.03947066 0.22218023 -0.022888202 0.15668178
0.21353878 0.024300048 -0.20043638 -0.19287005 0.14398831 0.0765835 0.09828913 -0.13057886
0.21104406 -0.1026302 -0.042649936 0.15763475 0.02546764 -0.00464261 -0.15846014 0.051126026
0.07412857 0.22829431 -0.09313531 0.061974403 -0.104238346 0.070292786 -0.14243892 -0.22897376
-0.039657585 -0.17930984 -0.04936846 0.2102477 -0.26387963 -0.21366501 -0.10411482 -0.058356825
0.018743593 -0.072525784 0.059676155 -0.16326332 0.10395381 -0.12234423 -0.1117565 0.08538739
0.08001712 -0.1907257 0.006895489 0.2241967 -0.069429345 -0.1711407 0.20171466 0.049566183
-0.038137462 0.07217675 0.008174974 0.036628067 -0.03144665 -0.091334276 0.013239036 -0.095013954
-0.23007046 0.080027215 -0.1709071 0.12129077 0.13461372 -0.13602392 -0.11846583 0.122165166
-0.10281955 0.022382969 -0.0917395 0.16535933 -0.1829964 0.08911362 -0.13437827 0.0843141
-0.013030929 0.16066426 0.16718955 -0.14873323 0.22810218 -0.15219353 0.018326925 -0.24456355
0.04168069 -0.024975147 -0.10815662 -0.12887913 0.005150243 -0.13665545 0.11448449 -0.08351617
0.1133934 -0.14014283 0.058368333 0.07991517 -0.17457564 -0.023529926 -0.11261054 -0.011344903
-0.0582593 -0.061673824 0.11213503 0.23286639 0.03032529 0.021325128 0.15755391 0.23994009
-0.1995108 -0.17545806 -0.2500603 0.09212951 0.2800607 0.20454521 -0.20139943 -0.07608032
-0.11325868 0.048481926 -0.016768377 -0.15887165 -0.13164292 -0.14968392 0.12300733 -0.17725275
0.1603991 -0.19145297 -0.2878817 -0.15345341 0.32606995 0.053135093 0.2697935 -0.13087593
-0.0021424321 0.21240266 -0.104596935 -0.15099809 -0.063941255 -0.11720076 0.15332438 -0.24430713
0.033825785 -0.068645835 -0.2690723 0.037130386 -0.055894088 -0.043860663 0.21117926 -0.14842471

lstm1_1.bias_ih_l0 f4 [64]
00000000: df93 be3c 1d6e 013e 451d 4bbd b402 7e3e
00000010: b7e1 253e c3b4 9abd 0891 e43d 76ee e2bb
00000020: 34b5 b2bd ac08 f33c a917 933c 56bd 24be
00000030: d92b 203e 6fa9 5fbe fe27 913e cac1 473b
00000040: feec 1fbe 2b9b 5dbe a504 e4bd 2b38 32be
00000050: 8a73 6fbb ab2e 0d3e 3dea b23c 5c8e a6bc
00000060: d861 83bb 925f 74be 0352 973e 82c1 7cbb
00000070: bc18 19be 7c77 d0bd 978a 663e 2387 7f3e
00000080: 0a9f ecbc f739 4f3e bb12 d73d ff1e 983d
00000090: f33f ff3d 8772 0f3d cfc2 d33d 9a56 3b3e
000000a0: edbf edbd 8cf1 933a d599 963e 3f2c 78bd
000000b0: 6d64 e63c b8ce a3bd aad9 a73d e1d6 193e
000000c0: be19 423c 163c 6abe c550 15be 4f22 053e
000000d0: 824c 753e c0dc d63c 97dc 1b3e 7d9d f63d
000000e0: 6d06 243d a616 073e 5d6e 7e3e 7ada 06be
000000f0: ee27 343e f010 313d 69dc 6a3e 7d4a 72be
0.02326387 0.12639661 -0.04958846 0.24805719 0.16199385 -0.07554009 0.11160475 -0.0069253994
-0.08725968 0.029667221 0.017955618 -0.16087851 0.15641727 -0.21841978 0.28350824 0.0030480498
-0.15617749 -0.21641223 -0.111336984 -0.17404239 -0.0036537373 0.13787334 0.02184021 -0.020331554
-0.0040094666 -0.23864582 0.29554757 -0.0038567488 -0.14950842 -0.1017904 0.22513805 0.24953894
-0.02888443 0.20236956 0.105016194 0.07427787 0.12463369 0.03502133 0.10339891 0.18294755
-0.116088726 0.0011287197 0.2941424 -0.06058907 0.028124059 -0.07998413 0.08195813 0.15023376
0.011846958 -0.22874483 -0.14581592 0.13001369 0.23954967 0.026228309 0.15220867 0.12041757
0.04004519 0.13192233 0.24846788 -0.1316928 0.17593357 0.043229043 0.22935642 -0.23661228

lstm1_1.bias_hh_l0 f4 [64]
00000000: 254c 5abe 8322 b2bd 7772 433e 5c47 913e
00000010: 53fe 843c 4757 d0bd b82b e9bd 7410 02be
00000020: 8b95 29be 9e52 583e 05bc 9d3e 0284 e7bc
00000030: 4b23 3b3e 53ed d13d 8b8a 7c3e 5b59 763d
00000040: abdf c23d ffbb 59be 0616 063e 0ae4 843e
00000050: 9047 b63d 73be 9a3d b932 2bbe 6791 8fbd
00000060: 8bbf 2bbe 2e91 603d 8870 033e f273 083c
00000070: ac34 6dbe fab3 83be 9b57 973d 5806 9ebc
00000080: 104a 64be fae7 973c 659f 193e 6857 013e
00000090: 703f 04be 77ad dcbd a05e 283e 3cb9 d83d
000000a0: bba0 77be 9383 1ebe 224b d83c 764e 0abe
000000b0: 253c 8fbd 234e 28bd 1432 c9bc 3d63 743e
000000c0: 91a5 27be 32aa 433e f7fc b23d a499 1a3d
000000d0: 7175 7d3d 4995 19be f3cd e5bd 7da0 3c3e
000000e0: 1eb7 09be 8b58 47bc 5ef4 81bd 2ecd 863d
000000f0: c09c d03d 7e94 4ebe 8fde 193e d9c6 733e
-0.2131811 -0.08697989 0.19086634 0.28374755 0.016234552 -0.10172897 -0.11385292 -0.12701589
-0.16560952 0.21125266 0.3080751 -0.028261188 0.18275182 0.10250344 0.24662225 0.06014381
0.095153175 -0.21263121 0.13094339 0.2595523 0.08900368 0.075558566 -0.16718568 -0.07010155
-0.16772287 0.054825954 0.12835896 0.008328425 -0.23164624 -0.2572325 0.07389756 -0.019290134
-0.22293878 0.018543232 0.1500221 0.12630999 -0.12914824 -0.10775273 0.16442347 0.10582206
-0.24182408 -0.15479879 0.026403014 -0.13506493 -0.069938935 -0.041090142 -0.024560012 0.23865981
-0.16371752 0.19107893 0.087396555 0.03774418 0.06187958 -0.14998354 -0.11220922 0.18420596
-0.1344876 -0.012167106 -0.063454375 0.06582104 0.10186148 -0.20173833 0.15026306 0.23806323

lstm1_1.weight_ih_l0_reverse f4 [64, 32]
00000000: f8f2 413e 82ae d53d accf d03d e041 673c
00000010: 545e 36be 3c34 0abe 3470 62be d0d9 afbd
00000020: 7ddf 70be e874 c33d 2759 223e 1f6c 103e
00000030: a1d3 fbbd 3131 fbbd c626 6d3e 0259 cc3d
00000040: 33d5 313e 96f2 2d3e 780f 90bd 0a3c 17be
00000050: 8d42 093e b887 383d b996 9abd 318a 623e
00000060: a406 f73d ebac 7e3e 4867 5b3e a6be 6f3e
00000070: ea1a 1e3e af8f 84bc 7089 1dbe fa04 a03e
00000080: 24e9 113e 48b1 79bd 629d 703e 041a 533e
00000090: d029 f03c 03a1 58be 9307 08be 7c55 533e
000000a0: ef82 91bd eaad b23c ae9a 873d da92 523e
000000b0: 140c bebd ac94 ec3c 6229 6d3e e4cc 673e
000000c0: 4e11 7cbe d225 403e c083 4b3d 4fbd 19be
000000d0: 4159 8f3e 3485 e0bd 663a a0bd eba4 4f3e
000000e0: 6397 5cbe a444 3b3e f0a1 51be b4eb babd
000000f0: 546a 333e e9fc 8e3e 7a7c af3d 66c8 993e
00000100: d676 4dbe efef 42be 6899 32be d6dc 75be
00000110: 8845 783d 8f36 0bbe d67b 52be 7430 e4bd
00000120: 3abe f0bd 571a 173c 5d38 6cbc 4ed7 a3bd
00000130: b76e 4abe 855b eebd 70d9 d3bc 3897 0e3e
00000140: e110 013e 78c1 ac3d d251 67be e26a fc3d
00000150: 1043 a93b 843f cc3d 29ed 38be 8c3e 27be
00000160: 9dc3 61be ae64 83bb f96a f23d 6431 9d3d
00000170: 2085 cc3d f8ea 39bd 7f8e 1b3d d5e1 a9bb
00000180: 9721 71be 167d bb3a 9cd3 273e 08f7 903d
00000190: 34c7 cd3d 317e c63c dee0 3f3e 0c9b e5bd
000001a0: 4294 b5b8 d679 273d 8792 053e d2e1 9c3e
000001b0: edd6 07be 6ab7 5bbc a4d9 b6bd c553 a93a
000001c0: 1e1a 723e 2be6 9e3c 9403 2f3e 854d 0d3e
000001d0: 7b38 4abe 88d4 68be f775 22be 5520 703e
000001e0: 6a58 35bd 50be 063c f999 ee3d c2e6 723e
000001f0: 004a 38bc a453 663e f7ae 003e 9f1e 10be
00000200: b3f0 6a3e 0390 6dbe 8cab 31be e6f6 62be
00000210: 54d2 0d3e 1746 413e dac9 433e 180c fc3d
00000220: d802 19bd 6612 403d 7696 37be 1c3d 283c
00000230: 50c6 3e3e d654 8abd d6a2 12be 56c0 933d
00000240: f338 bf3d e843 7fbd 607b 573c 9cfd 193d
00000250: b15e b7bc e42b e63d 8f57 27be e3f2 9cbd
00000260: 31a6 133d 0e62 4abe 6f33 61bd 584e 5abe
00000270: 5ada 10be 9ac7 543e b58e 56bd ba03 f33c
00000280: 3d68 7bbd 6bfe 323d 043e 873d eafc 58be
00000290: a0c9 58be 9be8 97bd 0295 14bb de2b 063e
000002a0: d3a1 2cbe 609f f13c ca5d c0ba adb3 543d
000002b0: 0653 4a3e 6357 b0bc ac03 513e 2687 13be
000002c0: 09cc 033c 931a 1d3e 809b aebd b778 6d3d
000002d0: 6e78 ca3d b87d 813d 5efe 54be 2ce2 223c
000002e0: c3c0 1abe c25c 6e3e 4649 bd3c 2028 7dbe
000002f0: d680 6d3e a968 9b3b 6d99 193e 3307 97bd
00000300: aebf 1a3e d4f6 3cbe ac84 d83d 56fc 0b3e
00000310: f64d 313e 92ce a2bd 84e4 2dbd 78e8 2c3e
00000320: 6f4d 543e 6f3b 4b3e 17ae 393d 9873 0e3e
00000330: 83ea 473e d889 243e c0a3 0d3e 4d84 ddbd
00000340: c75a 003e 7837 9bbd 30df 17be e92f 87bc
00000350: 86cf 58bd de27 6c3e a2e7 34bd cfe6 783e
00000360: a6cd a1bc 56ab a63d e944 22be f0c8 b03c
00000370: 2487 73be e861 ac3e 440b 663d 8f2b 443d
00000380: 55d5 783e 9e62 c83d 60b6 19bd eea3 20be
00000390: c004 483c 0b10 68bd 8db8 3c3d a64e 0bbe
000003a0: db24 a9bd 53ee 6bbe 4c74 4b3e 5030 733e
000003b0: fddf d8bd 2e0f 64bd 1039 3e3d 2115 2abe
000003c0: f664 ea3d 90f3 02be 7c9a 603e f913 47be
000003d0: 070f 143e 049a ec3d 5b6b 463e 0d7f 71bd
000003e0: 02da 3b3e c286 863d 3d8f 26be b80e 52bd
000003f0: 388d 723e 18ac 0c3e 45f2 643e 5910 7e3e
0.18940341 0.10433675 0.1019586 0.014114827 -0.17809421 -0.13496488 -0.22113115 -0.08586466
-0.23522754 0.095437825 0.15854321 0.14103745 -0.122962244 -0.12265242 0.23159322 0.099779144
0.17366485 0.1698707 -0.070342004 -0.14768997 0.13404293 0.045051306 -0.07548279 0.22123028
0.120618135 0.2487065 0.21426117 0.2341257 0.15439954 -0.016181795 -0.1538446 0.31253797
0.14249092 -0.060960084 0.23497537 0.20615393 0.029316813 -0.21155171 -0.1328414 0.20638078
-0.07105052 0.021811444 0.066213 0.20563832 -0.092796475 0.028879486 0.23160318 0.22636753
-0.24615976 0.18764427 0.049686193 -0.15013622 0.27997783 -0.109629065 -0.078236386 0.20277755
-0.21542124 0.18287903 -0.2047193 -0.09126988 0.1752103 0.2792733 0.08568664 0.30035704
-0.20064864 -0.1903684 -0.17441332 -0.24010023 0.060613185 -0.13595031 -0.20555052 -0.11142054
-0.11755033 0.0092225885 -0.014417735 -0.080000505 -0.19768797 -0.1163855 -0.025860518 0.13924873
0.12604095 0.08435339 -0.22589806 0.12325074 0.005165465 0.09973052 -0.1805922 -0.16332453
-0.22047277 -0.0040098047 0.1183681 0.07675436 0.09986329 -0.0453901 0.03797769 -0.005184392
-0.2354797 0.0014304246 0.16389316 0.070783675 0.100477606 0.024230095 0.18738124 -0.112112135
-8.658368e-05 0.040887676 0.13044177 0.30641037 -0.13265581 -0.013410429 -0.089282304 0.0012918642
0.23642775 0.019396862 0.17091209 0.13799103 -0.19748108 -0.22737324 -0.15865313 0.23449834
-0.04427377 0.008224085 0.11650462 0.2372084 -0.011248112 0.22492844 0.12566744 -0.14074181
0.22943382 -0.23199467 -0.17350596 -0.22164497 0.13849765 0.18874393 0.19119969 0.12306994
-0.037356228 0.046892546 -0.1792849 0.010268476 0.18630338 -0.067544624 -0.1431993 0.072144195
0.09337034 -0.06232062 0.0131519735 0.037595376 -0.02238402 0.1123884 -0.16341995 -0.076635145
0.036047164 -0.19763967 -0.05498069 -0.21318948 -0.14145795 0.20779267 -0.05238219 0.029664863
-0.061378706 0.043699663 0.066036254 -0.21190229 -0.21170664 -0.07417413 -0.0022671823 0.13102672
-0.16858606 0.029494941 -0.0014676389 0.051929165 0.19758233 -0.021526044 0.20411557 -0.14407024
0.008044251 0.15342169 -0.08525753 0.05797645 0.098862514 0.06322807 -0.20800158 0.009941619
-0.15112595 0.23277572 0.023106229 -0.24722338 0.23193678 0.004742701 0.14999934 -0.0737442
0.15112182 -0.18453532 0.1057218 0.13670477 0.17314896 -0.079495564 -0.042454258 0.16885555
0.20732664 0.19846891 0.04533204 0.13911283 0.19523053 0.16068208 0.13831997 -0.1081625
0.12534629 -0.07578939 -0.14831233 -0.016502338 -0.052932285 0.23062083 -0.044166215 0.24306796
-0.019751381 0.081381485 -0.158466 0.02158019 -0.23782021 0.33668447 0.056163087 0.047893103
0.2430013 0.09784435 -0.037527442 -0.15687534 0.012208164 -0.056655925 0.04607444 -0.13604221
-0.08258983 -0.23040132 0.19868582 0.23748899 -0.105895974 -0.05567854 0.046441138 -0.16609623
0.11445038 -0.12788224 0.21933931 -0.19441213 0.14458857 0.11552814 0.1937689 -0.058959056
0.18344882 0.06568672 -0.16265579 -0.05128357 0.23686683 0.13737524 0.22358043 0.24810924

lstm1_1.weight_hh_l0_reverse f4 [64, 16]
00000000: a731 fd3d 1a4e 53bd ad79 00be a7eb ee3c
00000010: 10e4 1c3d b4b9 d9bb febd 83bb 6a4b a23c
00000020: 2d82 ab3d 453e b63d 0844 bbbd 4468 883e
00000030: f6ff 5c3e ffe0 03be 0483 2cbe 97d8 523e
00000040: d4b5 373e 8040 9cbe 0cea 51be 10cf 9fbe
00000050: 2ed9 aa3c ca31 13bd 37c1 3bbb cf38 ccbd
00000060: 0a29 c4bc 320e 393e df39 9a3d 5fcc 6b3e
00000070: f1ec a23e 1ff6 d4bc 7135 c33d 88ac 7b3c
00000080: 683d 58be ce69 04be 466b 703e f3da 633d
00000090: d769 cf3d 2e93 79be c05c 6bbb 5f75 143e
000000a0: 4b81 963d f5a0 2f3e 7541 6ebe 37e5 573c
000000b0: 1a27 3f3e d78b 2a3c 246e 453d 27c9 b6bc
000000c0: 7c86 443e ccaa 403e 13bf f5bd 9c78 b43d
000000d0: d61e bc3d 71de 563d 11d6 82be 88e8 58be
000000e0: a6b4 0fbc 2cfa 843e 6eb3 3abe d5da f53d
000000f0: 0245 283c 655e 633e 88aa a83d dce6 26be
00000100: 755a d23d 14e6 2ebe 27a5 48be 1cf5 de3d
00000110: 42ce a33c 451d e0bd d52d c13c f92d 01be
00000120: 50d9 64be d731 b93d 828e 33bd 868c 04be
00000130: 75f9 53be a6b8 35be 9651 31bd 25e3 913d
00000140: 8882 343e f65d 1e3e 2807 32be dd7e f5bb
00000150: 576d fabd b017 0d3e d621 f53d 4419 f53d
00000160: 44d8 45bb 41e6 5f3e 0e63 a5bd 2b13 61be
00000170: be22 5fbe a25a 20be e158 debc be08 9e3d
00000180: 4a62 60bd 2ff5 013e ce17 983c 0bc8 54be
00000190: 05c7 7ebd c63a e8bd b038 8a3d dcba af3d
000001a0: 7b0c 943d c289 8d3d f44b 233e c8db a93c
000001b0: 2b1e 323e b165 1b3e b815 0e3c 0680 e53d
000001c0: 636a 0d3d 3e82 3ebe 1fa6 e4bd 496e 9fbd
000001d0: 7f6f 8ebd 2531 ed3d 3199 fe3d aac9 abbd
000001e0: 0782 4d3e 6a58 efbc 9717 b5b9 9d92 1abd
000001f0: 575e 5c3e 9123 6a3e d9cd b33c 672c 86be
00000200: f20b 17be 8394 3abd 6cd9 21be a483 eb3d
00000210: 9be5 61bc 4fe7 3e3d e1d2 9fbd 6ff4 96bd
00000220: 0b2f a23d c64b 013e 783c 323d 818a 743e
00000230: 09bd 3d3e 7863 103e bc97 2bbe 4882 5cbd
00000240: 4492 a53d 28b6 2cbe cf19 153e 3191 233e
00000250: 7ad6 93bc 9ab6 0dbe 6bcb 26be 1e1d fbbb
00000260: 21c0 ef3c 18d6 1abe 11e6 b13c e954 c0bc
00000270: ec3e 47be 66a9 20be 2b66 0e3e 81aa 3abe
00000280: 720d 163d cb1f 3cbd 85f7 4dbe de90 8f3c
00000290: 2ee7 e3bd 084a 28be 7dc8 afbd c78d 85bd
000002a0: 32ed e5bd 2ecd 873e 5867 d53d 14d7 5ebd
000002b0: 9e3f f03d 009d 9e3e 0dce 89be ba0f ac3e
000002c0: 40b1 273c ad2e 273e f49f 45be c5bf 5d3e
000002d0: c4ce 3b3e 0230 6bbd dad9 293e d685 5f3e
000002e0: 5114 3cbe b336 5dbe d59e 74be afa6 15be
000002f0: 5087 21bd 7feb 5ebe ed77 913d fb86 bb3d
00000300: 7923 923e ba72 88be fcfb a53c 2a24 54bd
00000310: 0409 f3bd bcd9 f23d 09bf aabd 6e7d 27bd
00000320: c47d dfbd 173e 26be 299a abbd 610b 833e
00000330: d667 e73c 21ef a3bc 899a 1dbe c186 13be
00000340: 56c2 a23e 557e 9a3d 8c8d 1e3e 5178 a13c
00000350: 42ef 163e 5caf 833e b07e 3abe af0f 9a3d
00000360: f577 6dbe 7585 d43d a92e 223a 5848 ad3d
00000370: 6e34 84bc ce5d fabd 6ee9 553e 1c76 2e3e
00000380: fed4 1abe 26a0 1dbe 65b9 663e 9232 043e
00000390: 8cce 6c3d d188 983d 024b a0bd 6108 14be
000003a0: 0281 303d b41a 4d3e 85a8 8bbd 79f4 ccbc
000003b0: d3cc e2bc 16ec ba3d 479f 3d3e feaf 30be
000003c0: 0e64 053e 6248 1d3e 0e80 07be 1485 68be
000003d0: f6a6 65be 723c 873e 524a 8a3d 0771 883e
000003e0: 5d20 dabd c263 93bd cc4b 2dbd 910b 753d
000003f0: 910c 13be 5369 873e 7efa a8bd bdde 423e
0.12362986 -0.051588155 -0.12546416 0.029165102 0.038303435 -0.006644452 -0.0040204516 0.01981135
0.083744384 0.08898596 -0.09143835 0.26642048 0.21582016 -0.12878798 -0.16846853 0.20590435
0.17940456 -0.3051796 -0.20499438 -0.31212664 0.020855512 -0.035936154 -0.00286491 -0.09971773
-0.02394535 0.18071821 0.07530569 0.2302718 0.31821397 -0.025996266 0.095316775 0.015360959
-0.21117175 -0.12930986 0.23478422 0.055628728 0.10127609 -0.24372551 -0.0035913438 0.14497899
0.073488794 0.17151244 -0.23267157 0.013177208 0.1866726 0.010409317 0.04820074 -0.022312714
0.19191927 0.18815154 -0.11999335 0.08812067 0.09185569 0.05245823 -0.25553945 -0.21182454
-0.008771097 0.25972116 -0.1823251 0.120046295 0.010270359 0.22203977 0.08235651 -0.16299003
0.102711596 -0.17079955 -0.1959425 0.10886595 0.019995812 -0.10943083 0.023581425 -0.12615193
-0.22348523 0.09042709 -0.043837078 -0.1294423 -0.20700629 -0.17746219 -0.043290697 0.071234025
0.17627919 0.15465531 -0.17385542 -0.00749193 -0.12227886 0.13778567 0.11969344 0.1196771
-0.0030188719 0.21865179 -0.08075534 -0.21979968 -0.21790597 -0.15659574 -0.02714199 0.07716511
-0.054781236 0.12691186 0.018566038 -0.20779435 -0.06220152 -0.11339335 0.067490935 0.085805625
0.07228943 0.06911041 0.15946943 0.020734683 0.1739432 0.15175511 0.00867217 0.11206059
0.034525286 -0.18604371 -0.111644976 -0.07784707 -0.0695486 0.11581639 0.12431563 -0.08388074
0.20069133 -0.029216964 -0.00034540586 -0.037737478 0.21520363 0.2286513 0.021948742 -0.2620575
-0.1475065 -0.045551788 -0.15805596 0.11499718 -0.013787652 0.04660731 -0.07803894 -0.07370841
0.07919129 0.12626562 0.0435147 0.2388096 0.18529142 0.14100444 -0.16757101 -0.053835183
0.080845386 -0.16866362 0.14560626 0.15973355 -0.018046606 -0.13839188 -0.16288535 -0.007663383
0.029266419 -0.15120733 0.02171615 -0.023477988 -0.19457597 -0.1568962 0.13906161 -0.18229105
0.036633916 -0.045928758 -0.20113952 0.017525133 -0.111280784 -0.1643449 -0.08583162 -0.065211825
-0.11226882 0.26523727 0.10420102 -0.054404333 0.11730884 0.30979156 -0.26915017 0.33605748
0.010235131 0.16326399 -0.19299299 0.21655186 0.18340594 -0.05741883 0.1658701 0.21828398
-0.18367125 -0.21602897 -0.23888715 -0.14614366 -0.039435685 -0.21769522 0.07102952 0.09156605
0.28542688 -0.2665003 0.020261757 -0.0517923 -0.11866954 0.11857936 -0.08337218 -0.040891103
-0.1091266 -0.16234623 -0.08379013 0.2559462 0.028247755 -0.020011486 -0.15390982 -0.14406873
0.31788892 0.07543627 0.15483683 0.019710692 0.14739707 0.25719726 -0.1821239 0.07522523
-0.23190291 0.103770174 0.00061867625 0.08461064 -0.016138282 -0.12224923 0.20889828 0.17037243
-0.15120313 -0.15393123 0.2253166 0.12909916 0.057814166 0.07447971 -0.078268066 -0.14456321
0.04309178 0.20029718 -0.06819252 -0.025018917 -0.027685558 0.09127061 0.1851779 -0.17254636
0.13026449 0.15359643 -0.13232443 -0.22707015 -0.22426972 0.26413304 0.06752457 0.26648733
-0.10650704 -0.07196762 -0.042308614 0.059825484 -0.14360262 0.26447544 -0.082509026 0.1903028

lstm1_1.bias_ih_l0_reverse f4 [64]
00000000: c6de dbbd d473 8bbd 4710 e33d 3e5c 4f3e
00000010: 28df 763e f7de 5cbe cf0b 82bd 02a3 413c
00000020: 53aa 8cbd 7579 3a3d 2e2c 103d 8154 77be
00000030: 8e5b c2bd ff02 2abe 7d7b 68be cee9 4a3e
00000040: 850b 473e 69d9 8d3e 4ecd c5bd bef3 cabd
00000050: 6205 493d b887 e4bd aef9 e4bd f20e 0ebe
00000060: b62d 9c3c 719d e2bc b4e7 ebbd f3a5 fc3d
00000070: 6690 f4bc 5cd1 d63d 42ae 393e d694 6dbe
00000080: 1631 06be 23c5 c93d d163 683e dafe 06bd
00000090: a450 293e e755 9cbc 9ebf 09be 428c 7abe
000000a0: 2157 bb3c 98de 60be 9288 a1bd 5e0e 8ebd
000000b0: ac1e 9abd 9e7a 10bd 442e 173e b2e4 973d
000000c0: e86e f03d 95ce 563e 8296 4fbe fa70 c5bd
000000d0: cef6 6f3e 37ed e13d 8983 583e 4650 a8bd
000000e0: 4f63 173e 56dc 81bd c803 053d b797 41be
000000f0: e538 1bbe bcbf 1a3e 5637 013d c7f0 45be
-0.1073585 -0.06809202 0.11087089 0.20250031 0.24108565 -0.2156943 -0.063499086 0.011818649
-0.06868424 0.045525987 0.035198383 -0.2415333 -0.09490119 -0.16602705 -0.22703357 0.19815752
0.19437988 0.27704933 -0.096582994 -0.099097714 0.0490774 -0.11158699 -0.11180435 -0.13872889
0.019064765 -0.027662965 -0.11518803 0.1233634 -0.02985401 0.10489151 0.1813288 -0.23201308
-0.13104662 0.09852054 0.22694327 -0.03295789 0.16534668 -0.01908393 -0.13452002 -0.24467567
0.022868695 -0.21959913 -0.07887377 -0.06936334 -0.075253814 -0.035273187 0.14763743 0.07416667
0.11739904 0.20977242 -0.20272258 -0.09640689 0.23433992 0.11031573 0.21143927 -0.08218436
0.14783977 -0.06340854 0.03247431 -0.18905531 -0.15158422 0.15112203 0.031546913 -0.1933013

lstm1_1.bias_hh_l0_reverse f4 [64]
00000000: b707 9a3e cf90 063e c936 d8bb 8add 86bc
00000010: 9844 a0bd f326 6f3e d660 41be f60b 4cbc
00000020: f277 2abe c0f1 c3bd ebe4 51be 7b2c f2bd
00000030: 71df 063e be8c a5bd 5e13 7f3e 5cf6 13be
00000040: 5c53 fb3d d682 4d3e 6b62 2f3e 60d6 1d3e
00000050: ad93 ed3c 395b 0bbd 17c5 1dbe 80fd 2cbe
00000060: b1ed 893d ca00 c13d 5c17 e9bd de1c 9fbd
00000070: 9b76 0b3d a0ad eabb e040 493e b28e 66be
00000080: 5ec9 17be 5789 04be 96ad 93bd 60d6 593e
00000090: a60c 87bd 2138 6bbe 8c6d 1ebd c56d bfbd
000000a0: 8a8e efbd 70ae 7ebd 7f97 2d3d d606 96bc
000000b0: cc6b 5e3e adcc 573d 82e9 353e 7b90 143d
000000c0: b42e 813d bfad 3a3d 8473 503d 21d6 8dbc
000000d0: f386 943d cd9c 8d3d 5fc8 273e 9d8c 17be
000000e0: bb19 733e e9b9 39be 25a1 72bd 2344 233e
000000f0: 5599 053e 1d8d 093d 2a68 373e 40fe 5bbd
0.3008401 0.13141178 -0.006598328 -0.01646306 -0.07825583 0.23354702 -0.18884596 -0.012454024
-0.16647318 -0.095675945 -0.20497482 -0.1182489 0.13171174 -0.08083485 0.24909732 -0.14449447
0.12271759 0.20069441 0.17127387 0.15413809 0.029001081 -0.034022544 -0.15407215 -0.16893578
0.06734789 0.094239786 -0.113814086 -0.07769178 0.034048658 -0.007161811 0.19653654 -0.22515371
-0.14822909 -0.12943016 -0.07210843 0.21273184 -0.065942094 -0.2297063 -0.03867869 -0.09347109
-0.11697109 -0.062178075 0.042380806 -0.018313807 0.21720809 0.05268543 0.17764857 0.0362706
0.06307736 0.045575853 0.050891414 -0.017314019 0.07252302 0.06914673 0.1638503 -0.14799733
0.23740284 -0.18137325 -0.05923571 0.15943961 0.13046773 0.03358184 0.17910829 -0.05370927

lstm1_2.0.weight f4 [32, 32]
00000000: dfcf 453d 48d2 0b3c 6278 373e ef87 8db9
00000010: f374 033d 4a6b 1a3e 1d86 01be 53fa 363e
00000020: 37a4 903b 4184 0dbe 1ec6 0e3d d812 cb3d
00000030: bd1b 053e bc88 05be 72c8 02bd d101 d4bd
00000040: b9cc 28be 9044 1d3d a604 1dbe 3ff7 053c
00000050: 8fa5 9dbd f0fc 5abd bbb2 e3bc 8914 d9ba
00000060: fbc6 f2bc 856d 11be afbc f93d 861a 003d
00000070: 0216 fabd 849c babc 795c 973d 9855 e63d
00000080: e37f 1cbe 3220 373c 1496 b43d c11b 83bc
00000090: c222 83bd c351 b1bd 5e53 63bc 6592 f13d
000000a0: 75ec 9c3d 95db 49bd 0259 4bbe 3ce7 6ebd
000000b0: 5261 16be 538c a93a 1cab 603d 0a95 f6bd
000000c0: fdc9 fd3d da00 46bd bb32 bebd d471 23be
000000d0: 6bb9 303e c965 3d3d 6371 b4bc 15da c7bc
000000e0: 0648 20be d8ad a1bd 7432 903c 8ee8 00bd
000000f0: 8493 213e 81fc 4a3d f3b9 87bd 0be2 fb3d
00000100: eedb e83a fa7c 60bd 448b ddbc f2e9 b2bd
00000110: 4cce 233e 84a8 fa3d 59ad be3b 0e36 143e
00000120: d598 01bd 8c66 ef3d 3f98 893d 5b47 d6bc
00000130: 5f8f c7bd 7808 333e b214 953d fb6a bc3c
00000140: e727 173e c5dd c53c 950b 133e c985 72bd
00000150: 3ed4 a43c d494 c1bd 5f7a 27be ad62 b73c
00000160: 2ea2 833d d0e9 c9bd bda3 f4bd a354 203e
00000170: 278c 7ebd ddbd 12be 6a3b 273e d544 463b
00000180: 2dc7 e43d d3ba cebd e53c 953d 6d0e 683d
00000190: 8038 99bd c530 d23d 7f7e f13d bd54 d03d
000001a0: f128 f3bd 7b06 d73d 0233 aabd 1eb6 9c3c
000001b0: 373d 23bd 4882 c43d 372e 40bd a52d de3d
000001c0: f5f8 043e 4562 473e 5864 c33b 774a 323e
000001d0: 833b 45bb 2310 e9bd c6d8 40bd 46d2 4e3b
000001e0: 14de 123c d739 a73d f392 08be 3081 093d
000001f0: 7c8f 0cbd 135c 423d a7f1 c3bd 8977 2fbc
00000200: 20ae 63bd 3994 b23b 3617 13bd 9fdc e93a
00000210: 48c4 893d 572a 833b 2952 09bd 8933 8f3d
00000220: bdb1 b73d 1311 a33c bd88 8cbe 6b5b ebbd
00000230: 5ac9 693e e9ca 65bc 39ad 5f3e 7b59 1a3e
00000240: 0d5a 973d 84df 8bbe 662a 33be 4c18 8bbe
00000250: 27e5 5f3d 674a a23e c953 80be 9a2d 18bd
00000260: e228 d13c e629 7c3e e4f8 b63d 3056 543e
00000270: 7ef4 293c 3fe6 1b3d 4629 1bbe 7d58 473e
00000280: 9cde d5bc 4daf 273e 44dc 243e f003 64be
00000290: 2881 363e 7f30 213e 875e 183d 8335 403b
000002a0: 9695 953d 47a9 7f3d eac3 23be a49e a2bd
000002b0: 2fd1 f9bd f5f9 8fbc 79c2 6abd 0bb8 2fbe
000002c0: 9ce2 abbc 50bb 8a3b 4884 523d 285b 28be
000002d0: 1ae8 e7bd 3fe4 1abe 6b1e 7abc c373 d8bd
000002e0: dd9a b8bd bc7d 223e c471 bebd fb23 ba3c
000002f0: a214 7bbd 078e 1c3e fdcd 52bd 4d1e a3bc
00000300: b130 013e ce2e 223e 7662 a8bd 7907 1e3e
00000310: 0d13 1abe 0723 63be 5df6 aabb 4819 88bd
00000320: d56c f93a 9125 423e 390e 683e 7763 063e
00000330: 8f6a 23be 01e0 a63e dda2 29be 46ae 343b
00000340: 6d9b 2d3e c739 2abe 1dd6 1a3e 819b ae3d
00000350: 17af 123e 8105 c3bd c9be 7f3d 6990 babd
00000360: b58d 993d 6981 833d 08c1 a83e a220 093e
00000370: 003d 493e 4a83 903d 12f3 f03c 3ea6 a83d
00000380: 89ac 8fbd ae4a d5bd 7278 0d3c fc6f 5b3b
00000390: 7cca 81ba 0e94 ef3d a603 c4bd 9d4a 08be
000003a0: b60f 343e 343c 05be 8dfc 3f3d 09a6 80bd
000003b0: 259b 093d 698f 743d bf51 c93d 0331 3dbe
000003c0: 6658 fd3c f87d 61bb 5d5e 1c3e 91dd ae3c
000003d0: d8da 263c 327a 98bd bb55 e93d 822f 27be
000003e0: 61dc 8a3d 9df6 6c3d 1388 a2bd 27f0 00be
000003f0: cc51 ba3c 07a7 91bc 236f f4b8 a893 dbbc
0.048293944 0.008534022 0.17917016 -0.00026994894 0.032093953 0.1507999 -0.12648816 0.17868929
0.004414107 -0.13819982 0.034856908 0.099157035 0.12998863 -0.13040441 -0.03192944 -0.10351909
-0.16484345 0.038395464 -0.15333804 0.008176624 -0.076975934 -0.053463876 -0.027795186 -0.0016561906
-0.029635897 -0.14201935 0.12194192 0.031275295 -0.12211229 -0.02277971 0.07390685 0.112467945
-0.1528316 0.01117711 0.08817688 -0.016004445 -0.06403114 -0.08658173 -0.013874857 0.11795501
0.07662288 -0.049281675 -0.19858173 -0.05832599 -0.14685562 0.0012935497 0.054850683 -0.12040146
0.12392042 -0.048340656 -0.0928702 -0.1596139 0.17258231 0.046239648 -0.022026723 -0.024395982
-0.15652475 -0.07894486 0.017602183 -0.03147178 0.15778929 0.049557213 -0.06627264 0.12298974
0.001776574 -0.054806687 -0.027043946 -0.08736028 0.15996665 0.12239173 0.0058190045 0.14473745
-0.031639893 0.11689481 0.06718492 -0.026157072 -0.09744143 0.174837 0.07279338 0.023000231
0.14761315 0.0241536 0.14359887 -0.05920962 0.020120736 -0.09452215 -0.16355275 0.02238592
0.06427418 -0.09859049 -0.11945293 0.15657286 -0.06214538 -0.1433024 0.16331258 0.003025343
0.11170802 -0.10094228 0.07287005 0.056654382 -0.0748148 0.10263208 0.11791705 0.101724125
-0.11873043 0.10499283 -0.0831051 0.019129809 -0.0398533 0.09595162 -0.046919074 0.1084855
0.12985595 0.1947108 0.0059628896 0.17411219 -0.0030095286 -0.11380031 -0.04708173 0.0031558438
0.00896408 0.08165329 -0.13337307 0.03357047 -0.034316525 0.04745109 -0.09567576 -0.010709652
-0.05558598 0.0054497984 -0.035910808 0.001784224 0.06726891 0.00400285 -0.03352562 0.069922514
0.08969448 0.019905603 -0.27448073 -0.11492046 0.22830716 -0.014025428 0.21843423 0.15073197
0.07390223 -0.27318966 -0.17496642 -0.27166975 0.054661896 0.3169739 -0.25063923 -0.037152864
0.02553219 0.24625358 0.08934191 0.20736003 0.010373233 0.038061377 -0.15152463 0.1946735
-0.026107125 0.16375466 0.1609965 -0.22267127 0.17822707 0.15741156 0.037199523 0.002932877
0.07303922 0.062417295 -0.15992704 -0.079404145 -0.12198102 -0.017575243 -0.05731437 -0.1716005
-0.02098208 0.004233755 0.051395684 -0.16441023 -0.11323567 -0.15126131 -0.015266041 -0.10568955
-0.09013913 0.15868276 -0.09299043 0.022722235 -0.061298974 0.15288554 -0.051465977 -0.01991191
0.1261623 0.15838167 -0.08221905 0.15432538 -0.1504633 -0.2218133 -0.005217357 -0.06645447
0.0019029627 0.18959643 0.22661676 0.1312388 -0.15958618 0.32592776 -0.16566034 0.0027569695
0.16953821 -0.16623603 0.1512074 0.08525754 0.14324604 -0.09522534 0.062437806 -0.09109575
0.074977316 0.064211674 0.3295977 0.13391355 0.19652176 0.070562914 0.02941278 0.08234833
-0.0701533 -0.10414635 0.008634673 0.0033483496 -0.0009902264 0.11698161 -0.095710084 -0.13309713
0.17584118 -0.13011247 0.04687171 -0.06281669 0.033595223 0.05970708 0.09830045 -0.18475728
0.03092594 -0.0034407359 0.15270372 0.021345885 0.010184012 -0.07445182 0.11393305 -0.16326717
0.06780315 0.057852376 -0.0793611 -0.12591611 0.022744082 -0.01777984 -0.000116555275 -0.026803806

lstm1_2.0.bias f4 [32]
00000000: 2d0b e13d bfcc da3d cac9 2cbe 43be 073d
00000010: 8439 e9bc 6a06 6b3d fe27 27bd 07e6 1b3d
00000020: cc5d 2f3e 80ef 8d3d 6f06 193e a0bf a5bc
00000030: 605b 3bbe 1c68 91bd c2cd b8bd c0c0 383d
00000040: 3711 e4bd d9cf b43c c097 f63d 6250 a2bc
00000050: a645 1dbe 7ba9 2dbd a65e 8dbd 833a 843d
00000060: 3811 09be 17d6 b53b f35e 223e 2661 32bd
00000070: 3826 303e e9c9 b9bc 3e90 b03d bd23 113e
0.1098846 0.106835835 -0.16873851 0.033140432 -0.028469808 0.057379164 -0.040809624 0.038061168
0.17125624 0.069304466 0.1494386 -0.020232975 -0.18296576 -0.070999354 -0.0902362 0.045105696
-0.11136096 0.022071766 0.12040663 -0.01981372 -0.153586 -0.042397957 -0.069028184 0.06456473
-0.13385475 0.005549203 0.15856533 -0.04354968 0.1720208 -0.022679286 0.08621262 0.1417379
