results/soh_individual_dataset_results/Dataset 1/pre_trained_model.pth (torch, 95584 bytes, 27 tensors)

cnn1.0.weight f4 [16, 1, 3]
00000000: 5c64 523e c226 c7be 534c a3be 1cbb 283d
00000010: 9b1e bb3c 95e5 d0be c5c9 803d 0783 f6bd
00000020: f5f6 333e 16c6 c4bd bf34 073e d566 813e
00000030: a26d 30be a21f fc3e 62c1 40be f340 2dbe
00000040: 9ec9 c53c 3499 aebe 86f2 62be 0cbd 013f
00000050: 5c11 35bd a94b f13e 28e1 043f eb8f 173f
00000060: 1c03 773e 620f e7be bea6 6cbe 8d08 2dbe
00000070: eb5c 0bbf 7219 40be 4605 143f 85f5 a2be
00000080: 11f3 b9bb f9f2 773e 7ea9 993e 4d9f fd3e
00000090: 1d45 75be 4318 d13e 2142 4f3e a219 b73e
000000a0: ad63 953c fca4 1a3e fecb e73e 3d29 37be
000000b0: cef6 1b3b 445b 003f 2866 e3be 8aad fcbe
0.20546097 -0.38896757 -0.31894168 0.041194066 0.022841742 -0.40800157 0.062884845 -0.1203671
0.17574675 -0.096080944 0.13203715 0.25273767 -0.17229322 0.49242884 -0.1882377 -0.16919307
0.02414399 -0.3410126 -0.22162828 0.5067909 -0.04420601 0.47128037 0.5190606 0.59203976
0.2412228 -0.45128924 -0.23110482 -0.16897793 -0.54438657 -0.18759707 0.57820547 -0.31827942
-0.0056747277 0.2421378 0.30012125 0.495356 -0.23952146 0.40838823 0.2024007 0.35761744
0.018236006 0.15101999 0.4527282 -0.17886825 0.002379823 0.5013926 -0.44413877 -0.4935115

cnn1.0.bias f4 [16]
00000000: fe1f 163f 2c61 c6bd 143c d33e 3863 89bd
00000010: 2d66 15bd 5e86 93be 95cb f2be b09a 75be
00000020: 194a 0a3f 2f0b 863e 883f 0c3f 31bf 69be
00000030: f539 dcbe 514a 2b3e 0183 a6be b810 a8be
0.58642566 -0.09686503 0.41256773 -0.067083776 -0.036474396 -0.28813452 -0.47420946 -0.2398479
0.54019314 0.26180407 0.5478444 -0.2282684 -0.43012968 0.16727568 -0.32521823 -0.32825255

cnn2.0.weight f4 [32, 16, 3]
00000000: 485d 10bd a764 513e eeeb 9c3d 6ee0 b63d
00000010: fd87 ad3d 1d75 a83d 027a 83bd 3eac 163d
00000020: b94a 463c 7371 e43d b084 02be 6c3a 033d
00000030: 5854 e3bc f0ef 56bc 92fa 6fbd 97e3 ddbd
00000040: 3a69 b9bc eac1 d23d 93b0 873d 5a4a 95bd
00000050: afa1 d33b acd0 15bd 2c72 ef3d f8d6 8bbd
00000060: a025 8ebd 9fa2 433d ef30 d23d c960 6bbd
00000070: cb52 0a3e 3172 163e 618d 273e d012 e33c
00000080: 7ffc 323e feeb bd3d 3149 ec3d ff52 03bb
00000090: 50e3 79bd 2364 9abd e576 44bd 7d53 223e
000000a0: b8d2 70bd 0f5d 4f3d 69d4 0b3d 46c8 163e
000000b0: c4c5 f7bd 890c 92bd 2b50 d1bd 2c7c 0b3e
000000c0: 4564 003e 2e19 59bd e9d9 ecbd 7226 493b
000000d0: b5c1 893d 5ebf 5dbd 2825 fc3d e8d5 c6bc
000000e0: eacd 0b3e fc2d 043e 6451 0cbe 4515 60bd
000000f0: 93fd 063e 1698 e5bd 3ed6 73bc 9d8c 0f3d
00000100: 9299 c43c 9a65 bcbc bedb e23d 0e39 073b
00000110: 0ba6 993d 8359 c6bd 6e58 ec3b b222 8e3d
00000120: b8c9 a03d 7680 cdbd 7770 54bd 38cd 6cbd
00000130: 3538 07bd 8dec 17bc e4ca 07bd dec7 2cbd
00000140: 11c0 6c3c 6099 5f3d 9861 82bc 296b 3bbd
00000150: 379b 79bd 139b 663c dc4a 66bd 3482 bfbc
00000160: a73c a9bd 33c4 0ebe b933 85bd f277 e7bd
00000170: a65d 71bd c305 023e 88ee 93bc 8232 223d
00000180: 8d4e f6bd ad1a 743d f0ae fabd 0c90 c63d
00000190: e1c8 01be 147a f83d 2f7d b33d 0ca9 9abd
000001a0: 7210 073c ebd2 1b3e 113c 88bd ebb7 193e
000001b0: 1b73 00be 5319 1a3e d2ed f33d 1869 c9bc
000001c0: f23a 803d e677 3f3d 2fa1 733d 05be e23d
000001d0: 5a8b 433d 6a78 babd 6621 463d c675 a83d
000001e0: 8809 f7bb a583 f43d 0864 213b 33d8 043e
000001f0: b7b0 703c 1d26 a6bd 83b0 283d c9a5 a13d
00000200: dff5 10bd 1573 c4bd 49dc b03b ab25 f03d
00000210: 563e fdbd 7e21 3b3c 66ac b73d c671 ecbd
00000220: f839 9cbd 05aa ae3d e776 c7bd 0f1a 8d3d
00000230: 28c1 11be cdc9 87bd 0647 0ebe b3f7 c9bd
00000240: 410f 373d 9e6d 003e 5041 0f3e 00ce 2b3d
00000250: e7e7 223d 2f0f ccbd bc2e ab3d 2514 bb3d
00000260: 73ae e83d 86ab a53c eaa3 e7bd 8404 b33d
00000270: 0c6a c63d 1492 d9bd bebd abbd 838f debd
00000280: 9ff6 7f3d c62f fb3d c068 adbd 114a 8f3d
00000290: 7dd9 fbbd 1b38 73bd c8a4 7bbd 50c7 883b
000002a0: 09d9 4f3d 99b1 bbbd 2a62 b03c 8c75 a33d
000002b0: 1c6c 0cbe 06c7 efbb 90c3 fe3c 0645 db3c
000002c0: 4c60 fb3d 6cb2 33bd b27d 23bd e8fc 7dbd
000002d0: c037 0f3e ffd4 d8bd d269 e83c 442d 283e
000002e0: b125 383e 43c0 27bd 749d 953d ec4f 833d
000002f0: 160a c93d 893e f33d ca5f 9b3c 9590 02be
00000300: 016d 36bc 28c2 21be 9edb adbc 6919 f93d
00000310: 31ed d83c 2623 d0bc 417b 01bd 8736 c7bd
00000320: cdc8 063e ca89 99bd 23c4 2f3d cea3 673e
00000330: 5d36 f9bc ffbe 0e3e 2130 38bd 21c1 d3bd
00000340: 0e65 d9bd 4f12 13be bbae cd3d 2b47 a63b
00000350: e8ec 10be 6b16 583d f77e 443e cfe0 003e
00000360: fd8b 8e3c fd60 85bc dcec 18be 8b2c ed3d
00000370: 7be2 e13d d498 aa3d 08ab b73c a979 0e3e
00000380: e47d 863d 1587 dfbb 8d0d 923c 77e5 f73d
00000390: 1ea3 efbd bee8 bd3d a508 9bbc 8402 0b3a
000003a0: f740 96bc 41a1 1e3d 7be0 ecbc b22b 35bd
000003b0: bf83 09bd fbe3 e3bd 188d b73c bad6 94bd
000003c0: 52c2 a0bc 3c7b 223d 41ca e33b da1b ddbd
000003d0: 4316 973d d7f1 d0bd 1876 a13b dcaa 10be
000003e0: 21b1 0abd a5c6 64bd b794 dcbd 53b1 39bd
000003f0: 2e16 d1bd 007f e63d ebc3 60bd e34f debd
-0.03524521 0.20448552 0.076621875 0.08929525 0.08473203 0.082254626 -0.064197555 0.036785357
0.012102776 0.11154451 -0.12745929 0.032038137 -0.02775018 -0.013118729 -0.05858857 -0.10834425
-0.022633184 0.102908924 0.06625476 -0.07289572 0.006458483 -0.036575958 0.116916984 -0.068281114
-0.0694077 0.04776251 0.102632396 -0.05746535 0.13508146 0.14691998 0.16362526 0.027718931
0.17479132 0.092735276 0.11537398 -0.0020038483 -0.061007798 -0.07538631 -0.04796495 0.15852161
-0.058794707 0.050625857 0.034138117 0.14724836 -0.12098268 -0.07131297 -0.10220369 0.13621587
0.1253825 -0.05300253 -0.115650006 0.0030693081 0.067264 -0.05413758 0.123117745 -0.02427192
0.13652769 0.12908167 -0.13702923 -0.054707784 0.13182668 -0.11210649 -0.014882622 0.03504621
0.02399901 -0.022997666 0.11077069 0.0020633372 0.07502373 -0.09685042 0.00721269 0.06940211
0.07850975 -0.100342676 -0.051865067 -0.0578129 -0.033012588 -0.009272707 -0.033152476 -0.042182796
0.014450089 0.05458963 -0.015915677 -0.045756493 -0.06093904 0.0140750585 -0.056223735 -0.023377515
-0.08263522 -0.13942032 -0.06504006 -0.11302175 -0.0589272 0.1269751 -0.018058077 0.03959895
-0.12026701 0.059595753 -0.12240398 0.096954435 -0.12674285 0.121326596 0.08764111 -0.075517744
0.008243667 0.15217178 -0.06652082 0.15011565 -0.12543909 0.15048723 0.11910595 -0.024586245
0.06261243 0.046745203 0.05947989 0.110713996 0.047740318 -0.091049984 0.048371695 0.082255885
-0.007538978 0.11939172 0.0024626274 0.12973098 0.01469057 -0.08112738 0.04118396 0.07892949
-0.03539073 -0.09592263 0.005397354 0.117259346 -0.12365405 0.011421559 0.08968429 -0.11545138
-0.07628244 0.085285224 -0.09739476 0.06889736 -0.1423384 -0.06630287 -0.13894281 -0.09861698
0.04469228 0.12541816 0.13989758 0.041944504 0.03977194 -0.099638335 0.08358523 0.09134702
0.113613985 0.02022339 -0.11310561 0.08741096 0.096881956 -0.10623565 -0.083858 -0.108672164
0.062491056 0.122649714 -0.08467245 0.06996549 -0.12297342 -0.05937968 -0.061436445 0.0041741505
0.05074409 -0.091647334 0.021531183 0.07981405 -0.13713115 -0.0073174266 0.03109911 0.026766311
0.122742265 -0.04387133 -0.039914794 -0.06200877 0.1398611 -0.10587501 0.028370772 0.16423517
0.17983128 -0.04095484 0.073054224 0.06411728 0.09816377 0.11877162 0.018966574 -0.12750466
-0.011134387 -0.15796721 -0.021222886 0.1216305 0.02648029 -0.025407385 -0.031611685 -0.09727197
0.13162537 -0.07496984 0.04291166 0.2262108 -0.03042143 0.13940047 -0.044967774 -0.10339571
-0.10614978 -0.14362453 0.10043093 0.005074402 -0.14152873 0.052755754 0.19189058 0.12585758
0.017400736 -0.0162816 -0.14934105 0.115807615 0.11029526 0.08329931 0.022420421 0.13913597
0.065669805 -0.006821523 0.017828727 0.12104314 -0.11701034 0.09272908 -0.01892502 0.0005302804
-0.018341525 0.038728002 -0.028915634 -0.044231124 -0.03357291 -0.11127468 0.022406146 -0.07267518
-0.01962391 0.039668307 0.006951601 -0.10796328 0.07377293 -0.10202377 0.004927408 -0.14127678
-0.03386033 -0.055853505 -0.107705526 -0.045335125 -0.102093086 0.11254692 -0.054874342 -0.10855081

cnn2.0.bias f4 [32]
00000000: c784 d03d cab8 b3bd fadc 863d d094 373e
00000010: 28e2 093d 5de4 84bb 8378 00be 992d bf3c
00000020: dee1 113d afd2 103e 5202 153e 6618 083e
00000030: c474 783d 9227 8ebd 3558 b2bd e313 e43d
00000040: 920e 183b 7b96 8dbc 3c79 42bc f395 a2bd
00000050: 46b4 2a3d eabe 19be cd78 ff3b c794 ffbc
00000060: 709a 00be 3ad8 243d cb0d 903d 47e4 443d
00000070: 5c9b 703d 44db ef3d 38b1 d63d e406 883b
0.10181575 -0.0877548 0.06585117 0.17927861 0.033662945 -0.0040555433 -0.12545972 0.023337172
0.035615794 0.1414287 0.14551666 0.13290557 0.06065823 -0.06941141 -0.087082304 0.111366056
0.0023202044 -0.017283669 -0.011869725 -0.07938757 0.04167583 -0.15014234 0.007796383 -0.031198872
-0.12558913 0.040245272 0.07033881 0.048069265 0.058741912 0.117117435 0.104830205 0.004151212

lstm1_1.weight_ih_l0 f4 [64, 32]
00000000: 3af3 31bd 3073 71be a8af 5d3e 335b 1f3b
00000010: 82c3 70bd aea0 2dbe 86ba 72be 2add aa3c
00000020: 48fa b93d 0915 69be 1959 63bc 81cc 6d3e
00000030: d8bf 2f3d 883e 79be 4886 383d 567d 51be
00000040: f1f6 69be 2f60 3a3d 9cb5 17be 218c 6abe
00000050: 7193 a8bd 2203 17be b2af 19be 553b 243e
00000060: 1327 5bbe 5871 67be d7a9 133e e896 733e
00000070: cfd6 523e 48d8 15be 52f2 16be e04e 6cbe
00000080: 9972 97bd f42f 76be f08c 8b3e 04d4 abbd
00000090: fca6 c23e 74aa e03d 2b05 5d3e ceb1 9f3e
000000a0: afd1 f63d 9fd4 a13d 688d bc3e 44be 323e
000000b0: dc2b 41be c0de fa3c 084b 263d f676 eebd
000000c0: fa16 803c f0cb a6bc fa23 963e fc3e 7b3e
000000d0: 2f6d 493e 4bd5 eebd 356c 483e 3424 1fbe
000000e0: b7e1 a93e 58c2 9e3c 1339 573e 0bdb 133e
000000f0: 8b6f d83d d4c3 dfbd b4f0 99bd adb1 af3d
00000100: 056d 93bc ee3b 353e 70fe 56be 3ea0 fdbd
00000110: 7e82 a33d 00d2 b93b b398 2f3c 2389 a43d
00000120: 3101 01be ec85 203e 11e2 55bd f417 50be
00000130: dcdd dd3d d669 3f3e be7f 52be d3b5 59be
00000140: b107 0abe 162d 27be 0e3e 63be 4f40 3b3e
00000150: 40c3 b13d 34b5 cc3d 5b3f 36be 7b9f eabd
00000160: adce d1bd 947e 6a3e 86a2 c93d 6dd0 75be
00000170: d10d 32be 772b 663e 1e5f 6c3e a0e3 cdbd
00000180: 0665 b33d 188f 9ebd 528f 503e de0b 75be
00000190: ce2f 81be 4012 3bbc e431 0fbe 3d31 313e
000001a0: 74e1 033d f588 61be ed82 4c3e e854 343e
000001b0: 6a5d 703e 306d 2d3e daad 57be 7b9f 93bd
000001c0: 796e 1bbe e4e2 863d 2d64 f7bd a550 2ebe
000001d0: 1cfa cb3d 8a85 fd3b 928e a1bd 4e93 b43d
000001e0: 5e97 213e 494d b8bd 36e7 e13d b88b 653e
000001f0: 52ab f43d 4353 08bb 3d5d 45bd 0b81 2bbd
00000200: de2d aebd d09e 473d 096f 653e 6fb4 373c
00000210: fa59 353e e0f5 373e e223 adbd 0d2c bdbd
00000220: 1bcf 683e e604 113e d715 633e 8c1b f4bd
00000230: a870 c83d 046c 5cbe f844 773d bfd1 403e
00000240: 5491 15be 78fc 053e 74f2 053e 6936 d7bd
00000250: 1ed7 01be 5999 33be 346b 6ebe 414c cebd
00000260: afa2 29be 868f 2f3e 1e5d 61bd 9e61 863d
00000270: c19e 503e 57e0 f4bd ff8e 7b3d 0134 07bd
00000280: 0cd2 6f3e f027 62bd 3d09 fd3d d860 cebd
00000290: 6528 efbd f4d5 a5bd 0d10 363e de66 d03d
000002a0: dadc 6e3e 8a7a 52bd 1705 6cbd 3ee3 b9bd
000002b0: b832 223d b0a8 7abd ca7d 42be fa41 583d
000002c0: bcaa 003e 5d3a c63d 27f4 ebbd 63b0 583e
000002d0: cc97 613e 4d50 3e3e a9a4 803d 95ae de3d
000002e0: c4f7 933e 5f60 83bd 0eb5 5bbe 6b19 e1bd
000002f0: c1ec 25be 6d91 36be afbb 5f3e 5e38 87bd
00000300: b943 61bd cca6 a83d 9078 1c3e 2977 4c3e
00000310: 10e0 953d 2846 e13d a9e7 713e ee68 9d3e
00000320: 0efb 673c 55fc da36 05d5 4fbd 23e9 783e
00000330: ec53 983d e215 1c3e 2c04 123e 2332 703d
00000340: 00c8 fe3d 4247 2bbd 4205 913c fd93 ae3e
00000350: 6ebe 3f3c 1655 6f3d 3e41 38be 8fe2 e33d
00000360: 9253 1f3e 217f 543d 4235 3f3e 0090 11be
00000370: c4f3 75be 460b 303e 7346 ad3d 0cc6 39bd
00000380: cef9 963b 26a9 053e bc39 0fbe 7805 3e3e
00000390: 2a9b 7ebd e42d fcbd d853 9e3c b562 b73d
000003a0: e6a9 053e f73f 1cbe 5fcb 6dbe b969 a1bd
000003b0: f4f4 693e ee0c 403e 5037 853c cbfa dbbb
000003c0: 205b 3cbc e96e 2b3e 2a89 2f3e 5219 373d
000003d0: 3078 7bbe c50b 6bbe 6307 21bd a14f 7d3e
000003e0: 50fd 2cbe 39ae b9bd 1686 63be e235 ea3d
000003f0: b887 9c3d 1673 13be 8758 6f3e caef cfbd
-0.04344485 -0.23579097 0.21649039 0.0024315834 -0.0587802 -0.16955826 -0.23703966 0.020857412
0.090809405 -0.2276193 -0.013876223 0.23222543 0.042907566 -0.2434026 0.045049936 -0.20457968
-0.22848107 0.045501884 -0.14815372 -0.22905017 -0.08231247 -0.14747289 -0.15008429 0.16038258
-0.21401624 -0.22601831 0.14420258 0.23788035 0.20589755 -0.14633286 -0.14740875 -0.23076963
-0.07394905 -0.2404173 0.27255964 -0.08390048 0.38018024 0.10970011 0.21584003 0.31190342
0.12051713 0.079018824 0.36826634 0.17455393 -0.18864387 0.030623794 0.0405989 -0.11643784
0.015635956 -0.020360917 0.29324323 0.24535745 0.19670556 -0.11661776 0.19572528 -0.15541154
0.3318002 0.01937978 0.21017866 0.14439027 0.1056815 -0.10926023 -0.075166136 0.08578811
-0.01799632 0.17698643 -0.20995498 -0.123840794 0.07983874 0.005670786 0.010717559 0.08033969
-0.1259811 0.15676087 -0.052217547 -0.20321637 0.10833332 0.18692717 -0.20556542 -0.21260767
-0.13479497 -0.16325793 -0.2219164 0.1828625 0.08679819 0.09995499 -0.17797606 -0.114562
-0.102444984 0.22899848 0.09845452 -0.2400529 -0.17388083 0.22477518 0.2308316 -0.10053182
0.08759503 -0.07742137 0.20367172 -0.23930308 -0.25231785 -0.011417925 -0.13983876 0.17303939
0.03219743 -0.22024901 0.19971819 0.17610514 0.23473135 0.16936183 -0.21062413 -0.07208153
-0.1517886 0.06586245 -0.12079654 -0.17022951 0.09959814 0.0077368664 -0.07888521 0.08817159
0.15780398 -0.08999116 0.11030428 0.2241658 0.11946739 -0.002080158 -0.048184622 -0.04187111
-0.08504842 0.04873544 0.22405638 0.011212452 0.17710105 0.17964888 -0.0845411 -0.09236918
0.22735254 0.14162025 0.221763 -0.11919317 0.097871125 -0.2152558 0.060368508 0.18830012
-0.1460622 0.1308459 0.1308077 -0.10508425 -0.12679717 -0.17538966 -0.23283082 -0.10073138
-0.16565965 0.17144594 -0.055020444 0.06561588 0.2037306 -0.11956852 0.06141567 -0.03300858
0.2341997 -0.05521387 0.12355278 -0.10077065 -0.116776265 -0.08097449 0.1777956 0.1017587
0.23326436 -0.051386394 -0.05762204 -0.09076546 0.03959915 -0.06119603 -0.18993297 0.052797295
0.1256513 0.09679101 -0.11521178 0.21161036 0.22030562 0.1858532 0.062814064 0.10873143
0.28899968 -0.06414866 -0.21455786 -0.10991176 -0.16203596 -0.17828913 0.2184894 -0.06602548
-0.054996226 0.08234939 0.15280366 0.19967331 0.07318127 0.10999709 0.23623528 0.30744117
0.014158977 6.5262816e-06 -0.05074026 0.24307685 0.07437882 0.15242723 0.14259404 0.058641564
0.12440491 -0.041816004 0.017702702 0.3409728 0.011703117 0.058430754 -0.17993638 0.11127197
0.15559223 0.051879052 0.1867266 -0.14215088 -0.2401877 0.171918 0.08460703 -0.045354888
0.0046074158 0.13052806 -0.13986868 0.18556774 -0.062159695 -0.123134404 0.01932709 0.08954374
0.13053092 -0.15258776 -0.23222111 -0.07881493 0.22847348 0.18754932 0.016261727 -0.0067132465
-0.011496335 0.16741528 0.17142168 0.04470188 -0.24557567 -0.22953708 -0.039313685 0.24737407
-0.16893506 -0.090664335 -0.22219118 0.114360586 0.07643074 -0.1439937 0.23373614 -0.10153158

lstm1_1.weight_hh_l0 f4 [64, 16]
00000000: 006c 853d 0998 11be 8930 1d3d 1c1e d0bd
00000010: 406d a0bc 602d b23d af7b 33be 3338 413e
00000020: 7209 fcbd 7b5e 7bbe 5420 4b3e 5f39 823e
00000030: c450 e73d e5bb 1b3d 4b16 133e 49ea 193d
00000040: 0f97 bbbd ca91 f33d e0db 05be f9cf 183e
00000050: 8a63 b9bd 2cea 1bbe c937 c8bd e12d 22be
00000060: 5004 13be 25a1 fcbd d8ad 773d cf83 543d
00000070: 439e 74be 8bad 35be ce4b 453d cd52 cf3d
00000080: 48c3 67be 3227 13be 5133 3a3d ce3d a1bd
00000090: 9994 b7bd f9a2 a43d 2f10 3abe eea6 d63c
000000a0: b12a b93d e356 07be 58eb 963d bc20 c1bc
000000b0: f9ac 243e 9486 363e 95cb 2fbd d8e0 7e3e
000000c0: ec60 433e bbaa 3ebe daca 253e 7cdc 5e3d
000000d0: 1813 593e cd13 e43d 2f62 54be fe29 233d
000000e0: 934c 4c3e c6a7 b0ba 80b3 523e 75dc 22be
000000f0: ee9f 6ebe 653d f23d 0dcd 563e d51a 46be
00000100: bc3e 30be d4ca 8dbd dc5c 163c 8c90 5fbc
00000110: 4143 5a3e fbee 6a3d 61a1 223e cc5b 1dbd
00000120: 8275 da3d 59e3 a13c 5213 60be c16d 753e
00000130: 366a 693e e3f8 7abd 15e5 183e 78fd ac3d
00000140: 96aa 153e 5a86 6ebe b412 653d 73d6 8bbd
00000150: 3cbd 58be c74d 113e c378 7abe 01a5 503e
00000160: c71c ae3d 64cb a4bc f04b 63bd 8659 a6bd
00000170: f919 97bd 967e ebbd bbc3 953c a8a0 e9bc
00000180: 4f8c 8b3c 2bc0 4fbd f934 51bd 1998 87bd
00000190: da2b 013e cdf1 4b3e 68be 693e adc2 1cbe
000001a0: 31d4 e6bd f802 693c 19c2 ac3d 1276 633b
000001b0: 956a 9cbe 223e 73be 626f 5bbe 1064 223e
000001c0: 2b4e d6bd 9440 84be 98d7 4b3e 58ff 1f3e
000001d0: 9e00 39be 4816 a3bd 539f 0a3e 6ce0 5abe
000001e0: 7c41 77be e056 b83c 513f 99bd d49f c9bd
000001f0: 1400 1f3d f2ab 47be e731 443e 7bbc 9cbd
00000200: 788a acbd 2bf8 813d d0be b2bd dc5d 7b3d
00000210: 6f4c bdbd 75d9 12be 05e6 35bd 6ec8 1a3e
00000220: f891 5e3d 832e 1ebe 24c3 363b 477b 67bc
00000230: e1ff 2bbe abea 173b e890 273e 4555 2abd
00000240: 2c92 073e d861 e8bd 0dd8 a3bc 7179 33be
00000250: 259a 08be 55b7 4a3e 1c88 0fbe 432b febd
00000260: c6e0 83be 7e86 813e 5a8f 13be c995 813d
00000270: e2ae 11bd 361c 883d 6b3f 88bd cd5d 28bd
00000280: c4e3 723e 7852 1e3e bcb1 a43d 84c8 66be
00000290: 7c54 863b 9c5e 923d 2f15 18be 4e98 263e
000002a0: 4f6a b43d e2ac 883c c8d7 23be 9b21 4a3e
000002b0: 45b4 873c 1947 523c 0573 ddbd 4973 04bd
000002c0: 7673 65be de23 5dbd 273b 253d 4ac4 d13d
000002d0: aff0 6cbe f234 2c3e a878 00be 6cb5 e03c
000002e0: 6b80 b93d 92ba e93d 4c4d 47be 63ab bd3d
000002f0: 9808 d53c 312c 4bbe 361f dbbd bd61 3f3e
00000300: 7c4f e7bd 916c 6a3e 2f26 183e 403a f13c
00000310: 4b61 28be fdf6 0cbc c139 02be f66e 263e
00000320: 07b1 3e3d ad0a 323e f1d4 43be 29c1 753c
00000330: 2bb2 0b3e 9a48 883d 23f6 7ebe fcd1 11be
00000340: 3a30 db3c b785 ca3d 7da7 bc3d 005d dcbd
00000350: 4de3 06be 9d1f 3c3e 49f9 2f3d a08a 10be
00000360: 07d8 49be b97a 57be 8ff9 333d d25a 233e
00000370: 01f5 8cbe 2a8b 4e3e 3c93 6cbe 1456 92bd
00000380: 4452 10be ad86 56bd 915b e53d 4b4a 98bb
00000390: 436b 31bd b443 413e 764a 0bbc 1ef3 7d3e
000003a0: 8799 99bb d459 2f3e c515 7c3e 0023 c2bd
000003b0: 35df 3b3d 55df 94bd 8604 8b3c f310 cdbd
000003c0: 45a8 aabd ae85 003e 5d82 49be bd21 0bbd
000003d0: 3dda fc3d 5d37 0bbc 03ba 253e f304 d6bd
000003e0: 3b4c 52be adc6 debd 2035 813e dc52 20be
000003f0: 15ac 5a3e f2da 343e a1f9 163e be07 0dbe
0.0651474 -0.14218153 0.038376365 -0.10161993 -0.019583344 0.08700061 -0.1752765 0.18869095
-0.12306489 -0.2454776 0.19836551 0.25434396 0.11294702 0.038020987 0.14363973 0.037576947
-0.091596715 0.118930414 -0.13072157 0.14923085 -0.09052189 -0.15226048 -0.09776265 -0.15837814
-0.14357114 -0.123354234 0.060468525 0.051883515 -0.23888497 -0.17741983 0.048167996 0.10123215
-0.22633088 -0.1437042 0.045459095 -0.078731164 -0.0896389 0.08038897 -0.18170236 0.026202645
0.09041346 -0.13216738 0.07369107 -0.02357518 0.16081609 0.17824775 -0.04291876 0.24890459
0.19079942 -0.18619816 0.16190663 0.05440949 0.2119869 0.11136589 -0.20740579 0.03983497
0.19951086 -0.0013477735 0.20576286 -0.1590441 -0.23303196 0.11828116 0.20976658 -0.19346173
-0.17211431 -0.06923452 0.009177413 -0.0136453025 0.21314718 0.057356816 0.15881874 -0.038417622
0.10666944 0.019761728 -0.2188237 0.23967649 0.22794423 -0.061272513 0.14931138 0.08446783
0.14615855 -0.23293439 0.05592604 -0.06828012 -0.21165937 0.14189826 -0.2446013 0.20375444
0.085015826 -0.020116515 -0.05549234 -0.08122544 -0.07378001 -0.11498754 0.018281808 -0.02851899
0.017034678 -0.050720375 -0.05107591 -0.06620807 0.12614384 0.19916458 0.2282654 -0.15308638
-0.11270941 0.014221899 0.08435459 0.0034707827 -0.30550066 -0.2375417 -0.21429208 0.15858483
-0.10464128 -0.2583052 0.19906461 0.1562475 -0.18066642 -0.07963234 0.1353734 -0.21374673
-0.24146074 0.022502363 -0.0748278 -0.09844938 0.038818434 -0.19499186 0.19159661 -0.07653137
-0.08424848 0.063461624 -0.08727801 0.06136881 -0.09243094 -0.14340766 -0.044408817 0.1511552
0.054338425 -0.1544743 0.002788731 -0.014128513 -0.16796829 0.0023180644 0.16363871 -0.041585226
0.13239354 -0.11346787 -0.020000482 -0.17526795 -0.13340051 0.19796498 -0.14016765 -0.12410595
-0.25757426 0.25297922 -0.14410153 0.063273974 -0.035567172 0.06646006 -0.06652721 -0.04110508
0.23719698 0.15461147 0.08041713 -0.22537428 0.004099427 0.071469516 -0.14851831 0.16269037
0.08809339 0.016684 -0.16000283 0.19739382 0.016565451 0.012834334 -0.10812954 -0.032336507
-0.22407326 -0.053989284 0.040339615 0.10242517 -0.23138689 0.16817072 -0.12546027 0.027430259
0.09057697 0.114125386 -0.1946308 0.09261205 0.026005074 -0.19841076 -0.106993124 0.18689628
-0.11294457 0.22892977 0.14858316 0.029446721 -0.16443364 -0.0086038085 -0.12717344 0.16253266
0.046555545 0.17386885 -0.191242 0.014999666 0.13642184 0.06654473 -0.24898581 -0.14240259
0.026756395 0.09888785 0.09211633 -0.10759926 -0.13172646 0.18371435 0.042962346 -0.14115381
-0.19711314 -0.21042909 0.04393917 0.15952614 -0.27530673 0.20170274 -0.2310304 -0.07145324
-0.14093882 -0.05237453 0.111991055 -0.0046475283 -0.043315183 0.18873483 -0.00850164 0.24799773
-0.0046874913 0.1712411 0.2461768 -0.09479332 0.045867164 -0.0726916 0.01696993 -0.100129984
-0.08332876 0.12550995 -0.19678636 -0.033967722 0.12346313 -0.008497086 0.16184239 -0.10450163
-0.20536892 -0.10877738 0.25235844 -0.15656608 0.21354707 0.17661646 0.14743663 -0.13772485

lstm1_1.bias_ih_l0 f4 [64]
00000000: 3862 163e ba6d e83c e0ec df3d 5b35 3b3e
00000010: 0e4d 933c 290d 093e 1e89 a73d f230 67be
00000020: 27e8 bd3d 94af 25be 04ab cd3c 86ce 703e
00000030: 572b 9a3d 894b 513e 5435 52be 4b6f d43d
00000040: 124d 40be fa99 06be f15c 5dbe 97de ae3b
00000050: 4e8f 1dbe 1b7e 2f3e fbad 343d 212b 0ebe
00000060: 3f6e 8d3d 40e2 0c3e 70a3 60be e21f 673e
00000070: fd14 33be 1f82 a8bd a6ee 93bd 1f55 11bd
00000080: 4da7 a8bd e6c1 d93c b1eb a43d c420 f5bd
00000090: 8ff0 d43d 8198 d2bd 6e4c 293e d3ed 3fbe
000000a0: dabe 65bd 758c 103e 773c 6fbe 2b6f 74be
000000b0: c7ff 61be 4880 51be 8350 84bd db41 723d
000000c0: d85c 7bbe 90af 9a3e 0ff9 96bd b33b db3d
000000d0: f479 393d f5bb 33bd e6b7 3c3c 66b1 ba3d
000000e0: ddc3 80be 6da5 7d3d fee2 0bbe 07d1 0d3d
000000f0: d6b5 713d 8de3 70be 51ab 37bd 9399 39bd
0.14685905 0.028372634 0.10933852 0.18282072 0.017981078 0.13383926 0.0818045 -0.22577265
0.09272795 -0.16180259 0.02510596 0.23516282 0.07527798 0.2043897 -0.20528156 0.1037279
-0.187794 -0.13144675 -0.21617486 0.0053365934 -0.15386698 0.17137949 0.044111233 -0.1388364
0.069057934 0.13758183 -0.21937346 0.22570756 -0.17488475 -0.08227944 -0.07223253 -0.03548157
-0.08235035 0.026581716 0.08052767 -0.1196914 0.103974454 -0.10282994 0.16533062 -0.18743066
-0.056090213 0.1411608 -0.2336291 -0.23870532 -0.22070228 -0.20459092 -0.06460669 0.059144836
-0.24547136 0.3021207 -0.07371723 0.10704746 0.04528232 -0.04388042 0.011518454 0.09115867
-0.25149432 0.06192534 -0.1366081 0.034623172 0.059011303 -0.23524304 -0.044841114 -0.045312475

lstm1_1.bias_hh_l0 f4 [64]
00000000: abab d6bd 7d4a 333e 702f 763e 9142 1b3e
00000010: 5abd 62be df50 ba3d edc1 963e e6b0 7cbe
00000020: 21e7 22bd 6e1d 2d3e c495 353d 560d 593e
00000030: aa39 4abe 99c5 f93d f8cc 093e 04d7 60be
00000040: cec6 d4bd acd8 4abe fdc8 0f3e 5948 5b3e
00000050: 2c0a c93d d829 7abd ae80 883e 8ebc 4f3d
00000060: 8db8 5f3e be57 563e 26f2 073e 6cdf 52be
00000070: 5724 493e 7030 86be fe01 543e 24ac b9bd
00000080: 7b3f 19bd a9de a5bd 794d 363e 8323 cebd
00000090: 4e3c 133d ae71 7d3e de81 86be 3744 1b3e
000000a0: 32eb fbbd 4235 9d3c fd02 37be 3af2 943d
000000b0: 7d74 2a3e a1c4 863e 8562 583e e996 853d
000000c0: 864b 7b3d 520a 7c3d e985 313e 2691 563d
000000d0: 0659 143e b1bb aa3d b2db 52bd 6cec 063e
000000e0: 731e 5bbe c9b9 073e 43cd 92bd 4fec 05be
000000f0: f2ff f1bd 156e 593e 1fc4 99bd 5643 013e
-0.10481962 0.17508884 0.24041533 0.15162112 -0.22142544 0.09097456 0.2944483 -0.24676856
-0.039771203 0.16905758 0.04433228 0.21196494 -0.1974856 0.12195892 0.13457096 -0.21957022
-0.103894815 -0.19809216 0.14041515 0.21414317 0.09816393 -0.06107506 0.26660675 0.05071693
0.21847744 0.20931908 0.13275966 -0.20593041 0.19642769 -0.2620883 0.20703885 -0.09066036
-0.037414055 -0.0809911 0.17802991 -0.10065367 0.035946183 0.24750397 -0.26270956 0.1516274
-0.12300719 0.019190434 -0.17872234 0.072727636 0.16645999 0.2632189 0.21131332 0.065229245
0.06135132 0.06153328 0.17336239 0.052384518 0.14487085 0.083365805 -0.05147905 0.13176125
-0.21398334 0.13254465 -0.07168057 -0.13078426 -0.11816396 0.21233399 -0.0750811 0.12623343

lstm1_1.weight_ih_l0_reverse f4 [64, 32]
00000000: 5153 12bd f474 043e 8704 1cbe cca7 803e
00000010: c889 b03d 40de 0f3d 452c 823b 281a 113e
00000020: 38d9 ef3d bd09 463e 0bfa bd3a def2 a53e
00000030: 7e01 52be 8ca7 efbd 7074 d03c 688a 4ebd
00000040: 4a1e e93d 8806 493b bb4f 0bbd 5af8 efbd
00000050: e7d7 d43b ca09 a43d c413 aabc 8b95 07be
00000060: 3951 f0bd 9c58 d3bd 0745 2c3e 2564 813e
00000070: 30c9 343d 2514 32be d360 a53d 3358 663e
00000080: c931 79be 68e0 613d 30a0 9cbd 0c48 eebd
00000090: 7af6 a7bd 2c8c 07be 6943 1ebe a57b 0ebe
000000a0: 8d98 6bbe 967c 613e ff4b f93d d959 76bc
000000b0: fec2 1a3e b0ed ec3d 48e1 7abd 9924 5abe
000000c0: 0765 b23c 16ed 90bc b1d8 0e3e 3809 8f3d
000000d0: e23b 6dbe 949c 2abe e4e9 19bd 34f6 e13d
000000e0: bf20 443e 6395 633e 7b5b 6dbc d4c0 fcbc
000000f0: 1b14 51bd 0d4a 7bbe eda0 6dbe 8f08 83be
00000100: 7f37 ac3b 16a9 70be 4cca 683d 4a3a 083e
00000110: d7ae adbd 885e cc3d bb8c bdbd 9683 963e
00000120: dd1b 43be c7fc 913e 83e6 1fbe d5e4 e73d
00000130: 2032 fabc 6456 21be c8c6 683e 7b15 b03e
00000140: e92e fb3d 66ce 4fbe b31c bc3b b4b5 293e
00000150: ca35 d0bd 3ddb cabd c183 093e 8056 1a3b
00000160: 3c48 7f3e d146 693e 0aa8 353e ce7a 273d
00000170: 9308 c2bb 8e8a a9bd 535f 5d3d 2966 5a3d
00000180: 2dfb 563e a0d7 af3d f304 223e 42ef 28be
00000190: 8276 563e 78e2 7abd a2ee 443d c0f6 a03e
000001a0: 6025 32be 07d5 7bbd 041c 953e 9dc3 19bd
000001b0: 4069 e2bd 2417 4ebe dc6b bfbd ab51 433e
000001c0: b4d8 f8bd 4ace be3b ff45 02bd 0f5f 703c
000001d0: 5d03 373d 6b7d d03e 9432 ff3d 40f6 1bbd
000001e0: 6100 433e 692b 9d3e 58cd 22bc d486 be3e
000001f0: ea61 c2bb d175 193e caac 6b3e ca6b 9f3d
00000200: c7cb 9fbd 18e2 3f3e 6978 66bd cb79 a9bd
00000210: 899b 2ebe 9af2 523e 32be b33d a79e ddb9
00000220: 5d7e 2d3e bf22 92bd 0783 20be beee 683e
00000230: a007 253d 4056 573d 5e5f 503e 4a24 733c
00000240: 8734 49be b279 e4bc 72e5 1c3e 099e 653e
00000250: e4ec bb3d 2af3 643e c7a0 81be 6777 303b
00000260: 8145 3ebe 1e18 2f3e 8cdb 303d 4b9e 633e
00000270: d810 a9bc 0c23 70bd ab8b a7bd 2f4f e4bd
00000280: eaa1 533e 78fd 1ebe a26c f63d b44c 333e
00000290: c5ac 29bd 40bd 78bd 17ab d2bd 23dc 8cbc
000002a0: 0639 25be 9aad 663e 8693 b6bc 7d09 d93e
000002b0: 080d 5cbd d0e0 d7bc 3cb2 e83d 9085 b0bd
000002c0: e352 9b3d 964b 67bd 7043 0fbe c95a 523e
000002d0: cce3 c13d e130 923e d16c a2bc 374c 013e
000002e0: ef29 743e f6ef 5e3e 7e29 ac3d 4494 7fbd
000002f0: 05c2 78be e19a 5b3e 9c26 13be 4ed5 31be
00000300: b3c7 fcbd a2ac 533e 9971 c2bc b9f0 9ebe
00000310: 90f2 213d 944f f6bd 60ba 4c3e a7f0 223e
00000320: 848f ecbd 4faf 06be 0887 833e 34ce ef3a
00000330: bc52 473e 04c1 aa3d 5042 e9bc b1c7 bd3e
00000340: cfa5 89bd 0c6d c4bd 84f2 393e f6f6 813d
00000350: d73a 3a3e 5f5c c03e 192b b5be 8fb3 43be
00000360: dd16 913e 4178 953d d435 3bbe 03c2 033d
00000370: 9572 64be 4092 16be 0432 bf3a 280c 703e
00000380: 3587 16be 70b8 f73d 8d87 f4bc d2ac d8bd
00000390: 4cdb b03e 5af7 35be dc67 8b3e 38e4 6cbd
000003a0: 8f32 7d3e 05a8 edbc 831b 69bd 3b65 4bba
000003b0: 0004 763e d884 0cbe c070 673e 6b35 05be
000003c0: f6a4 0fbe 49d4 853d d83c d3bd 8d94 6a3e
000003d0: 90d5 1d3e acf3 59bd ed1e 9f3d 4bbe d9bd
000003e0: 1bd0 6f3e 04db 6c3d f8be 823d 1a6e 21be
000003f0: 312b d0bd 6411 91bd 1947 29be f0a6 c53d
-0.035723988 0.12935239 -0.15236102 0.2512802 0.0862003 0.035124063 0.0039725625 0.14170134
0.11711353 0.19339652 0.0014494074 0.32411855 -0.20508382 -0.11701879 0.025446147 -0.050424963
0.1138273 0.003067406 -0.034011584 -0.11717291 0.006495464 0.080096796 -0.020761378 -0.1324064
-0.11734242 -0.10319635 0.16823207 0.25271717 0.04413718 -0.17390497 0.080751084 0.22494583
-0.24335398 0.05514565 -0.07647741 -0.116348356 -0.082013085 -0.13237065 -0.15455402 -0.13914354
-0.23007412 0.22020182 0.12172698 -0.01503607 0.15113446 0.11568773 -0.06125 -0.21303023
0.02177669 -0.017691176 0.13949849 0.0698418 -0.23167375 -0.16661292 -0.03757657 0.11033288
0.19153117 0.22224955 -0.014487143 -0.030853666 -0.051044565 -0.24539967 -0.2320592 -0.25592467
0.005255639 -0.23502001 0.05683355 0.13303486 -0.08480614 0.09978968 -0.09255358 0.29397267
-0.19053598 0.28513166 -0.15615277 0.11322943 -0.03054148 -0.15755612 0.22732079 0.34391388
0.12264807 -0.20293579 0.005740726 0.1657322 -0.101665094 -0.09905098 0.13429166 0.0023550093
0.24929899 0.2278092 0.17739883 0.0408886 -0.0059214323 -0.0827838 0.054045986 0.053320084
0.20994253 0.08586049 0.158222 -0.1649752 0.20943645 -0.061251134 0.04807914 0.31438255
-0.1739707 -0.061482456 0.29122937 -0.037540067 -0.11055231 -0.20126015 -0.093467444 0.19074123
-0.12150708 0.0058229314 -0.031805035 0.014671101 0.04468094 0.40720686 0.12460819 -0.03807664
0.19043113 0.30697182 -0.009936653 0.3721224 -0.0059320824 0.1498635 0.23015133 0.07784231
-0.07802539 0.18738592 -0.056267176 -0.08275183 -0.1705152 0.20600358 0.08776511 -0.0004227061
0.16942735 -0.071355335 -0.15674983 0.22747323 0.040290475 0.05257249 0.2034888 0.014840195
-0.19648944 -0.02789006 0.15321901 0.22423567 0.09176043 0.22358385 -0.25317976 0.0026926638
-0.18581201 0.17099044 0.043178126 0.22228353 -0.020637915 -0.058627173 -0.081809364 -0.111479156
0.20667234 -0.15526378 0.12032439 0.17509729 -0.04142453 -0.060727358 -0.10286539 -0.017194813
-0.16135034 0.22527161 -0.022287142 0.4239005 -0.053723365 -0.026352316 0.113621205 -0.08619225
0.07584169 -0.05646857 -0.13990569 0.20542444 0.09467277 0.28552917 -0.019827278 0.1262673
0.23844121 0.21771225 0.084063515 -0.062397256 -0.24292763 0.214458 -0.14370197 -0.17366526
-0.12342777 0.20671323 -0.023735808 -0.31043032 0.039537966 -0.12026897 0.19992971 0.15912114
-0.11550811 -0.13152812 0.25688958 0.0018295706 0.19465154 0.08337596 -0.028474003 0.37066415
-0.067210786 -0.095911115 0.18158919 0.06345932 0.18186508 0.37570474 -0.35384443 -0.19111465
0.28337756 0.07298327 -0.18282253 0.032167446 -0.22309335 -0.14704227 0.0014587049 0.23442137
-0.14700015 0.120957255 -0.029849792 -0.10579838 0.3454231 -0.17770138 0.27227676 -0.057834834
0.24726318 -0.029010782 -0.056911003 -0.000775892 0.24024963 -0.13722551 0.22601604 -0.13008659
-0.14027771 0.06534631 -0.103143394 0.2290823 0.15413499 -0.0532109 0.077695705 -0.10631999
0.2341923 0.057826057 0.06384081 -0.15764657 -0.10164488 -0.07083395 -0.16531028 0.096509814

lstm1_1.weight_hh_l0_reverse f4 [64, 16]
00000000: 8a3c 05bd 96be 0dbd 1dd4 59bb c6f7 a13e
00000010: d1e8 423e f45c 483e 353e 44bd e2e1 1c3e
00000020: 9851 87be 9b54 ce3d 0846 a93c 8bd7 153e
00000030: 1156 4fbe c629 02be 6567 28bd 8b2f e5bd
00000040: 9c84 dfbd 436e 0dbd f5d2 353e c419 5b3e
00000050: 87e5 86be e37e 273c 2121 7d3d 4c1c 69be
00000060: 455d e3bd 25dd 0f3e 0faa f4ba 35b5 283e
00000070: c824 553e 93ab 04be 2b98 0b3c bf95 453e
00000080: 1f4c 58be 7244 09be 7d4d 49be b8ba 6b3e
00000090: cb6c 7f3d bca3 34be af51 74bc 28c8 323e
000000a0: fae0 62bc 8e34 4bbe beb0 453e b0ea 693c
000000b0: f830 9ebe 0808 36be b686 32be 46b2 383e
000000c0: adec 523d 715a 1f3c d720 5dbe 8940 1c3e
000000d0: 5eea b0bd 2288 c3be 3adf 1e3d 694f 44be
000000e0: d981 d5be d873 93bd 1fa3 e33c 18a2 b7be
000000f0: 1416 96be 481a 18bb 1c9e c53e 267e f53d
00000100: eae8 5ebd 94fb 63bd 20c1 823e 7568 6b3d
00000110: 6e91 aebd 5488 203e 2361 d33d 537b 153e
00000120: 427b cdbd 4d6d 3cbe 864d 40be 9f8a a13d
00000130: 98c9 77bd 7797 47be 4a9a 61be 8dd4 633e
00000140: dacb a73d 3020 29be 4e07 a4be 9b7d 7e3e
00000150: 1227 5a3e 8458 d93c de55 29be 8449 a1bd
00000160: 5b05 2abe 2dc9 e13c 3f5a 10be c0c7 3eba
00000170: b271 d53d 1624 0cbe babf a13d a159 053e
00000180: 6cbb a03e 3a04 4abe dc5b f53d 02ca 34be
00000190: ab25 1ebc cac7 823e 9bc9 383d 696a 893d
000001a0: 5574 403e 3774 eabb 72f5 bc3d 14d0 9f3c
000001b0: 152c aebd 87bc 4b3e 4d27 b0be fd57 a8be
000001c0: 57a5 20be d406 b2bd ec7a 14bc 85db 88bd
000001d0: bffd d73d d681 41bd 574b d3be e483 853e
000001e0: 3c79 323b 324e 82be c27a 81bd 1b0c c0bd
000001f0: d348 8dbe 5883 e63c b533 b63d fd10 debd
00000200: 839b 4abe b4d7 57be dca1 1bbd 1909 a93d
00000210: c823 9c3d 4fbf a0bd d516 bcbe 88dd 393e
00000220: c87c 15bc e938 14be fcd7 033e aa8d 903d
00000230: c852 2c3e b407 793c a75f 033e 3a0f 313d
00000240: 1a79 32be a023 9b3d 9177 393d 5575 52be
00000250: 9ebb 88bd 7755 d53d 9d3f 0c3e a173 13be
00000260: b092 e0bd 6ae1 e1bd c8f3 75bd ddd1 6abe
00000270: dabb 2b3e 13bd 58bc 2ebd d3bd 3957 063e
00000280: 7e64 c2bd 10a3 04be 42e7 813d a53f 4f3e
00000290: 1d84 adbd eead 8fbe e03c 53be 54fe 45be
000002a0: d475 14be 2a53 4a3e f079 f2bd b825 f93a
000002b0: 1d15 22be 1e38 29be 10e5 d83c b320 3cbe
000002c0: 3c79 81be b8c9 ad3c 51cc dd3d 84de 9c3e
000002d0: c6be a9bd 5bb7 863d 08e3 533d 6976 38be
000002e0: 47ae 5f3d bce6 273e e4f1 57be 1323 1a3b
000002f0: 4539 1c3e 9a31 f83d 1a98 de3d 8013 09be
00000300: 7187 6fbe 37b6 48be 761e 6cbd 473d 833e
00000310: c28c 453e f357 c83d ef83 dc3d fffc 90be
00000320: fd52 2c3d 8d55 b8bd 5aa3 473e 9291 963d
00000330: 9937 fd3d ffc2 443e 1116 47be ca07 ac3d
00000340: 6a6a cc3d 3188 203e eb5e b6be 65cf 6f3d
00000350: 4aee 73be dc1b 94bd 87d5 cbbd b7d6 28be
00000360: e076 f23d 0f98 8ebd 565a 03be f175 983d
00000370: f358 233e 53a4 7d3e e547 213e d9b7 dbbd
00000380: 3c4d ef3d 67cb 693e 007f 1ebd c843 933e
00000390: 403c a5bd 721c db3d 4002 a4bb 8d6c ebbd
000003a0: 8c1d 3cbe 6fe8 17be 5eb3 7f3d 31a4 bcbd
000003b0: 89f4 063c d1e1 863e 161a 6d3d 210c 163c
000003c0: f82d 803e c7a6 52bc 260a 6d3d bcff c6bd
000003d0: 34d6 e83d 8927 22be 0554 fabd 0861 8a3e
000003e0: a46c 823e 102f f0bc 6559 babc 7b7d 2fbe
000003f0: ae12 42be 8d5c 6cbe e1c4 5cbe adc6 a8bd
-0.032528438 -0.034605585 -0.0033238002 0.3163435 0.19034125 0.19566709 -0.047910888 0.15320542
-0.2642944 0.10074731 0.020663276 0.14633004 -0.20247675 -0.12711248 -0.04111423 -0.11190709
-0.10913965 -0.034528982 0.17756255 0.21396548 -0.2634699 0.010223123 0.061799172 -0.227647
-0.11101774 0.14049204 -0.0018666404 0.16475375 0.20814812 -0.12956075 0.008520166 0.19295405
-0.21122788 -0.13405016 -0.19658466 0.23020446 0.062359612 -0.17640585 -0.014912053 0.17459166
-0.013847584 -0.19844267 0.19305703 0.014277145 -0.30896735 -0.17776501 -0.174342 0.18036756
0.051495243 0.009726153 -0.21594559 0.15258993 -0.08638452 -0.381898 0.038787104 -0.19170918
-0.41700628 -0.0719983 0.027787743 -0.35865855 -0.2931372 -0.0023209024 0.3859719 0.119869515
-0.054421343 -0.055659845 0.25537968 0.057472665 -0.08523832 0.15677005 0.10321262 0.14597826
-0.10033275 -0.1840107 -0.18779573 0.07887768 -0.06049499 -0.19491373 -0.22031513 0.2224905
0.081931785 -0.16516185 -0.32036823 0.24852602 0.21303967 0.026531465 -0.16536662 -0.0787535
-0.16603605 0.027561748 -0.14096926 -0.000727769 0.10422076 -0.1368564 0.07897897 0.13022472
0.31392992 -0.19728175 0.119804114 -0.17655185 -0.009652535 0.25543052 0.04511414 0.06709749
0.18794377 -0.007154967 0.092265025 0.0195084 -0.08504502 0.19896136 -0.34404984 -0.3287963
-0.15688072 -0.086927086 -0.00906251 -0.06682495 0.10546445 -0.04724296 -0.41268417 0.26077187
0.0027232906 -0.25450283 -0.06322242 -0.09377309 -0.27594623 0.028138801 0.08896581 -0.10843084
-0.19785886 -0.21078378 -0.037996158 0.08253688 0.07624012 -0.07848989 -0.3673617 0.18150914
-0.009123988 -0.14474835 0.1287536 0.0705827 0.16828454 0.0151995905 0.12829457 0.04322741
-0.17429009 0.07575154 0.045280043 -0.20552571 -0.0667641 0.10416692 0.13696142 -0.14399578
-0.109654784 -0.110293224 -0.06004694 -0.22931619 0.16770878 -0.013228673 -0.103388175 0.1311921
-0.094918236 -0.12952828 0.06342937 0.20239122 -0.08472464 -0.28062385 -0.2062869 -0.193353
-0.14498073 0.19758287 -0.11839664 0.0019008433 -0.15828367 -0.16525313 0.026476413 -0.18371849
-0.25287807 0.021214351 0.10829986 0.30638516 -0.0828834 0.06577941 0.051730186 -0.1801392
0.054609563 0.16396612 -0.21088368 0.002351944 0.15256222 0.12118836 0.10868855 -0.13386345
-0.2339151 -0.1960076 -0.057646237 0.25632688 0.19291976 0.097824 0.10767352 -0.2831802
0.04207133 -0.090006925 0.19495907 0.07351984 0.1236412 0.1921501 -0.19442011 0.08399923
0.09981234 0.15676953 -0.35619292 0.058547396 -0.23821369 -0.07231876 -0.099528365 -0.16488157
0.1183908 -0.069625966 -0.12827429 0.074443705 0.159519 0.24769716 0.15750082 -0.107284255
0.11684653 0.22831498 -0.038695335 0.2876265 -0.080681324 0.10698785 -0.005005151 -0.11495314
-0.18370646 -0.1483476 0.062426917 -0.092110045 0.008237013 0.2634416 0.057886206 0.009158165
0.2503507 -0.012857146 0.057871006 -0.09716746 0.11368981 -0.15835394 -0.12223057 0.27027154
0.2547351 -0.029319316 -0.022747705 -0.17137711 -0.18952438 -0.2308218 -0.21559478 -0.082410194

lstm1_1.bias_ih_l0_reverse f4 [64]
00000000: f3ec 453d 94c1 dbbd 5cd9 c9bd 8218 ab3e
00000010: bb42 6abe 88cc 633e 5734 743e 6e03 283e
00000020: 49a6 5abc a88d 43bc 0c0d be3b 2b50 dbbc
00000030: ef7d 093e 270e 863d 274b d93d 824d 2fbe
00000040: a6d2 423d 0ca7 323d dbf5 9bbd 9a8b 753d
00000050: 8525 34be 5a3f be3d 8a4f 4abd e0e1 7a3e
00000060: c78c 4bbd 7a5a 52bd 4231 52ba 0975 2bbe
00000070: c601 abbd b285 6cbe e6a0 4b3e bdd6 f2bd
00000080: 3f4a 2d3d 75f5 60bd d9fa e7bd bbbf 06be
00000090: 3d9b a5bd ef41 863d e729 813e d738 963d
000000a0: 00f8 36be 4720 c5bb 0e44 36bd 722b 6cbe
000000b0: e96f 83be 4979 ee3d 3b18 683e 20e9 01be
000000c0: 644d 5bbe 5acb 60bd 2b39 843e c2fc 2bbc
000000d0: c24e 253e 8935 25be 366e 263e e9e6 693c
000000e0: 5efc 6b3e b5d1 6d3d 7844 3d3c d632 073e
000000f0: ac35 433e 8964 18bb f548 84bc 4e76 64be
0.048321676 -0.107302815 -0.09855911 0.33417135 -0.22877018 0.22245991 0.23848091 0.16407558
-0.0133453095 -0.011935629 0.005799895 -0.026771626 0.13426946 0.06545668 0.10610037 -0.1711941
0.04756417 0.04361634 -0.076152526 0.059947588 -0.17592438 0.09289427 -0.04939226 0.24500227
-0.049694803 -0.051355816 -0.0008018204 -0.16743864 -0.08349948 -0.23097876 0.19885597 -0.11857364
0.042307135 -0.054921586 -0.11327142 -0.13159077 -0.0808625 0.065555446 0.2522728 0.0733506
-0.17868042 -0.0060158106 -0.044498496 -0.23063448 -0.25671318 0.11644227 0.22665493 -0.12686586
-0.21416241 -0.05488143 0.25824866 -0.010497274 0.16143325 -0.16133703 0.1625298 0.014276245
0.23045489 0.05806132 0.011551969 0.13202986 0.19063443 -0.0023253283 -0.01614807 -0.22310755

lstm1_1.bias_hh_l0_reverse f4 [64]
00000000: f8ba 323e 573c 673e e6bb 0f3e 6b5d b83e
00000010: 4fd0 6abe 4811 5c3e adb8 3d3d 950d d0bc
00000020: fee5 473d 539a 4a3d 5a78 e7bc 4c27 373c
00000030: c7ca e7bd 13c5 40bd f78f f33d dc9c 6ebe
00000040: 922c 423e da28 dfbd 911f 523d 950d 3b3c
00000050: dbcb 133e 904e dc3d 595e be3e 580d b83e
00000060: df0b 6e3c 792e 2a3e c6aa ce3d f550 fa3d
00000070: 56c1 d03d 44f3 d33d 063f 4fbe 6b33 9bbc
00000080: faf0 8ebd 9a20 df3c ec2c 0e3e e1e1 2a3d
00000090: df5b 283e 1cdb 203d e481 25be 24d6 513e
000000a0: 4a31 bd3d bd1f dabd e65e 82be c073 1bbe
000000b0: 9af7 0b3d 4b06 de3d c912 533e d20d 17bd
000000c0: 2df3 813e 5b08 313e 2aa9 893d b7ab 603d
000000d0: c543 0dbd a61d 283e d384 a33e c841 cc3d
000000e0: fc49 5fbb 9f0d 80be 4b3c 7b3e 29a8 463e
000000f0: b896 d2bd 83d7 88bd 0f50 7ebd 28f2 a43d
0.17454135 0.22581612 0.14036521 0.36008772 -0.22931026 0.21490967 0.0463187 -0.025397101
0.048803322 0.04946358 -0.02825563 0.011178803 -0.113179736 -0.047062945 0.118926935 -0.23302025
0.18962315 -0.10896464 0.051299635 0.011416812 0.14433233 0.10757172 0.37181357 0.3594768
0.0145291975 0.1661929 0.10091166 0.122224726 0.10193126 0.103491336 -0.20238885 -0.018945416
-0.069795564 0.027237225 0.13884324 0.04171932 0.16441296 0.03927146 -0.1616283 0.20491844
0.09237917 -0.10650585 -0.25463027 -0.15180874 0.034171678 0.10841044 0.20612635 -0.036878414
0.2538084 0.17288344 0.067217186 0.05485126 -0.03448846 0.1641756 0.31937274 0.09973484
-0.0034071198 -0.25010392 0.24534719 0.19400086 -0.102826536 -0.066817306 -0.06208807 0.08054

lstm1_2.0.weight f4 [32, 32]
00000000: c4fa ba3d 88a8 a63d 7c35 c23d 979a 06be
00000010: b7df de3c 7c4f cd3c b7f8 b73d 31ae c1bd
00000020: d54b c6bc a342 3e3d 5568 b23c 2a6d 263e
00000030: 847b 6abd f478 0f3e 7d14 323e 9815 103e
00000040: 7d7b 263d 1f93 0fbe 4f07 cfbd 64d2 1cbb
00000050: 018e c33d 6c9f 17bd d813 143d 2190 3abe
00000060: e49d 0abd 21ad 06bd c9d4 0c3e 277f 5e3d
00000070: 6318 b5bd 5e34 c03d dfe8 1f3e eab1 653c
00000080: 5801 5cbd 5430 033d 3e43 d03d 27c9 2ebe
00000090: c54b 0e3e 8c0a 6c3d 69d5 82bd 8f3b 54bd
000000a0: f5b6 1abe c540 f93d ed75 053e 1715 ccbd
000000b0: ee3b fabd 5698 43bd 710b 89bd b944 86bc
000000c0: 37da 843d aac4 b83c 0a8f 2fbd c503 76bd
000000d0: 408f 323e 8e41 4fbe bbec 1cbe 7c24 18bc
000000e0: a732 ac3d 103c 56bd 5c4b 29be e78b 293e
000000f0: 78d8 cdbd 5ae1 08be fb02 d53d b9c6 fe3c
00000100: e81d dd3d adf0 8dbc 6c73 233e 3d01 cf3d
00000110: 177f 0fbe eb39 cd3d 90ef 3fbd c43c efbd
00000120: 9fe4 8f3d 3e40 b13d 7e91 ec3c 0541 093e
00000130: 8b24 2fbd 717b 5ebd 5689 8e3d 7c5e 0bbe
00000140: 8ff2 08bd 2090 5d3c 0c87 223e c462 273d
00000150: 8d78 9a3d e0d5 fd3c 7998 bf3d d3f9 e23d
00000160: 67af 06bd bcfe 6c3d edd7 27be c468 c33d
00000170: 06ae 313c a367 843c e2b2 07be e06b 99bd
00000180: 91dd a43d 7089 d93e 0667 4dbe de4e e0bc
00000190: 2d11 2abe 64df e0bd af49 94bc 08b0 273e
000001a0: 4cf2 1c3e cc09 f5bd cc2b 01be f235 5d3e
000001b0: b351 98be e29c 8dbc 155a 90be 2ea5 a5bd
000001c0: 9f20 61bd 07de 23bd 04a5 e83c a268 813c
000001d0: c64c e5bd 3363 743d 5fe2 0f3e af71 62be
000001e0: d2af a73d 0d70 b73d 6322 f4bc 65f9 193e
000001f0: 43ae 27be e3fa b8be 9f3c ea3d 9fa1 1ebd
00000200: 98c1 b93d d19c cbbd fbc6 103e 3d31 32be
00000210: 3ef6 f13c 4308 1cbd 444a 5b3c 8548 013e
00000220: 4d88 96bc e18e c8bd aedb 193d dacd 273e
00000230: 93ae 183e a991 f5bd 949a d3bd 8f62 92bd
00000240: 9627 053e 006e d4bd f476 0e3d 0de6 e6bd
00000250: ea35 ffbd b482 a4bd d9f5 18be e4cd febb
00000260: cc4a 0c3e 90f1 03be e8d5 273d bb1d 1e3e
00000270: ce0e dd3d 6272 313e f224 d9bd f3f1 e4bd
00000280: b1ad ba3d 6578 2d3b 586a b5bd bf12 273d
00000290: ac8a 933d 0f95 513e 9d15 34bd e7b6 25be
000002a0: be26 30be 5765 eb3d cd02 3cbe 9aa5 47be
000002b0: 1e90 703e a640 d03c 774b 093c 771f e83d
000002c0: 6237 3bbe 130a a53d 3f10 3fbd 0bb3 5d3e
000002d0: 1924 4bbe 46b1 a7bd 6151 c3bd 4968 cc3c
000002e0: 4fd2 0abe f54d 193e 2dd0 1b3d 0097 d4bc
000002f0: a1df 3dbe 729a c939 d1db a83d 4efe 18bd
00000300: df05 91bd 313b d0bd fe8b 14bd 3d71 e13d
00000310: 99b8 58bc 9966 b3bd 5abc 91bd 8850 183e
00000320: b61e 03be d0e7 a3bd a4ff 1abe 1b49 d83c
00000330: c349 a1bd cdf1 303d 0716 9f3d f052 8fbd
00000340: 0da9 6cbc 6584 d8bd 7236 1b3e a587 d2bd
00000350: 04a6 fabd e703 32bd 4679 d33c 8fc8 e73c
00000360: 3be8 21be 2f81 d9bd a6b8 d83d e19e c7bd
00000370: bf5e 1e3a 7fb8 fc3d 55b5 cb3d 1703 083e
00000380: dc8f 2a3e 10ed a53d d078 b2bd 4651 1abd
00000390: bc51 d53c 3fe1 34bd a555 cd3d 24c8 233d
000003a0: e7c8 1abe dd85 23be c485 01be 6134 81bd
000003b0: a604 fa3d b391 96bc e8b4 1dbe 086a 7fbd
000003c0: 3c22 513d 9944 04be 2145 473d f486 643c
000003d0: 0f93 12bd 3696 b9bd 2866 54be 80c2 a33d
000003e0: 9c9e cebd cbdf 64bd 43b2 0dbe fd06 b7bd
000003f0: d632 38be 04b6 083e 5c56 50bd 23c9 8a3a
0.09129861 0.081376135 0.094828576 -0.13144909 0.027206285 0.025062315 0.089829855 -0.094570525
-0.024206081 0.04645027 0.021778265 0.1625258 -0.0572467 0.14010984 0.17390628 0.14070737
0.04064511 -0.14020966 -0.10108816 -0.0023929114 0.095485695 -0.03701727 0.036151737 -0.18219043
-0.033841982 -0.032879952 0.13753046 0.05432048 -0.08842542 0.09384988 0.15616177 0.014019469
-0.05371222 0.03202851 0.101690754 -0.17068921 0.13896091 0.057627246 -0.06388361 -0.051814612
-0.15108855 0.12170557 0.13033266 -0.0996496 -0.12218462 -0.0477527 -0.066916354 -0.016390191
0.06486934 0.022554714 -0.042861022 -0.06006219 0.17437458 -0.20239851 -0.1532468 -0.009286042
0.08408099 -0.052303374 -0.16532654 0.16557275 -0.10051054 -0.13367215 0.10400959 0.031100618
0.1079672 -0.017326677 0.15961999 0.10107658 -0.14013325 0.100208126 -0.046859324 -0.11681512
0.07026028 0.08654831 0.02887797 0.13403709 -0.04275946 -0.05431694 0.069597885 -0.13610262
-0.033434447 0.013523132 0.15871829 0.040865675 0.075425245 0.030985773 0.09355254 0.110828064
-0.03288212 0.05786012 -0.16390963 0.09541467 0.010844713 0.0161627 -0.13251832 -0.07491279
0.08050073 0.4248767 -0.20058832 -0.027381357 -0.16608115 -0.109801084 -0.018101541 0.16375744
0.15326804 -0.11964759 -0.12614363 0.2160261 -0.29749832 -0.017286722 -0.28193727 -0.08088146
-0.05496275 -0.040006664 0.028398998 0.015796963 -0.11196284 0.059664916 0.14051197 -0.2211368
0.08187832 0.08956919 -0.029801553 0.15036543 -0.1637507 -0.3612891 0.11437344 -0.038728353
0.09070128 -0.0994202 0.14138405 -0.17401595 0.029536363 -0.038093816 0.0133844055 0.1262532
-0.01837554 -0.09792877 0.03756302 0.1638712 0.14910345 -0.11990673 -0.10332218 -0.07147705
0.13003382 -0.10372543 0.03478141 -0.112743475 -0.12461455 -0.08032742 -0.14937533 -0.007776009
0.13700408 -0.12885118 0.04097548 0.15441029 0.107938394 0.1732879 -0.1060275 -0.11178961
0.0911516 0.0026469466 -0.08858174 0.040789362 0.07204184 0.20467018 -0.043965925 -0.16183053
-0.17202279 0.114939384 -0.18360443 -0.19496766 0.23492476 0.025421452 0.008379809 0.113341264
-0.18282846 0.08058562 -0.046646353 0.2165033 -0.19837989 -0.08188109 -0.09537006 0.02495207
-0.13556789 0.14971144 0.03804033 -0.025950909 -0.18542339 0.00038452778 0.08245052 -0.0373519
-0.07081198 -0.1016754 -0.03626632 0.110079266 -0.013227605 -0.08759803 -0.07116003 0.1487447
-0.12804684 -0.08003199 -0.15136582 0.026402047 -0.07875397 0.04319935 0.07767873 -0.06998241
-0.014444602 -0.10572127 0.15157488 -0.102797784 -0.12238696 -0.043460753 0.025814664 0.028293876
-0.15811245 -0.10620343 0.10582094 -0.097471006 0.000604134 0.12339877 0.09946696 0.13282429
0.1665644 0.08101857 -0.087144494 -0.037675165 0.02603995 -0.044160124 0.10026101 0.03998579
-0.151157 -0.15969034 -0.12648684 -0.063088186 0.12207918 -0.018380022 -0.15401042 -0.06235698
0.05105804 -0.12916793 0.04864991 0.013948191 -0.035784777 -0.090618536 -0.20742095 0.07996082
-0.10088846 -0.055877488 -0.13837533 -0.0893688 -0.17988142 0.13350683 -0.05086361 0.0010588508

lstm1_2.0.bias f4 [32]
00000000: eac0 f03d cfb5 d83c 8aba 1e3e b06e 9cbc
00000010: dca5 c8bd eaf8 7cbd 10c4 74bd 12c2 1e3e
00000020: 90fc 41bc 32cd bebd 7f2a 2bbe bda3 c83d
00000030: a4c2 06be 66a6 333e 8783 dd3d 9abf b43d
00000040: 5549 373e 1f35 033e 4505 0e3e 6d19 253e
00000050: 9cd7 9e3d 8f16 213e 7039 b6ba d3e4 1f3e
00000060: 1953 0fbe 5e51 2d3e 2919 16be ecd1 193e
00000070: b07f 023d 2560 1a3e 3852 363e eaf1 67bd
0.117555454 0.02645388 0.15500847 -0.019095749 -0.0979726 -0.06176082 -0.059757292 0.1550372
-0.011840001 -0.09316482 -0.1671543 0.097968556 -0.13160187 0.17543945 0.108161025 0.088256076
0.17899068 0.12813233 0.13869198 0.1612298 0.07755968 0.15731262 -0.0013902616 0.15614633
-0.13996543 0.1692557 -0.14658035 0.15021485 0.031860054 0.15075739 0.17804801 -0.05662719
