results/soh_individual_dataset_results/Dataset 6/pre_trained_model.pth (torch, 95584 bytes, 27 tensors)

cnn1.0.weight f4 [16, 1, 3]
000000 d2 86 70 be 46 37 d6 be 39 6a d8 be f1 da 4d 3e
       -0.2348893 -0.41839045 -0.4226854 0.20103051
000010 bf 0f bf be de 4a 2b 3f 63 94 08 bf 33 2b 89 be
       -0.373167 0.66911113 -0.5335142 -0.2679077
000020 f4 96 a7 be 7a 44 55 3e 3f 58 91 be 04 08 d0 be
       -0.32732356 0.20826903 -0.2838764 -0.40631115
000030 2e 26 a8 be 11 2c 20 3e 84 06 16 bd 3f e9 07 3f
       -0.3284163 0.1564181 -0.036627308 0.5309028
000040 6f 35 78 be 40 f6 d7 bd 59 98 f1 be 92 33 aa 3e
       -0.24239133 -0.10545015 -0.47186545 0.3324247
000050 7c 9d 59 be c5 26 96 3e 38 5a 6e be 9a 75 01 bf
       -0.21251482 0.29326454 -0.23276603 -0.5057007
000060 3b 12 a2 be d5 32 e1 bb 34 79 33 be e7 7b 6f be
       -0.31654534 -0.0068725147 -0.17526704 -0.23387109
000070 c4 be a2 3e f6 82 71 be b6 be b9 bd 40 ba ae bd
       0.31786168 -0.23585114 -0.09069578 -0.08531618
000080 68 ad 21 be 68 08 ae be cf 11 d5 3e 90 16 b8 be
       -0.15788805 -0.33990788 0.4161515 -0.35954714
000090 cb 31 98 3d 2d 01 5f 3e db 96 f7 be 92 b4 f1 be
       0.07431372 0.21777792 -0.4835728 -0.47208077
0000a0 2c 54 98 be 82 8f a1 be de 7d 0b 3e e2 2f 98 3e
       -0.29751718 -0.315548 0.13622233 0.29724032
0000b0 7c 66 fe be 39 57 1a 3e 7b c3 a6 bd 40 69 b7 3e
       -0.49687564 0.15072335 -0.08142754 0.35822487

cnn1.0.bias f4 [16]
000000 67 92 8b bd 3b 7e f3 3e 2e e9 02 be 67 e3 05 3f
       -0.068150334 0.47557244 -0.12784263 0.52300113
000010 3d 9f eb 3e a9 00 27 3e bc 1a 13 bf 1f a7 93 3b
       0.46019927 0.16308846 -0.5746267 0.0045060064
000020 1d 73 f7 3e 7d 99 c0 be 11 23 b7 3e e3 e7 47 3e
       0.48330012 -0.37617102 0.3576894 0.19522052
000030 d8 48 4e 3e 22 66 cb 3e 6d f0 0a 3e c7 9c 14 3e
       0.20144975 0.3972636 0.13568278 0.14512931

cnn2.0.weight f4 [32, 16, 3]
000000 8d 7f b3 3d 2f 72 75 3d e7 8e af 3d 38 f1 5d bc
       0.08764563 0.059923347 0.08572178 -0.013546281
000010 f2 9c 93 3d d1 c4 2b 3e b8 11 cc bd a9 97 ad bd
       0.07207669 0.16774298 -0.09964317 -0.084761925
000020 f3 64 51 3d dd 94 ab bb 50 b6 81 bd e0 52 7d be
       0.051121663 -0.0052362517 -0.063336015 -0.24738646
000030 1a d4 a1 3d d0 47 84 bc cd 89 bc bd 12 7a 02 3e
       0.07901783 -0.016147524 -0.09205971 0.12741879
000040 de ab c9 bc 1c 1a 58 3d 96 a2 8a 3b b5 44 67 3d
       -0.024618085 0.052759275 0.0042308075 0.05646201
000050 ef c8 46 3d cf af b8 3d a1 f2 ac 3d ad 1e 09 3e
       0.04853147 0.09017908 0.08444715 0.13390608
000060 2f 93 33 3e 99 97 9c 3c ff ec 6d be 96 eb f2 3d
       0.17536615 0.019115256 -0.23234938 0.11861341
000070 5f c4 be 3d 98 1b 6f bd df d2 8f bd 51 0d c1 bd
       0.093147986 -0.058375925 -0.07022642 -0.09426368
000080 23 37 03 be e4 16 6d 3e 44 87 6b 3d 08 24 0c 3d
       -0.12814002 0.23153263 0.057502046 0.03421405
000090 03 b9 84 3e a6 ba 9c 3d 53 57 39 be 0c 95 d7 3d
       0.25922403 0.07652788 -0.18099718 0.10526475
0000a0 2f b3 75 3e 23 b9 df 3d 27 ce 28 bd 21 c4 33 be
       0.23994134 0.10923984 -0.041212227 -0.17555286
0000b0 94 d0 cd be f1 ce dc bd ad 78 01 bd 99 ee b5 3d
       -0.40198195 -0.107816584 -0.031609226 0.088833995
0000c0 d7 8f 24 bd 66 bd 9a 3d 25 43 0c bc 95 f6 17 3c
       -0.04017624 0.07555656 -0.00856093 0.009275098
0000d0 97 ab 8b 3d 07 b0 07 be 34 44 9c 3d fa d0 a8 bc
       0.068198375 -0.13250743 0.07630196 -0.02060746
0000e0 99 56 c2 bc 2e b9 45 3d 32 b9 0c 3d cd 06 32 bd
       -0.023722934 0.048272304 0.034356304 -0.043463517
0000f0 df 85 94 bc 0d 6e 82 bd b1 0e 6b 3c 7e 63 23 bd
       -0.018130241 -0.06368647 0.014346764 -0.039889805
000100 22 9f 4c 3c c2 97 94 bd 93 3c 09 3d 20 7f 99 3d
       0.012489112 -0.07255508 0.033505034 0.0749495
000110 a1 40 98 3b 54 cc e2 3d 37 e1 ce 3d 14 6f 5b bd
       0.0046463762 0.11074129 0.1010155 -0.05357273
000120 37 af 0e 3e c8 4a 9f bd 16 40 7e 3c f7 65 b0 bd
       0.13934027 -0.07777935 0.015518209 -0.08613198
000130 a1 86 7a 3d 3e 72 10 3e b8 7a ab bc 75 ee a9 3d
       0.06116355 0.1410608 -0.02093254 0.08297435
000140 21 0e cb 3c 80 53 98 bd 3d 08 41 bd a8 15 87 3d
       0.02478701 -0.07437801 -0.047126997 0.065959275
000150 12 c5 77 3c 41 ce ab 3c 41 b5 10 be 79 74 b1 bd
       0.015122669 0.020972373 -0.14131643 -0.086647935
000160 60 98 6e bd 99 c1 0a 3e c2 ef 78 3d 36 58 84 bd
       -0.058250785 0.13550414 0.060775526 -0.064621374
000170 66 8b c5 bd 0f 8f 4b bd 0e 2c f9 bd 86 b4 c0 3c
       -0.09645729 -0.04969698 -0.12166606 0.02352358
000180 d3 93 0a be 94 a9 63 3d d8 24 db bd c3 6b d8 3d
       -0.13532953 0.055581644 -0.10700387 0.10567429
000190 38 ea 8c 3d 42 88 d9 3d c8 36 87 bc c4 1f 0d be
       0.06880611 0.10621692 -0.016505614 -0.13781649
0001a0 77 eb 15 bd 0f 9c 17 3e d9 ce 26 3e 00 5c 5a 3e
       -0.03660151 0.14805625 0.16289844 0.21324158
0001b0 74 54 c4 bc 77 31 50 3d 3d c5 06 3e 93 1a 8d bd
       -0.023966052 0.050828423 0.13161178 -0.06889834
0001c0 bc 90 38 3e d6 83 bd bd 4b 74 9a bd 36 58 10 3e
       0.18023962 -0.09253661 -0.075417124 0.1409615
0001d0 80 02 f3 3b d9 c1 81 3d 6c 4c 13 3d f3 d1 f3 bd
       0.0074160695 0.06335802 0.035961553 -0.11905279
0001e0 08 ae b8 bd 32 ba 80 bc 3b 5b 6f ba a4 28 ff 3d
       -0.09017569 -0.015713785 -0.0009130721 0.124589235
0001f0 46 4d cb 3c a0 0d cd 3d fc 02 04 3e 85 bb f4 3d
       0.02481712 0.100123644 0.12891763 0.11949829
000200 32 11 95 3d f3 aa cc bd 6a 33 12 be 2a 3e 2d be
       0.0727867 -0.099935435 -0.14277425 -0.16918245
000210 9e 54 6d bd 6d 6f cf 3c b2 d9 64 3e 7b c8 32 3e
       -0.057942025 0.025321687 0.22348669 0.1745929
000220 e4 43 c1 3d 6f 7b db 3d 1b 76 0d 3e 3a 08 dc bc
       0.09436777 0.107169025 0.13814585 -0.026859391
000230 9a c9 4b 3e 51 05 4e 3d 14 77 90 3d b5 cf 0a be
       0.19901124 0.05029804 0.07053962 -0.13555796
000240 dd d2 dc 3d 12 df f6 39 19 d5 9a 3d 37 6a fc bd
       0.107824065 0.00047086977 0.075601764 -0.123249464
000250 d8 47 98 bb 55 59 93 bd 70 a2 9f bb c0 81 98 3d
       -0.0046472363 -0.07194773 -0.004871659 0.07446623
000260 9a 15 a1 3d b6 58 03 3e 93 d5 e1 bd 48 75 94 bd
       0.07865448 0.1282681 -0.11027064 -0.07248932
000270 c5 ab 03 be 95 0b ba bd 9d 8d 4d 3d 87 51 5a bd
       -0.12858494 -0.0908424 0.05018388 -0.053300407
000280 11 71 03 3e 70 16 a7 bd 70 15 1e 3d 7d dc 5e 3d
       0.128361 -0.081585765 0.038594663 0.054409493
000290 ed 69 fd 3d 96 5b 06 3d b2 dc 85 bc c8 68 04 3e
       0.12373719 0.032802187 -0.016340587 0.12930596
0002a0 36 41 6f 3c 07 5e 10 3e 73 9e f4 3d f6 0a c0 3c
       0.01460295 0.14098369 0.11944284 0.023442727
0002b0 99 95 3e bd 49 dc be 3c 4b 0f cc 3d 53 8c 8d bd
       -0.046529386 0.0232984 0.099638544 -0.0691153
0002c0 c4 45 13 be 1f ca da bc bd 31 2d 3d 9c 50 9e 3d
       -0.14382082 -0.026707707 0.042283762 0.07730219
0002d0 1b aa b7 3d 69 95 f3 bd 9b 12 9b 3d ac 7c 9a bd
       0.08967992 -0.11893732 0.07571908 -0.075433105
0002e0 06 06 14 3c 20 9f 03 be ce 63 ab bc 2c 9c bb bd
       0.009034639 -0.1285367 -0.020921614 -0.09160647
0002f0 ef 80 ab 3d 70 16 27 bb dc 4d 11 be 09 20 0e bb
       0.083742015 -0.0025495552 -0.14189857 -0.0021686575
000300 42 2f 05 be 95 07 a8 3d 0d c6 82 bc 38 ca 18 bd
       -0.13006309 0.08204571 -0.015963579 -0.037302226
000310 d6 b9 ff 3d 68 8f 86 bd 94 0e 01 3e 24 82 35 3d
       0.12486617 -0.06570321 0.12603217 0.044313565
000320 db 88 9f bc 26 05 fc 3d ca 08 04 be bc b7 25 bd
       -0.019474437 0.123056695 -0.12893978 -0.040458426
000330 ea 97 8c bd c7 c8 04 3e 0c 4c be bd 34 31 98 3d
       -0.06864913 0.12967215 -0.092918485 0.0743126
000340 bb 7d c4 bd 02 07 0a 3d 15 06 18 bd 12 c1 9b bc
       -0.09594294 0.03369809 -0.037115175 -0.019012962
000350 f0 05 09 3e 03 90 01 3e c6 f0 8d 3d e1 24 fe bb
       0.13381171 0.12652592 0.069306895 -0.007755861
000360 1d e4 f6 bd dd 9c 4e bc ae 24 04 3e 2e bc 8d 3d
       -0.12055228 -0.012610641 0.12904617 0.06920658
000370 57 f4 11 bd da ec aa bd e8 d3 b0 3d 66 62 9f 3d
       -0.03563341 -0.08345957 0.08634168 0.0778244
000380 05 42 cd 3d 64 93 03 3d 52 b2 ef bd 15 ed d4 bd
       0.10022358 0.032122985 -0.11703934 -0.10396782
000390 02 3b 73 3d e9 0d 4a bd d6 6b 2e bc 01 1c c1 bd
       0.059382446 -0.049329672 -0.010645827 -0.094291694
0003a0 48 1b e3 3c b8 71 e2 3d 25 65 98 bd 2d 6e a8 3c
       0.02772297 0.110568464 -0.07441167 0.020560348
0003b0 10 45 03 be 34 50 1d 3b e7 f4 45 3d e0 1f f5 3c
       -0.12819314 0.0024004104 0.04832926 0.029922426
0003c0 19 a6 b5 3c a1 12 e6 3d 8e 53 0c 3e 07 6b 82 bd
       0.022173928 0.11234022 0.13703749 -0.0636807
0003d0 2e 58 d3 3d 74 90 d6 bc 21 e4 85 bc 47 70 b3 bd
       0.10319553 -0.026191927 -0.016344132 -0.087616496
0003e0 7a a3 2c bd 04 91 29 3c 23 22 7f bd 64 8b 06 3e
       -0.04214809 0.010349516 -0.062288415 0.13139111
0003f0 e6 ba 97 bc 3d f4 01 bd 0e 45 23 3c ee bd 15 bd
       -0.018521737 -0.031727064 0.009965194 -0.036558084

cnn2.0.bias f4 [32]
000000 48 ac a7 3b 1e 26 0f 3d ce b4 ae bd 00 d6 0f be
       0.005116973 0.03494846 -0.085305795 -0.14046478
000010 83 b0 b6 bd 15 8f 09 be ff 36 a7 3c ab c0 e6 bc
       -0.08920386 -0.13433488 0.020411966 -0.028168043
000020 ab 4a d5 3c 49 c8 27 bc 12 b4 d2 3d 0c df 95 3d
       0.026036581 -0.010240623 0.10288252 0.073179334
000030 b5 4f 86 3c 89 42 dc bd 4d 8a 0c 3e 83 f1 14 be
       0.01639543 -0.10754878 0.13724633 -0.14545254
000040 a4 e5 bb 3d 97 f2 74 3c 01 ce 16 bd f1 6b 20 3e
       0.0917466 0.014950416 -0.036817554 0.15666176
000050 38 55 dd 3d e5 07 e4 bb 17 16 ed 3d 69 49 52 bd
       0.1080727 -0.006958949 0.11576479 -0.05133954
000060 34 07 a6 3d 44 2f 54 38 26 18 b3 3d c2 dd c8 ba
       0.08106843 5.058876e-05 0.0874484 -0.0015324878
000070 91 d2 db bc ff e3 db 3d fa 67 e1 3d b6 29 53 bd
       -0.026833804 0.10736846 0.1100616 -0.05155345

lstm1_1.weight_ih_l0 f4 [64, 32]
000000 97 d9 7f 3e 60 fe 32 bc 2f bb 04 3e 50 78 5f 3d
       0.24985348 -0.010924906 0.1296203 0.0545581
000010 d0 6b bd bd be 68 7b 3e 1c 30 b2 3d 20 88 40 3e
       -0.09249079 0.24551675 0.087005824 0.18801928
000020 40 ce 2e 3e 4a 60 a7 bd e5 bd 65 be af cc 60 3e
       0.17070866 -0.081726626 -0.2243572 0.2195308
000030 43 ac 05 3e 40 b6 bf bc f4 e2 1b 3e 20 0e fc 3d
       0.13053994 -0.023402333 0.15223294 0.12307382
000040 08 a3 67 bd c6 21 75 3e 3e 28 05 be e9 5f 4d be
       -0.056551963 0.23938665 -0.13003632 -0.20056118
000050 66 62 3c bd 6f 86 bf 3e 86 e9 62 3e 4d ba 02 be
       -0.045992278 0.37407252 0.22159395 -0.1276638
000060 29 17 80 ba 7f 0a 74 be 9e 4a 37 3c 8b a3 42 3e
       -0.0009772527 -0.23832129 0.011187224 0.19007699
000070 24 31 49 be 45 e2 29 bd ac ac 58 be eb 75 3b 3e
       -0.19647652 -0.041475553 -0.21159619 0.18306701
000080 ca 03 c5 3d d4 2b c3 3d 74 c9 64 3d 98 14 25 be
       0.09619863 0.09529844 0.055856183 -0.16121137
000090 f8 b9 7c 3e 5c bd bd 3d 73 bb 47 bd ea 04 a5 3d
       0.24680316 0.09264633 -0.04876275 0.08057578
0000a0 93 9a d2 bd 15 32 9b 3e 3e da e3 bb 88 5a 34 be
       -0.10283389 0.30311647 -0.0069535067 -0.1761266
0000b0 03 d1 12 be 70 c9 2d bd 5e 70 7b 3e 0e ac 30 3d
       -0.14337544 -0.042428434 0.24554583 0.043132834
0000c0 66 ba 7f 3e 34 7e 1d be 80 33 de 3d cd 02 1d be
       0.24973449 -0.15380174 0.108496666 -0.153331
0000d0 b1 fb 8e 3d 75 e7 02 bc 24 2b b3 3d f9 7d a0 3e
       0.069816 -0.007989754 0.08748463 0.3134611
0000e0 78 82 ef 3c c5 5e 07 be e7 c6 95 bd ac 9a a3 bc
       0.029237017 -0.13219745 -0.07313328 -0.019971214
0000f0 6c f6 8d bd f2 45 0d 3d ae 05 53 bc b8 4d 4c bd
       -0.06931767 0.034490533 -0.012879772 -0.049878806
000100 69 49 c0 bc 5a 88 61 be a4 02 29 3e 18 4c 9d 3d
       -0.023472505 -0.2202467 0.16504914 0.07680529
000110 f4 3e 81 3d 54 a2 97 3d fb 8d c4 3d d6 3c 39 3d
       0.063108355 0.074040085 0.09597393 0.045224033
000120 3d d5 58 3d a2 30 9e bd e9 57 3f 3e 98 c7 0e be
       0.052937735 -0.0772412 0.18685879 -0.13943326
000130 3d 4f 9e ba 12 6a 60 be 75 8e 59 be 27 3d 24 be
       -0.0012078058 -0.21915463 -0.2124575 -0.16038953
000140 94 31 f3 bd d0 f1 08 3e 7e b9 ba bb 39 9c 25 be
       -0.11874691 0.13373494 -0.005698382 -0.16172875
000150 89 3d 4c 3e b9 4d 87 3b 14 6a 8b 3c f6 f5 ea bc
       0.19945349 0.0041291383 0.017018355 -0.028681736
000160 da 73 dc bc 7d 5f 33 3e 4f ca e0 3c c2 1c 32 3e
       -0.026910711 0.17516895 0.027440218 0.17393783
000170 66 d9 18 3e 2e e5 70 bd cf df 4f be 4a 3f 90 3d
       0.14926681 -0.058812313 -0.2030022 0.070433214
000180 c5 89 17 be c0 53 47 be 61 e2 85 be 52 dd 4e 3e
       -0.14798649 -0.19465542 -0.26149276 0.20201614
000190 9e ed 15 3e 70 b3 46 bd 6e 23 ed bd 5f da bd 3b
       0.14641425 -0.04851097 -0.11579023 0.005793854
0001a0 3f c0 a8 bc 31 b4 c5 bc 2a 84 cb 3d 99 bb 19 3e
       -0.020599483 -0.024133774 0.09937318 0.15012969
0001b0 d5 01 d6 3d c4 39 c9 3d d9 6e 81 bd 70 e5 8c 3d
       0.10449568 0.09825471 -0.06319971 0.06879699
0001c0 78 eb 09 bd be 1c 76 3e 02 26 09 be f3 8c 6d be
       -0.033671826 0.24034402 -0.13393405 -0.23198299
0001d0 5c 84 38 be 5a 51 7e bd 23 3f 65 3e 7a 5c 96 3e
       -0.18019241 -0.0620893 0.22387366 0.2936743
0001e0 6d 4e 30 be 9e d9 ca 3d fc 5f a5 bb 23 14 3e be
       -0.17217417 0.099047884 -0.0050468426 -0.18562369
0001f0 d2 2f 2d be 00 51 b4 3d a6 d3 71 3d 82 81 64 3e
       -0.16912773 0.08804512 0.059039734 0.22315028
000200 f1 a3 88 bc e0 7b da 3d 4f 55 58 3e 80 f6 4e bd
       -0.016679736 0.106681585 0.21126293 -0.05052805
000210 d0 ff 62 3e 70 05 eb 3c 2b 64 32 3d 81 14 bd 3d
       0.22167897 0.028689116 0.04355256 0.092324264
000220 7f 02 27 be 6f e9 ff bc e6 51 18 3e c1 dd 81 3e
       -0.16309546 -0.03123924 0.14874992 0.25364497
000230 eb 20 24 3e bc c7 87 bd 67 be 31 bd a3 e2 9b 3d
       0.16028182 -0.06629893 -0.043394472 0.07611587
000240 4a 7c 71 be a0 18 20 bd 50 eb 3d 3e 0d af 28 be
       -0.23582569 -0.039085984 0.18546796 -0.16473027
000250 d4 37 e4 bd 48 e1 59 be 6d 9a 04 3d 0b 23 3d 3e
       -0.11143461 -0.21277344 0.032373834 0.18470399
000260 25 06 6c be b4 ce 3b 3d e0 4a a7 bc f9 4e 7e be
       -0.23049219 0.045851424 -0.020421445 -0.24834813
000270 43 83 2c 3e ef f1 d6 bd 49 cb 68 3e d6 0f d3 bd
       0.16846947 -0.10495364 0.22733797 -0.10305755
000280 f8 cd cd bd 36 38 0e 3e e0 a4 4f 3e b8 0b 03 3d
       -0.10049051 0.1388863 0.20277739 0.031993598
000290 b4 c7 4e 3e bc 33 99 bd 22 16 a6 bd 50 be b4 3d
       0.20193368 -0.07480571 -0.0810969 0.08825362
0002a0 24 11 27 be bc e1 64 be e3 e9 3a be 85 0d 5d 3e
       -0.16315132 -0.22351736 -0.18253283 0.21587189
0002b0 1a 55 be bb d2 5f 1a be 43 54 bb 3d 34 f1 b8 3c
       -0.0058084847 -0.15075615 0.09146931 0.022575952
0002c0 8a e1 45 3e b0 bc 98 bc 61 93 4a 3d bc b9 3d 3d
       0.19324318 -0.01864466 0.049456958 0.04631971
0002d0 aa 26 74 3e 9a 07 5c be 1d 50 5d 3e dd c4 3b be
       0.23842874 -0.21487275 0.21612592 -0.18336816
0002e0 7d 14 de bd 49 8f 10 bc 11 9a b9 3d 9e 29 04 be
       -0.108437516 -0.008823224 0.09062589 -0.129065
0002f0 d7 84 8f 3d 68 4e ea 3d 7e 39 8d bd ee cb 32 3e
       0.07007759 0.11440736 -0.068957314 0.17460606
000300 67 63 aa be a8 2a 92 3d 84 b2 50 3d c8 d9 0c 3e
       -0.33278963 0.07137042 0.050951496 0.13754952
000310 88 91 2e bd f0 38 fd bc 8c 83 32 3d ff ac a1 3c
       -0.04261926 -0.030910939 0.043582484 0.019735811
000320 72 03 27 be 04 8c 6b be fc d0 32 be e9 50 ef bd
       -0.16309908 -0.2300263 -0.17462534 -0.11685354
000330 b8 4d f5 3c f0 0e 76 bd a7 60 4d 3e fa df 70 3b
       0.029944286 -0.06007284 0.20056401 0.0036754594
000340 42 30 05 3e de a3 27 3e 80 f4 07 3e ed 14 4f 3d
       0.1300669 0.16371104 0.13276863 0.050557066
000350 0a 0c 97 bd 17 c1 98 bd 04 00 57 be f0 81 93 be
       -0.07375343 -0.07458704 -0.209961 -0.28810072
000360 cd 62 55 be ae 48 c3 3b c2 11 06 3e 94 a3 5c 3e
       -0.20838471 0.005959592 0.13092712 0.21546775
000370 ed f7 e1 3d 29 b1 15 be 42 e7 1b 3e 30 15 c5 3d
       0.11033616 -0.14618362 0.15224937 0.09623182
000380 4b ed 96 3e 74 14 07 be fc 2b 72 3c 64 83 6e 3e
       0.29477915 -0.13191396 0.0147809945 0.23292309
000390 e8 0b 87 bd 96 3c 53 be 81 94 17 3d 51 38 69 be
       -0.06594068 -0.2062858 0.03700686 -0.22775389
0003a0 8f c1 79 3e 20 d5 e1 3e a3 5a 79 3e 27 58 c8 3c
       0.24390243 0.44107914 0.24350981 0.024456097
0003b0 cf 7e 86 3e 48 85 49 3d 39 ba 76 bd 5f 7f 32 be
       0.26268622 0.049199373 -0.06023619 -0.174314
0003c0 e8 31 7c be 40 8c ee bc 9f 96 ba 3d d5 69 10 3e
       -0.24628413 -0.02911961 0.0911076 0.14102872
0003d0 62 b2 cb bc f3 43 18 be 57 2e c5 3d 23 48 68 3e
       -0.024865333 -0.1486967 0.09627979 0.22683768
0003e0 f9 fc b2 bd f6 94 be 3e 63 8c a5 3e 12 e7 75 bc
       -0.08739657 0.37223023 0.3233367 -0.015008705
0003f0 12 e1 1b 3e 56 91 06 be ac 41 2d 3e 95 07 22 be
       0.15222576 -0.13141379 0.16919583 -0.15823205

lstm1_1.weight_hh_l0 f4 [64, 16]
000000 9e 0a e5 bd 23 60 9c bd 55 bf 62 be 57 aa 6e 3b
       -0.11183666 -0.07635524 -0.221433 0.0036417448
000010 8e 46 98 3d e4 d1 18 be 32 04 04 3e bc 6c 70 bd
       0.07435332 -0.14923817 0.12892225 -0.058697447
000020 a8 db 2d 3e 59 37 4c bd 0b 77 1b 3e c0 e5 ff bb
       0.16978323 -0.04985747 0.1518213 -0.0078093708
000030 2f 58 97 3d c6 d3 2d bc 85 2c 56 3d 4a 30 07 3c
       0.073898666 -0.010609573 0.05228855 0.008251259
000040 b6 f3 16 3e 9c c9 be 3d 07 94 56 be e8 84 56 be
       0.14741406 0.09315798 -0.20954905 -0.20949137
000050 7f 0a 4c bd 93 24 bf bc 7d 6e 29 3e 8d 2e 89 be
       -0.049814697 -0.02333287 0.16546054 -0.26793328
000060 81 b0 30 3e c0 45 f2 3d be 7a 91 3e d8 14 6c bb
       0.17254831 0.1182971 0.28413957 -0.0036023166
000070 29 90 95 3d 5d 82 01 bd a7 ed 9c 3d 4e 0c 8b 3d
       0.07302887 -0.031618465 0.07662516 0.06789456
000080 ae e8 b7 bd b2 ab 43 be 77 f0 e7 3d 33 68 b8 bb
       -0.08979927 -0.19108465 0.11325162 -0.005627656
000090 e3 47 40 3d 0c 35 63 3e 57 32 48 3e d6 83 a0 be
       0.046943557 0.22188205 0.19550453 -0.31350583
0000a0 9a 03 1c 3e 28 c4 3d 3e f0 cf 42 3d 44 0c 02 be
       0.15235749 0.18531859 0.047561586 -0.12699991
0000b0 b9 65 6e be ec e7 91 bd 1c 10 29 bd 00 c9 06 3e
       -0.23280992 -0.07124314 -0.04127513 0.13162613
0000c0 15 e7 12 3e d7 d2 c9 3d 71 2a 64 be c8 32 0d bd
       0.14345963 0.09854668 -0.22281815 -0.034472257
0000d0 16 e9 45 3e c4 c3 41 be c5 8d 72 be 3f ea 6e be
       0.19327196 -0.18922335 -0.23686893 -0.23331545
0000e0 c8 5c 6c 3e 67 be 82 3d f7 73 19 3e ef 1b 5d 3e
       0.23082268 0.063839726 0.14985643 0.21592687
0000f0 25 a4 28 3c 79 ab 87 bd c5 94 1e be fc 9e ea bd
       0.010293041 -0.06624503 -0.15486439 -0.11456105
000100 7d fd f5 3d 4c 8e 12 3d b9 87 e5 bd 2d cb 41 be
       0.1201124 0.035780236 -0.11207528 -0.18925162
000110 50 e5 2e be d3 c1 78 be 02 c0 43 be 4e 10 09 be
       -0.17079663 -0.24292688 -0.19116214 -0.13385126
000120 03 a2 61 be 6c e1 22 be 7f 0e 6c be 0f 2d 69 be
       -0.22034459 -0.15906304 -0.23052405 -0.22771095
000130 e0 d4 05 3e a1 85 57 3e 23 4f 6d 3e 40 66 03 3e
       0.13069487 0.21047069 0.2317472 0.12831974
000140 3f 27 6f be b0 2d 56 3e cc a1 fb 3d 4a 64 a4 3d
       -0.23354815 0.20915866 0.1228672 0.08026941
000150 0b 1d 36 3e 94 8f d0 3d f8 90 c7 3d 10 e8 6d 3d
       0.17784517 0.10183635 0.097444475 0.05808264
000160 ce 91 e7 3d a5 02 08 be e8 1b 64 3d cc c1 29 be
       0.11307107 -0.13282259 0.055690676 -0.16577834
000170 d0 76 64 3e 6e 10 01 be 4d 03 66 3e ef d4 a0 bb
       0.22310948 -0.12603924 0.22462197 -0.004908196
000180 e8 97 b5 bd 42 c0 82 3e 47 ca 4f 3e 74 81 ed 3a
       -0.088668644 0.25537306 0.20292006 0.0018120245
000190 f2 f1 13 be 75 4c 88 be 81 31 b2 3d f6 64 2f 3e
       -0.14447764 -0.26620832 0.08700848 0.17128357
0001a0 5e 78 03 3e b2 25 8b 3d da bb 86 bd 49 b1 2b be
       0.12838885 0.06794299 -0.065787986 -0.16766848
0001b0 11 73 e4 3d 4d 4e 0e be 1e dc f6 3d af fb 01 be
       0.1115476 -0.13897057 0.12053703 -0.12693666
0001c0 e2 c2 59 be 64 33 ba 3d 73 7f a3 3e 1b 84 02 be
       -0.21265748 0.09091833 0.31933174 -0.12745707
0001d0 1d d8 02 3e 5e 1f b7 3c d3 2a 50 3c 39 24 b9 3c
       0.12777753 0.022353824 0.012705523 0.02260028
0001e0 99 51 90 be 6f 6e 13 be f1 b1 ad bd f1 da 21 be
       -0.28187254 -0.14397596 -0.08481205 -0.15806176
0001f0 27 02 f4 bd ba 37 a7 bc 3e f6 2f be 54 c1 09 3d
       -0.11914473 -0.020412315 -0.17183778 0.033631638
000200 eb a0 44 3e 3f 36 61 3e 43 f8 fd bd 0d 10 61 3e
       0.1920201 0.2199335 -0.12400868 0.21978779
000210 e6 9c 2f be 1e a1 ca 3d c9 95 da bd d8 57 21 be
       -0.17149696 0.09894012 -0.106731005 -0.15756166
000220 d3 a2 13 bd 22 cc 22 3e 33 81 33 bd 79 b2 49 be
       -0.036043953 0.15898183 -0.043824386 -0.19696988
000230 a6 45 3d 3e 3c 97 8c bc c7 18 0a 3e bc fc 80 3e
       0.184836 -0.017161958 0.13486014 0.2519282
000240 5e 48 d1 39 10 ff 01 be 86 5f 1f 3c e7 05 75 be
       0.00039917504 -0.12694955 0.009727364 -0.23928033
000250 78 84 2e be 13 ad ce 3c fc cc e9 bd 4d 59 28 bd
       -0.1704272 0.025229013 -0.11416051 -0.04110079
000260 1b ed 19 3d 86 0a 38 be 2f 14 5c 3e 68 65 c4 bd
       0.037579637 -0.17972764 0.21492074 -0.09589654
000270 11 95 c7 bd 71 92 54 3d 77 0d 09 3e ed c1 3d be
       -0.09745229 0.05189747 0.13384043 -0.18531008
000280 d4 f7 52 3e d7 f4 e7 bc 1b 05 b7 bd 9b 10 4f 3c
       0.20602351 -0.02831499 -0.08936521 0.012638236
000290 da 70 9a bd 84 43 ff 3c 13 5f 06 be 17 ca 82 3e
       -0.07541056 0.031160124 -0.13122205 0.25544807
0002a0 8e 73 1c 3d 76 d7 6e bc 02 06 4b be 6b e9 32 be
       0.03819614 -0.014577737 -0.1982651 -0.17471854
0002b0 7f ca 0f 3d cb c5 97 bd 7b 77 b3 3d 74 00 39 3e
       0.035105225 -0.07410773 0.087630235 0.18066579
0002c0 a6 62 52 3d b7 3f cc 3d 70 80 84 bd d1 88 0f bd
       0.05136361 0.0997309 -0.0646981 -0.035042588
0002d0 58 6f e1 bd 5d 27 4c 3e 06 b0 64 3e 68 27 66 be
       -0.11007565 0.19936891 0.22332773 -0.2247597
0002e0 2e cb eb 3d 9a de 08 be aa 43 14 3d e8 42 c9 bd
       0.11513363 -0.13366166 0.036197342 -0.098272145
0002f0 33 62 6b bd 2d 73 2e 3e 13 1a 18 3e e3 dc 88 3c
       -0.057466697 0.17036124 0.14853697 0.01670689
000300 e3 75 31 be 01 44 a5 3d 5e 65 e4 3d 08 70 d8 bd
       -0.17330126 0.08069611 0.11152147 -0.10568243
000310 7f ce 54 3e 2f 29 3d 3e 99 53 cf bd 8c ca 24 3d
       0.20781897 0.18472742 -0.10123367 0.040232226
000320 95 b3 97 bd 25 6b 96 3d 8e 49 47 bd 2f de ff 3d
       -0.074072994 0.07344655 -0.04865413 0.1249355
000330 0f 8a 3c 3e 40 a4 8a 3c 39 30 56 bd c0 68 5e 3d
       0.1841204 0.016924024 -0.052292082 0.054299116
000340 76 8f a1 bc 56 a9 90 be a4 dd e4 b8 f7 73 04 3d
       -0.019721728 -0.28254193 -0.00010913171 0.032337155
000350 99 d6 bf bd 62 33 5c 3e 9f 34 e9 bd 54 bb b4 3e
       -0.09367103 0.21503976 -0.1138699 0.3529917
000360 2c be 4c bd 54 35 c3 bd 9c f2 8a bd d8 e0 33 3e
       -0.04998605 -0.09531656 -0.06784555 0.1756624
000370 b6 0d a8 3c 27 ee 0f 3e 90 72 a3 3d 63 ee 6f 3c
       0.02051435 0.14055692 0.079808354 0.014644238
000380 ba ef 96 3d 96 a8 54 be 1c 5b 6e be 24 8a c6 bd
       0.07369943 -0.20767435 -0.23276943 -0.09694317
000390 1b 8c 67 be b8 2b 15 3e c6 41 d2 3d f4 ec f5 ba
       -0.2261204 0.14567459 0.102664515 -0.0018762634
0003a0 94 b1 60 be 5c 4e a0 bd 1f aa bf bd 35 21 32 be
       -0.2194274 -0.07827446 -0.0935862 -0.1739548
0003b0 d4 02 38 3e 3f 12 ab 3d db 99 80 3c a0 dc ba bd
       0.17969829 0.083530895 0.015698364 -0.09124112
0003c0 42 29 87 bc 4e be 61 be 60 e9 2a 3e 62 ac 4e 3e
       -0.016499165 -0.22045252 0.16690588 0.20182946
0003d0 37 02 40 bd e0 59 3f bc 66 9f 83 3d ce 6a 28 be
       -0.046877112 -0.011679143 0.06426887 -0.16446993
0003e0 c7 2d d1 bb ed 2a 5c 3e 3e b7 84 3d f9 37 41 3b
       -0.006383631 0.2150075 0.06480263 0.0029482825
0003f0 2d ac c4 bc 3d 9d 3f 3d b5 be ee bc 62 c1 fd 3c
       -0.024007881 0.046780813 -0.02914367 0.030976001

lstm1_1.bias_ih_l0 f4 [64]
000000 61 62 40 bc 37 49 1d be 3a 6b 59 3e f4 bd 66 3d
       -0.011742205 -0.1535996 0.2123231 0.056333497
000010 24 87 08 3e 2a ba 4c be 9c bd 01 be cb b3 10 3e
       0.13332802 -0.19992891 -0.12669986 0.14131086
000020 73 4f 7e bd 41 7a 27 be 28 03 26 be 58 fd 06 be
       -0.062087487 -0.1635523 -0.16212142 -0.1318258
000030 b7 75 a6 bd fe d9 cc 3d be 51 2a be 63 c9 36 bd
       -0.08127921 0.10002516 -0.16632745 -0.04462565
000040 f9 12 36 3e 6b aa 0d be a7 ab 59 3e 90 48 eb 3c
       0.17780675 -0.1383454 0.21256886 0.028721124
000050 6e 33 d0 3d c3 03 8a 3d 88 c3 30 3d 15 7f 4b bd
       0.101660594 0.06738999 0.043155223 -0.04968174
000060 7e fc 14 be 35 11 cb 3d 79 2c 63 3d 14 e9 26 3e
       -0.14549443 0.09915391 0.055462334 0.1629985
000070 74 26 64 be 92 ec e2 bd 3f 35 d6 bd 5c 11 cd bd
       -0.22280294 -0.110802785 -0.10459375 -0.10013077
000080 0e e9 78 3e f5 76 15 be cf 3e 40 3e a5 92 c8 bc
       0.24307653 -0.1459616 0.1877396 -0.024483988
000090 b8 86 c8 3d ba 46 93 3d a0 7d 46 3e ee 70 9c 3d
       0.097913206 0.071912244 0.1938386 0.07638727
0000a0 73 3e 55 be 73 b4 75 bd 44 06 22 3e 43 8c 3d 3e
       -0.20824604 -0.059986543 0.15822703 0.18510537
0000b0 92 ec 84 be cf ef 70 be 9f e7 5d 3e b4 d6 6d 3e
       -0.2596174 -0.2352898 0.21670388 0.23226434
0000c0 f2 f9 2f be 72 ad 52 3e f1 f8 7e 3e aa a1 9e 3a
       -0.1718519 0.20573977 0.24899651 0.0012102623
0000d0 b7 6c 70 be ce 91 25 bd 01 29 df 3d 3f e5 48 bd
       -0.23478971 -0.040422253 0.10896493 -0.04904675
0000e0 6e f2 27 be 87 c9 fe 3c be cd 30 3d 96 ed 80 3c
       -0.16401073 0.031101955 0.04316496 0.01573829
0000f0 a2 f9 c6 3d f2 b9 09 bd 82 b5 d4 bc 8d 3e 29 3a
       0.097155824 -0.033624597 -0.025965456 0.0006456159

lstm1_1.bias_hh_l0 f4 [64]
000000 50 1f 2e be f6 f1 75 bd de 8b 3d be 0c 5d 05 be
       -0.17004132 -0.060045205 -0.18510386 -0.13023776
000010 16 6e 44 3e b7 38 40 3d f3 36 48 be 42 f6 9e bd
       0.1918262 0.046929087 -0.19552211 -0.07761814
000020 99 9a 07 be 07 42 53 3e 29 e3 cf 3d f3 cc 24 3d
       -0.13242568 0.20630656 0.10150749 0.040234517
000030 f1 f0 f7 3d fa ed c0 bd 18 32 31 be bb 4f 81 be
       0.12106503 -0.094203904 -0.17304265 -0.25256142
000040 d5 aa 5d 3d 75 8d d5 3c 5c 7e 43 bd 9a cb ee ba
       0.054117996 0.026068429 -0.047727928 -0.0018218637
000050 23 2a 68 bd 65 02 aa bd 4f 8e 70 be 26 9a 08 3d
       -0.05668081 -0.08301238 -0.23491786 0.033350132
000060 60 b5 55 bc 41 45 66 be ce 11 96 bd d8 91 8f 3d
       -0.013043731 -0.22487356 -0.07327615 0.07010239
000070 ca b2 6e 3e 8b 8f c1 3d 73 4b 3d 3d 4e 5c 21 3d
       0.2331039 0.09451207 0.046214532 0.03939467
000080 55 18 08 3e 81 16 57 3d 2b 8f 05 3e be ce 46 3e
       0.13290532 0.052511696 0.13042895 0.19414803
000090 fa 7d 5b 3d 2e e8 94 3d be e1 6f be 49 ae 74 be
       0.053586937 0.07270847 -0.23425958 -0.2389461
0000a0 8d 9d 72 be 6a 84 35 3e 18 49 f9 3d 57 a1 ee bd
       -0.23692913 0.17726293 0.12172145 -0.11651867
0000b0 ca 9e 4d be 6b 35 13 3e 14 9d c0 bd f8 72 6d 3e
       -0.20080104 0.14375846 -0.0940496 0.23188388
0000c0 04 22 4d be 24 8d 60 be 32 21 e2 3d 46 54 34 3e
       -0.20032507 -0.21928841 0.11041488 0.17610273
0000d0 f9 58 fd bd b6 77 d7 bd eb 90 d2 bd 5d 62 01 be
       -0.12370486 -0.1052088 -0.10281547 -0.12635179
0000e0 36 fc 4e 3e 46 3c b6 bc 39 9d f5 bd 2a 5e 36 3e
       0.20213398 -0.022245537 -0.119928785 0.17809358
0000f0 2d f6 61 be 8e ed 50 bd 1a d2 1b be 07 23 5b be
       -0.22066565 -0.0510078 -0.15216866 -0.2140008

lstm1_1.weight_ih_l0_reverse f4 [64, 32]
000000 b6 13 1c 3e ac 10 d3 3d 45 8d a7 3e d4 78 94 3d
       0.15241894 0.10305914 0.32724968 0.07249609
000010 e8 99 6a be 70 46 b0 bd 9a 2d 03 3e c2 75 06 be
       -0.22910273 -0.08607185 0.12810364 -0.13130859
000020 32 6b 83 3e 2f b0 52 bd c3 89 bb bd 25 1c 7b 3e
       0.2566772 -0.051437553 -0.09157135 0.24522455
000030 89 69 79 3d 80 88 08 bc 05 6b 9e 3d 9b 13 4c 3e
       0.06089166 -0.008333325 0.07735256 0.19929354
000040 de c3 2d be 30 29 9d bc 9a 79 86 bd 1b 9e 91 3e
       -0.16969249 -0.019184679 -0.065661624 0.28440937
000050 fc 33 a4 3e 5c d1 60 be ea d0 12 be 03 28 f6 bd
       0.3207091 -0.21954864 -0.14337507 -0.120193504
000060 ef 61 5d 3e 10 ef da 3d 50 1a 40 3e 5e 68 1a be
       0.2161939 0.10690129 0.18760037 -0.15078875
000070 49 f6 2e 3e 67 75 08 3d c4 30 0b bd d6 33 8f 3e
       0.17086138 0.03331509 -0.033982053 0.27969235
000080 3a b8 12 3d 68 c7 e1 3d 94 a3 4a bc 30 47 ef bc
       0.035820223 0.11024362 -0.012368102 -0.02920875
000090 b0 b7 ae 3d e2 53 6c 3e b0 f6 1d be 48 23 dc bd
       0.08531129 0.23078874 -0.15426135 -0.10748917
0000a0 a5 ad 9a 3b b7 b3 52 bd 70 4e 22 3e 7c 0f c8 bd
       0.004720407 -0.05144092 0.15850234 -0.097685784
0000b0 64 f5 5d 3e 00 16 c1 3a c6 4f b5 3d da 16 c6 3d
       0.2167564 0.0014731288 0.08853106 0.09672327
0000c0 80 fa 16 3e d0 6f 8d bc 7d e1 63 3e 9a aa 4e 3e
       0.14743996 -0.01726523 0.22253986 0.20182267
0000d0 c1 69 32 3e f6 c6 8f 3e 84 ae b8 bd 4a d9 81 3e
       0.17423154 0.28081483 -0.09017661 0.2536109
0000e0 5b 59 2b 3d ae aa ee bd 08 6d 22 be ee 26 30 be
       0.041833263 -0.11653648 -0.15861905 -0.1720235
0000f0 e2 79 b0 bd 1a ce 04 bd 23 75 46 be e7 71 8d bd
       -0.08616997 -0.032423116 -0.19380622 -0.06906491
000100 07 31 93 bd 40 8c 2d bd 95 5d 40 3e 88 6d 34 3d
       -0.071870856 -0.04237008 0.18785699 0.04404977
000110 80 d5 66 3b 00 fe 72 bb 10 5f 67 3e 77 50 be 3c
       0.003522247 -0.0037077665 0.22594857 0.023231728
000120 39 33 22 3d 52 d3 29 bd 2c 17 6e be 9a 98 1c 3e
       0.03959963 -0.041461296 -0.23251027 0.15292588
000130 53 fb 13 be 08 41 86 3d 5e 78 0b 3e 7a b4 11 be
       -0.14451341 0.065553725 0.13620135 -0.14229003
000140 54 33 0f be 18 f0 12 3e f8 bf 79 bc c0 a5 31 bd
       -0.13984424 0.14349401 -0.015243523 -0.043370962
000150 ad ae aa bd a9 71 23 3d 2b 24 11 be da 0b b1 be
       -0.08334098 0.039903317 -0.14173953 -0.34579355
000160 ab e9 c0 bd ac 1a 8f 3e fe 13 d9 3d cd 6b 2e bd
       -0.09419569 0.27950037 0.10599516 -0.042583276
000170 92 c3 04 be 4b 4c 33 be ab 66 76 3d c1 06 89 3e
       -0.12965229 -0.17509572 0.060156506 0.26762965
000180 be fc 89 3e bc 3d 0a 3e 73 61 68 3c e0 24 76 3e
       0.2695064 0.13500112 0.01418339 0.24037504
000190 82 12 0f 3e ca 0e 38 3e ac 98 1c 3e 81 a7 41 3e
       0.13971904 0.17974392 0.15292615 0.18911554
0001a0 73 5d 80 3e 85 88 09 3e 76 30 84 bd 7b ce 15 3d
       0.25071296 0.13430984 -0.06454556 0.03657387
0001b0 11 8a 13 bd 20 e5 5b 3d 5b 77 15 bd f8 69 75 3e
       -0.036020342 0.053685308 -0.03649078 0.23966205
0001c0 80 9f 2e bb b0 fa 8e bd 8e 63 98 3e f9 ca 15 be
       -0.0026645362 -0.069814086 0.29763454 -0.14628209
0001d0 b2 e9 e8 bd 92 20 1c 3f b5 63 20 be 8d 23 62 3e
       -0.11372699 0.609872 -0.15663035 0.22083874
0001e0 f9 41 0f be 2c 08 61 3e af cf 1d 3e fc 56 38 3e
       -0.1399001 0.21975774 0.15411256 0.18001932
0001f0 40 c4 17 3e f9 0b 80 3e 95 e3 28 3d 13 55 70 3e
       0.14820957 0.25009134 0.041232664 0.23469953
000200 b5 a2 0f be c8 f2 5e 3e 0c 47 34 bd ac 68 88 bd
       -0.14026912 0.21772301 -0.044013068 -0.066605896
000210 60 f4 46 3e e8 dc 6b 3d 8d e2 92 3e 15 17 8d 3d
       0.19429159 0.05758372 0.2868847 0.06889168
000220 54 68 6c 3e 16 5e e1 bd d0 16 86 be 0d 53 5b be
       0.23086673 -0.110042736 -0.2618928 -0.214184
000230 82 0a c7 bd ae f3 2e be 83 38 16 be 1f 25 37 3e
       -0.09718801 -0.17085144 -0.14669995 0.17885254
000240 04 a9 da 3d 4e 4d 4f 3e 7e 31 47 3e cd 5d b8 3c
       0.106767684 0.20244333 0.19452474 0.022505665
000250 6e 5b 3b be 7e d6 82 bb ae 44 5f bd 58 3c 8b be
       -0.18296596 -0.0039928546 -0.054508857 -0.27194476
000260 94 79 85 be ca 9f e7 3d 9d a4 65 3d 08 49 28 3d
       -0.2606932 0.11309774 0.05606519 0.041085273
000270 e7 cc a3 3d 92 51 dc 3c d5 73 e3 3d 53 2c 1b 3e
       0.079980664 0.026894365 0.111060776 0.15153627
000280 91 db f8 bb 50 41 a9 bd 6b 8b b1 3e 78 e6 7a 3e
       -0.0075945337 -0.082644105 0.3467668 0.2450198
000290 8e 2d 34 3e e0 fc cb 3c c4 4e 77 3e f6 f9 70 bd
       0.17595503 0.024900854 0.2415114 -0.05883213
0002a0 ef 6e a2 3e 30 d0 41 3d 69 72 93 3d 69 55 b8 3c
       0.3172526 0.047317684 0.071995564 0.022501664
0002b0 ab 63 5a 3e 50 a6 43 3e bf f2 05 3d 90 f1 df 3d
       0.21327083 0.19106412 0.032702204 0.10934746
0002c0 b6 43 4c be 70 89 fb bc fa 55 06 bd 39 6a 87 3e
       -0.19947705 -0.030705184 -0.032796837 0.2644823
0002d0 ae a4 ac 3d f7 d2 0b 3e e1 49 7a 3e 1b c6 e2 3d
       0.08429848 0.13654695 0.24442245 0.11072942
0002e0 50 68 e1 3c 50 68 e9 bb 95 4e f9 bd c4 07 72 3e
       0.02751556 -0.0071230307 -0.121731915 0.23635775
0002f0 bc e7 87 3e c1 ed 23 3e 5b 10 56 3e c3 41 85 3e
       0.26543987 0.16008665 0.20904677 0.26026735
000300 f7 b5 81 3d c0 1a 65 be d1 1b 06 3d 56 6e 09 be
       0.06333535 -0.22373486 0.03274137 -0.13420996
000310 8a cf 29 3e 60 af 57 bc c8 f8 1b be bf 1c cc 3d
       0.16583076 -0.013164371 -0.15231621 0.099664204
000320 1b c1 36 be fe 29 19 3e ef 55 1c 3e 9e da 52 3e
       -0.17847101 0.14957425 0.15267156 0.20591208
000330 4c 73 61 be 20 74 1e 3e 30 19 fe 3d b2 7b 5c bd
       -0.22016639 0.15473986 0.12407148 -0.053828903
000340 32 5f 09 be e6 03 1d be 22 e9 8f bb cb 72 80 3c
       -0.1341522 -0.15333518 -0.0043918053 0.015679738
000350 7b b2 06 3e 66 34 21 be 9b ad c6 bd 99 0e e8 bd
       0.13154022 -0.15742645 -0.09701081 -0.11330909
000360 09 03 3f 3e 53 7b 2c be e2 16 4d 3e a1 82 65 bd
       0.18653502 -0.1684392 0.2002826 -0.05603278
000370 5d 05 37 be 81 82 a3 3d 3f d9 e3 3d b3 cd f9 bd
       -0.1787314 0.07983876 0.11125421 -0.12197437
000380 14 c5 09 be e8 ea d8 3d 66 91 94 3d a0 71 b2 3d
       -0.13454086 0.1059168 0.07254295 0.087130785
000390 38 f2 8a bd bc e0 d1 bd 3e 67 62 be bd eb 0f be
       -0.06784481 -0.10247943 -0.22109696 -0.14054771
0003a0 0e 3b 3a be 9c 7f 64 3d 9e a7 44 bd 87 f4 93 3d
       -0.1818659 0.05578576 -0.048011415 0.07224374
0003b0 3d 30 8c 3d e4 99 4a be 98 ef c3 3d 4c 57 35 bc
       0.06845138 -0.19785267 0.09567183 -0.0110681765
0003c0 88 af 2a 3e 38 89 f3 3d 48 ad 13 be bc c9 2b be
       0.16668522 0.11891407 -0.1442157 -0.16776174
0003d0 be af c4 3d 36 80 1b 3d 8b 1c c3 3b 6d b1 49 bd
       0.09603833 0.03796407 0.0059543303 -0.049241472
0003e0 1b 8d 95 bd ed c1 c2 3d 35 50 a2 bc 14 19 2f 3e
       -0.07302304 0.09509645 -0.019813636 0.1709941
0003f0 7e 40 b0 3d 87 91 56 be 6a 8e 2f 3e 78 75 c7 3b
       0.08606051 -0.20953952 0.1714417 0.0060870014

lstm1_1.weight_hh_l0_reverse f4 [64, 16]
000000 e6 43 fa bd db 95 01 be b2 e3 91 bd 5b 24 a5 bb
       -0.12219982 -0.12654822 -0.071235076 -0.0050397343
000010 03 fb 14 bc 8d 4c 01 be fd 22 9f 3d 02 38 7a 3d
       -0.009093049 -0.12626858 0.07770345 0.06108857
000020 df 0c 1f 3d 17 18 5b be 61 a9 45 be c5 2d e2 be
       0.038830634 -0.21395908 -0.19302894 -0.44175544
000030 39 90 02 3e 20 21 0a be f2 21 dd 3d be 9a a1 bd
       0.12750329 -0.13489199 0.1079749 -0.07890843
000040 dc 53 3e bd 69 52 0a 3e dd e7 02 3d 3a 83 51 bd
       -0.046466693 0.13508 0.031959403 -0.051150538
000050 e7 d4 a3 bd 45 98 72 be 50 84 cc 3c 10 b3 66 be
       -0.07999592 -0.23690899 0.024965435 -0.22529244
000060 07 f7 86 bd 71 c0 69 3e 9a 68 49 3e 04 db 24 3e
       -0.065900855 0.22827317 0.19668809 0.16099173
000070 f2 d7 f2 bd eb e7 b9 3d 9c 5a 5a be ac e4 bc 3c
       -0.118575945 0.09077438 -0.21323627 0.023058258
000080 96 06 95 3e 9a 75 65 bd ea 1d ad 3d eb 7d aa 3d
       0.29106587 -0.056020357 0.08452971 0.08324798
000090 c0 f5 8e be 25 c9 3d be e5 5d 6f 3e 7d f9 8d be
       -0.27921867 -0.18533762 0.23375662 -0.27729407
0000a0 31 1a fb 3b 3a 08 eb bd 11 12 2d 3e 98 81 c1 bd
       0.0076630344 -0.114761785 0.16901423 -0.09448546
0000b0 f0 7f 42 3e c8 ff 5f 3e 6a ff 05 be 7c 2a 0e 3e
       0.18994117 0.21874917 -0.13085714 0.13883394
0000c0 40 c5 03 be d5 c1 7c bc 8f 1d 0b 3e 48 33 d6 3d
       -0.12868214 -0.0154270725 0.13585494 0.10459
0000d0 db f9 f3 3c 48 74 c3 3c 0b 94 e3 bd a4 d4 fe 3c
       0.029782226 0.023859158 -0.11112221 0.031107254
0000e0 d4 ce 82 3e 02 b1 8b be c9 5a 14 3c 23 a5 ae 3e
       0.25548422 -0.27283484 0.009054848 0.34110364
0000f0 e9 36 2d 3e e7 01 d7 3c 37 a5 98 be 3d b2 0e 3e
       0.16915478 0.026246024 -0.2981355 0.1393518
000100 de a7 24 be 24 6a 87 3c 3c 66 39 bd d0 ee dc 3b
       -0.16079661 0.016530104 -0.045263514 0.006742336
000110 ef e1 5d 3d c3 6b 34 be 7a 89 14 be 5e 81 53 bd
       0.054170545 -0.17619233 -0.14505568 -0.051637046
000120 ca 12 1b 3e 48 c5 38 bd c0 7c fe bb 6e 5e 27 be
       0.15143886 -0.045110017 -0.007766336 -0.16344616
000130 dc f8 31 3e 79 bb c1 bd c1 bc 0c 3e 75 d9 85 3e
       0.17380089 -0.09459586 0.13743879 0.2614247
000140 ad 9d 49 be ec 8d 81 be 08 c4 f6 bd c9 c0 a0 3d
       -0.19689055 -0.2530359 -0.12049109 0.07849271
000150 0f 68 1d 3e 5f 98 0e 3e 9d a0 bc 3c 98 d8 0e 3e
       0.15371726 0.13925312 0.023025805 0.13949811
000160 1b 36 21 be 69 de 09 be 60 f4 68 3e b1 71 81 3e
       -0.15743296 -0.13463749 0.22749472 0.25282052
000170 4c 3d 85 3e fb d6 4a 3d f9 6e bf 3e 1e 75 7c be
       0.26023328 0.049521428 0.37389353 -0.24654052
000180 80 36 bb b9 18 c9 53 be 0f 1d 3c be 0b 48 5f be
       -0.00035708025 -0.2068218 -0.1837046 -0.21804826
000190 47 c5 2d 3e e0 21 7c 3d 37 74 17 3e 97 f4 49 3e
       0.16969787 0.061555743 0.14790426 0.1972221
0001a0 98 b2 f2 3b aa b8 7e 3e b2 d1 08 3e ee 61 81 bc
       0.007406544 0.24875131 0.13361242 -0.015793767
0001b0 dc 0c 30 be ad b0 4b 3e f3 88 1f 3e 47 08 a0 bd
       -0.17192405 0.19891615 0.15579586 -0.07814079
0001c0 74 03 77 bc fd db 43 3e 91 32 5f be cf e8 11 be
       -0.015076507 0.19126888 -0.21796633 -0.14248966
0001d0 ad 88 26 3e c2 2d 21 3e 50 5f f2 3c 4e 9e c8 3c
       0.16263075 0.15740111 0.029586464 0.024489548
0001e0 1a 07 a2 be 38 b8 ac bc 44 ce 0a 3c d7 9b 58 be
       -0.31646043 -0.021083936 0.008472029 -0.21153198
0001f0 69 82 97 3d d6 90 c2 3d 45 05 da 3d c9 53 41 3e
       0.07397921 0.095002815 0.10645536 0.18879618
000200 7b 51 35 be 8e 5e f6 3d 97 24 4b 3d 5c b2 90 be
       -0.17706864 0.120297536 0.04959544 -0.28261077
000210 02 18 8a 3e ae 9b d5 3b fb fe d7 bd bc 9d 13 be
       0.26971442 0.0065188026 -0.105466805 -0.1441564
000220 67 c6 d2 be 74 48 15 3e d5 b0 8a be ae 61 00 be
       -0.41166994 0.1457842 -0.27088037 -0.12537262
000230 b0 f1 02 bc e5 5f 13 3e 76 2b 39 be 32 1c b4 3e
       -0.007992193 0.1439205 -0.18082985 0.3517776
000240 88 20 22 3e 30 b9 a0 bd 38 8c 50 3e 22 44 78 be
       0.15832722 -0.07847822 0.20365989 -0.2424474
000250 1f 77 08 3e 7b c0 6d 3e a1 11 39 3d 84 60 93 3e
       0.13326691 0.23217957 0.045182828 0.28784573
000260 16 df 14 be 3d 39 10 be d1 32 2c 3d 13 05 04 be
       -0.14538226 -0.14084335 0.04204065 -0.1289256
000270 6e 1e 47 3e 81 9b 60 bd fc 6c 07 be 8c b4 e3 3d
       0.19445202 -0.0548358 -0.13225168 0.11118421
000280 51 dd 79 3e 8c 88 00 3d 1e b1 07 3e 79 ab a1 3d
       0.24400832 0.03138022 0.13251159 0.07894034
000290 65 ab 44 bd 6a c5 e4 3d 06 8f 1d 3e 73 58 d1 bc
       -0.048015017 0.11170466 0.1538659 -0.025554871
0002a0 38 ec e1 ba 07 f4 23 bd 77 b2 38 be 15 e7 29 3e
       -0.0017236536 -0.040027644 -0.18036829 0.16592057
0002b0 b4 ad bd bd 45 b0 0f 3e 64 35 c3 3d d6 16 16 3e
       -0.09261647 0.14032085 0.09531668 0.14657149
0002c0 1c a8 63 3e e5 4a 09 3d 0e c9 95 3c d4 fb f4 bd
       0.22232097 0.03351869 0.018284347 -0.11962095
0002d0 2e e8 fc 3d 13 dd cf bd 45 fc 26 bd eb 68 90 bc
       0.12348972 -0.101495884 -0.040767927 -0.017628154
0002e0 b0 a1 91 be 0e b5 b5 3d ad cd 9d 3c d1 33 84 be
       -0.2844367 0.08872424 0.019263113 -0.25820783
0002f0 19 89 62 3e 77 6f 25 be 7b ec 88 be 68 0c 75 3e
       0.22122611 -0.16155802 -0.2674292 0.23930514
000300 b1 57 2e 3e 80 fe 64 be af 76 7d bd cf 03 c7 bd
       0.17025639 -0.22362709 -0.061880764 -0.09717523
000310 2f a6 84 be f0 63 2b be 1c 9a 82 3e 95 48 7c be
       -0.25908038 -0.16737342 0.255082 -0.24637063
000320 46 58 3d be 7f 1a 16 3e fc 7c 48 3e e2 ef 8c 3c
       -0.18490705 0.14658545 0.19578928 0.017204229
000330 4c c8 1b bc ae 90 5d 3e 5a 9b b6 3d af a2 28 be
       -0.009508204 0.21637222 0.0891635 -0.16468309
000340 71 c6 fc bd 5c 1f 0e 3e 5f 5b c7 3d 69 6a 86 bd
       -0.12342537 0.1387915 0.097342245 -0.06563265
000350 97 96 3f be c4 79 ca 3d 35 a7 1e 3d b0 cc cf bd
       -0.18709789 0.09886506 0.03873368 -0.10146463
000360 fb be 89 be 51 52 a7 bd f7 ab 4c be 8c bf 72 be
       -0.2690352 -0.081699975 -0.19987474 -0.23705882
000370 76 5d c4 bd 8d 9c ca 3d e4 55 05 be 28 6d 17 be
       -0.09588139 0.09893141 -0.13021046 -0.14787734
000380 ae fa 23 3e 8e 68 65 be d3 8f e6 3d a9 ce 27 be
       0.16013595 -0.22403166 0.11257901 -0.16387428
000390 77 88 3b be 33 c3 1e be eb d6 57 3e 2a b9 74 be
       -0.18313776 -0.1550415 0.21078078 -0.2389876
0003a0 36 d5 98 3d 03 35 bc 3c 2c d5 37 bd f3 aa fd bd
       0.07462542 0.022974497 -0.04488103 -0.123861216
0003b0 d3 35 10 bc ee b8 14 be 77 df 36 3d 2c 75 03 be
       -0.008801895 -0.1452367 0.044646706 -0.12837666
0003c0 12 a0 ea 3d 84 6d f8 3d ac 1e 04 be 6b 06 90 3d
       0.11456312 0.121302634 -0.12902325 0.07032474
0003d0 ee 10 4e 3e dc 40 7a be 73 65 0f be 1e dc 11 be
       0.20123646 -0.24438804 -0.14003544 -0.14244124
0003e0 a3 d5 6b be 3f a1 b6 bd da ac ad be 0b d7 bb bd
       -0.23030715 -0.08917474 -0.33920938 -0.091718756
0003f0 44 0b 46 be f1 3f 74 3e c4 9d af bd 37 33 36 3d
       -0.19340235 0.23852517 -0.08575013 0.044482436

lstm1_1.bias_ih_l0_reverse f4 [64]
000000 e4 1b 12 3e b5 e8 fe 3d 66 d8 ad bd fd 0d 73 bd
       0.14268452 0.12446729 -0.0848854 -0.059339512
000010 cf 32 e6 3d 43 c4 d6 3d fa f0 f7 bd 3c 85 34 bb
       0.1124016 0.10486653 -0.121065095 -0.0027545234
000020 10 ff 9c 3e 6b 53 3e bd de 98 bd 3d bc 54 d8 3d
       0.30663347 -0.046466272 0.09257673 0.10563037
000030 4c fb b9 bd cf 6d 4e 3e 71 7a 21 be b2 1f 57 3e
       -0.09081134 0.20159076 -0.15769364 0.21008185
000040 2a 6b 05 be c2 ee 23 3d 5d ec 24 be c9 63 80 3e
       -0.13029161 0.04002262 -0.1610579 0.2507613
000050 72 e4 2c bd cf 24 92 3e 0a 03 d8 3c 1b 2b 6c be
       -0.04221005 0.28543708 0.026368637 -0.23063318
000060 13 5e c4 3e 73 d9 51 be 4c a1 9f bd 28 f2 19 3e
       0.38353023 -0.20493107 -0.07794437 0.15033782
000070 43 e4 cd 3d 04 54 3b 3e 7a 95 a7 3d 8c 61 e5 3d
       0.10053303 0.18293768 0.08182807 0.11200246
000080 87 5b 50 be 1b 0b 9f bd 0a fe e9 3d 4b f4 68 bc
       -0.20347415 -0.0776579 0.11425407 -0.0142184
000090 9c 08 62 be 68 49 d1 bc 5e 79 32 be 12 6b 8c bc
       -0.22073597 -0.025547698 -0.1742911 -0.017140899
0000a0 9c e5 4f be 03 6f 60 3c 0d a6 ff bd 7a 9b 91 3d
       -0.20302433 0.013698342 -0.124828435 0.07109733
0000b0 9f 19 35 be 05 89 12 be 18 14 b7 bd 70 b0 42 be
       -0.17685555 -0.14310081 -0.089393795 -0.19012618
0000c0 17 f5 fc 3d 60 fa 47 3e a6 86 31 3e 13 21 4d 3c
       0.12351435 0.19529104 0.1733652 0.012520093
0000d0 c6 77 d8 3c 0b 92 a8 3e 05 e5 63 be a1 10 3d bd
       0.0264243 0.32923922 -0.22255333 -0.046158437
0000e0 cb 8a 89 bd 14 51 0a bc dc 7d 78 3e 36 77 bb 3e
       -0.06715926 -0.008442182 0.24266762 0.36614388
0000f0 11 fa 20 be 1f 17 75 3d 0f c0 e0 bb a5 70 c7 bd
       -0.15720393 0.059836503 -0.0068588327 -0.09738282

lstm1_1.bias_hh_l0_reverse f4 [64]
000000 75 96 b3 bd 61 01 0e 3e 26 68 3b 3e 38 21 94 3d
       -0.08768932 0.13867714 0.18301448 0.072328985
000010 5d 43 ba bd 0c 0b 4d bd 88 c0 6f 3e b0 4d ba bc
       -0.0909488 -0.050059363 0.23413289 -0.022742122
000020 fc 37 2a 3e d1 c1 f1 bd a1 c2 b0 bd a4 bb 00 3e
       0.16622919 -0.11804546 -0.086308725 0.12571579
000030 9a dc 72 be 6f 07 50 be bd 03 2d be 70 99 57 3e
       -0.23716965 -0.20315336 -0.16895957 0.21054626
000040 55 b7 8f 3e 34 b2 17 3e 60 eb 12 3d 66 65 dd 3c
       0.2806956 0.14814073 0.035869002 0.02702589
000050 d8 ab fb bd e4 bb b6 3d af 17 77 bc c0 bb 66 3e
       -0.12288636 0.08922556 -0.01508133 0.22532558
000060 db 03 81 3e bf 5c 16 3d 7b 35 6e 3e 2f 10 d8 3e
       0.25198254 0.036709543 0.23262589 0.42199847
000070 71 23 99 bd f8 bd 89 3d 70 f7 f7 3d 5e 1f 61 3e
       -0.07477463 0.06725687 0.12107742 0.21984622
000080 1a b7 d8 3d 41 6f 41 be 00 1b 94 3c 90 f4 35 be
       0.10581799 -0.18890096 0.01807928 -0.17769074
000090 b6 9d 3c be c7 9e cd bd ee bf 93 3d 7b 53 5c be
       -0.18419537 -0.1004005 0.07214342 -0.2151622
0000a0 40 f4 71 3e 7f d5 e5 3c 28 61 67 bd af cc 03 bd
       0.2362833 0.028055904 -0.05648914 -0.032177623
0000b0 94 ac 5c bd 66 c6 80 3e 57 c9 fd 3d 5d ad ff 3d
       -0.05387552 0.25151366 0.12391918 0.12484238
0000c0 02 d9 72 bd 62 c5 84 bd d9 3d 7b 3e b9 3f 4e bd
       -0.059288986 -0.0648296 0.24535312 -0.05035374
0000d0 4a 3f 05 bd d4 58 89 bd cf ba 47 3e 2b a2 f2 3c
       -0.03253106 -0.06706396 0.19504856 0.029618343
0000e0 8a 61 3a 3e 3c 7b 0a 3d bc 4d 82 3e 26 41 1b 3e
       0.1820127 0.03380893 0.25449932 0.15161571
0000f0 21 2b 74 3e 8a 6a f0 3c df ca 78 3e c9 b1 6c bd
       0.23844577 0.029347677 0.24296139 -0.057786737
