results/soh_individual_dataset_results/Dataset 2/pre_trained_model.pth (torch, 95584 bytes, 27 tensors)

cnn1.0.weight f4 [16, 1, 3]
0	0xbe924828	-0.28570676
1	0x3f178aba	0.59196055
2	0x3ebdbc73	0.37057838
3	0xbea2d0fc	-0.31800067
4	0x3ee14fa9	0.44006088
5	0xbee250c1	-0.44202235
6	0xbf129e99	-0.5727325
7	0xbe241d26	-0.16026744
8	0x3f0cb9ed	0.549712
9	0xbe7d52e3	-0.2473865
10	0xbeec1e19	-0.46116713
11	0x3ed5df5a	0.41771966
12	0x3dec45d0	0.11536753
13	0xbe04d817	-0.12973057
14	0xbe4c27a9	-0.19937004
15	0xbef1ac0d	-0.47201577
16	0x3efb6099	0.49097136
17	0xbe1a8036	-0.15087971
18	0xbdd73b9c	-0.105094165
19	0xbe6c72db	-0.23090689
20	0x3db2ea1e	0.087360606
21	0x3f0347e1	0.51281554
22	0x3d6a41bb	0.05719159
23	0xbeb2f8e2	-0.34955508
24	0x3df7d43d	0.12101028
25	0xbecd94b9	-0.4015253
26	0xbeee9f17	-0.4660575
27	0x3f07f846	0.5311321
28	0x3e97100b	0.29504427
29	0x3e286798	0.16445768
30	0xbef1ca80	-0.47224808
31	0xbd8f1538	-0.06986469
32	0x3d5f94ed	0.054585386
33	0xbdbf70b4	-0.09347668
34	0x3e08df55	0.13366444
35	0xbd78e96d	-0.060769487
36	0x3e7fa041	0.24963476
37	0xbeb678be	-0.35638994
38	0xbedc9ff3	-0.43090782
39	0xbe95ef3e	-0.2928409
40	0xbed189c5	-0.40925422
41	0x3ef923fa	0.4866026
42	0xbd89b283	-0.067235015
43	0x3df100a5	0.11767701
44	0xbe070ea5	-0.1318918
45	0xbe3a1ecc	-0.1817581
46	0x3ed1b18a	0.40955764
47	0x3eeeaa96	0.46614522

cnn1.0.bias f4 [16]
0	0xbe1e0982	-0.15433314
1	0x3efdb8f8	0.49555182
2	0xbdd82536	-0.105539724
3	0x3f04936f	0.51787466
4	0x3e9588a8	0.29205823
5	0xbd46f960	-0.048577666
6	0x3e6880c0	0.22705364
7	0xbeab3059	-0.33435324
8	0x3ed1d033	0.40979156
9	0xbda84387	-0.08216005
10	0x3ee5fecb	0.44920954
11	0xbe967599	-0.29386595
12	0xbdce4f07	-0.10073667
13	0x3eb13d8e	0.34617275
14	0x3ddf60b1	0.10907114
15	0xbcb01674	-0.021495081

cnn2.0.weight f4 [32, 16, 3]
0	0xbd98cef2	-0.07461347
1	0x3d99b2eb	0.07504829
2	0x3d8a7afe	0.0676174
3	0x3dc42922	0.09578158
4	0x3b7c6ff8	0.0038518887
5	0xbe02026e	-0.1269624
6	0x3bc87173	0.00611704
7	0x3c351722	0.011052879
8	0x3defec48	0.11714989
9	0x3cc45fb1	0.02397141
10	0x3d8f1d30	0.06987989
11	0x3b277b79	0.0025555773
12	0xbde2a722	-0.11067034
13	0xbd8af8d9	-0.06785745
14	0x3d773c2b	0.060360115
15	0xbd825eb5	-0.0636572
16	0xbd7d919e	-0.06190645
17	0x3e0562e8	0.13026011
18	0xbde3f7dd	-0.111312605
19	0xbd02b2ed	-0.03190892
20	0x3dcc1cac	0.09966406
21	0x3cd96df1	0.026541682
22	0xbdf693c5	-0.120399036
23	0xbd8a920b	-0.06766137
24	0xbda430fa	-0.08017154
25	0xbdc1a42d	-0.09455142
26	0xbd754936	-0.059884273
27	0x3c1cd4a6	0.009572184
28	0xbccacc58	-0.024755642
29	0xbdf9ba59	-0.12193746
30	0x3e109e5c	0.1412291
31	0xbca046ce	-0.019565012
32	0x3d4bdb52	0.049769707
33	0xbe0e8f5f	-0.13921879
34	0xbd6f434a	-0.05841378
35	0xbb64f69e	-0.0034937034
36	0xbbfda9e7	-0.007741201
37	0xbdc79bbd	-0.097465016
38	0xbd98b969	-0.07457239
39	0x3d98b55a	0.07456465
40	0x3d267667	0.04064026
41	0xbd7780a8	-0.06042543
42	0x3dfe4dbf	0.12417173
43	0xbda07a75	-0.07835857
44	0xbe056041	-0.13024999
45	0xbd9783a0	-0.07398152
46	0x3dbaf558	0.09128827
47	0x3cb945af	0.022616236
48	0x3e27b946	0.1637927
49	0x3da38b85	0.079855956
50	0x3e62e507	0.2215768
51	0xbd12ff41	-0.03588796
52	0xbe08309f	-0.13299797
53	0xbca92aa2	-0.020650212
54	0x3db7e137	0.08978503
55	0x3dfdd6b1	0.12394465
56	0xbd68417f	-0.056703087
57	0x3cd74326	0.026277136
58	0xbd5aa2f8	-0.053378075
59	0x3e05ac43	0.13053994
60	0xbe040abb	-0.12894718
61	0xbe2a8992	-0.16654041
62	0xbe7ec914	-0.24881393
63	0xbe052fab	-0.13006465
64	0xbd61fb13	-0.055171084
65	0xbd291e6a	-0.04128877
66	0x3e09a8dd	0.13443322
67	0xbe1450bf	-0.14483927
68	0x3dbaf48e	0.09128676
69	0xbe08b37f	-0.13349722
70	0x3d54475d	0.05182587
71	0xbba86597	-0.0051390636
72	0xbd25138f	-0.040301856
73	0xbd302427	-0.043003228
74	0x3c6fb726	0.014631068
75	0x3e2f447f	0.17115973
76	0x3c6cc9a6	0.014452374
77	0x3e62119c	0.2207703
78	0xbdb1a502	-0.08674051
79	0x3d3c97e5	0.046043295
80	0xbdbc51c7	-0.09195285
81	0x3d9b56b7	0.07584899
82	0xbde0e58c	-0.109812826
83	0xbdabfa83	-0.08397391
84	0xbd200ec4	-0.03907658
85	0x3d00657d	0.031346787
86	0xbcf62d64	-0.03005094
87	0xbdf10b66	-0.11769752
88	0x3e0f2fba	0.1398305
89	0x3d988e8b	0.07449063
90	0x3c6449ed	0.013933641
91	0xbcb8ae5e	-0.022544082
92	0xbe13dbee	-0.14439365
93	0x3e48de00	0.19615936
94	0x3e816969	0.25275734
95	0x3ebd3da7	0.369611
96	0x3cc04e46	0.023474824
97	0x3d735f66	0.05941715
98	0x3e415829	0.18881287
99	0xbd9864c3	-0.07441094
100	0x3d2c57cc	0.042075917
101	0x3c8bf65e	0.01708525
102	0xbdfa0642	-0.12208225
103	0x3c1b2788	0.009469874
104	0xbdc40b9b	-0.09572526
105	0x3d97d070	0.07412803
106	0x3e09f4d5	0.13472302
107	0xbd6157ee	-0.055015497
108	0xbc86baa1	-0.016446413
109	0x3c85b673	0.01632235
110	0x3e6e9146	0.23297605
111	0xbe07c2ee	-0.13257954
112	0xbe0d37b5	-0.13790782
113	0x3d241146	0.040055536
114	0xbc4d8cb7	-0.012545756
115	0xbd92f9c3	-0.071765445
116	0x3c335891	0.010946409
117	0x3d2a735b	0.041613918
118	0x3d8203ed	0.06348405
119	0xbde21496	-0.11039083
120	0x3e10f49f	0.14155816
121	0x3e0fac7b	0.1403064
122	0x3cdda99c	0.027058415
123	0x3ca3bc15	0.019987145
124	0x3d8dfc75	0.06932918
125	0x3e1a7984	0.15085417
126	0x3dcec0f1	0.100953944
127	0x3cc89da1	0.024489226
128	0xbcf56fb2	-0.029960487
129	0x3d0146d6	0.031561695
130	0xbdc3a056	-0.09552066
131	0x3dff11c8	0.124545634
132	0xbccd7825	-0.025081703
133	0xbb8fd561	-0.0043894504
134	0xbcadb89b	-0.02120619
135	0x3d746862	0.05966986
136	0x3d37d407	0.04487994
137	0xbcda24ad	-0.026628817
138	0xbe0fd228	-0.14045012
139	0xbd9b25e1	-0.07575584
140	0xbd6db4e8	-0.058033854
141	0x3e9d0f3c	0.30675685
142	0x3e803ca5	0.25046268
143	0x3df62354	0.12018457
144	0x3e365f0b	0.17809694
145	0x3db150a1	0.08657957
146	0x3ded995c	0.116015166
147	0x3dea8d92	0.11452784
148	0x3dfede28	0.12444717
149	0x3d32f429	0.04368988
150	0x3d0ff42d	0.035144974
151	0x3df2ede1	0.11861778
152	0xbc2297b5	-0.009923865
153	0xbdcf6048	-0.10125786
154	0xbca5cbaa	-0.020238716
155	0x3e0613eb	0.13093536
156	0xbe1a4769	-0.15066303
157	0xbe56c528	-0.20973647
158	0xbe64f1d7	-0.2235788
159	0x3da8c2c2	0.08240272
160	0xbda4e4f5	-0.080514826
161	0x3e035dec	0.12828797
162	0x3c45ea01	0.012079717
163	0xbd2c9eb4	-0.04214354
164	0x3d25041e	0.04028713
165	0xbdf28f89	-0.118437834
166	0x3e0cb8e3	0.13742404
167	0x3d311902	0.04323674
168	0x3dc810cd	0.097688295
169	0xbdf5ee5a	-0.120083526
170	0x3db087bb	0.086196385
171	0x3dfbfb25	0.123037614
172	0x3b5e0f2b	0.0033883553
173	0xbc9688b7	-0.018375738
174	0x3dd0806e	0.10180746
175	0xbd782c83	-0.060589325
176	0xbe10c9ce	-0.14139482
177	0x3e0209ee	0.126991
178	0xbdd5278c	-0.104079336
179	0x3d529cd9	0.051419113
180	0xbe04b8ad	-0.12961073
181	0x3dd3c445	0.1034017
182	0xbc1f43f8	-0.009720795
183	0x3dc6fdd1	0.097163804
184	0xbcdb68e1	-0.026783409
185	0x3cf3f111	0.029778035
186	0xba8e7e5e	-0.0010871401
187	0xbd130e48	-0.03590229
188	0xb9a23f90	-0.00030946406
189	0x3e14eba1	0.1454301
190	0x3dd7a2d1	0.10529102
191	0x3e9c4420	0.30520725
192	0x3d387f8e	0.04504352
193	0x3cc625ae	0.024187889
194	0xbcef6248	-0.029221669
195	0x3d0d6435	0.034519393
196	0xbd6386e3	-0.05554856
197	0xbd2701e1	-0.040773276
198	0x3d541071	0.051773492
199	0x3dfe4b3a	0.12416692
200	0xbd8876f8	-0.066633165
201	0xbdfe0889	-0.12403972
202	0x3dae8534	0.085215
203	0x3c315120	0.010822564
204	0x3d4c8ee5	0.049940962
205	0x3ea6a83d	0.3255023
206	0x3e680f0d	0.22661991
207	0x3dde169d	0.10844157
208	0x3e07569e	0.13216636
209	0xbdac1678	-0.08402723
210	0xbd8e03a1	-0.06934286
211	0xbc7f1e24	-0.015571151
212	0x3e00aac3	0.1256514
213	0xbd1bab91	-0.038005415
214	0xbe0c8fe9	-0.13726772
215	0xbd782505	-0.06058218
216	0x3de58918	0.11207789
217	0x3dc3198d	0.09526358
218	0x3e133d3f	0.14378832
219	0xbcc91bb5	-0.024549345
220	0xbdae44c5	-0.085092105
221	0x3d8c35d2	0.06846203
222	0xbb97ff9a	-0.0046386244
223	0xbda3a0e7	-0.07989674
224	0x3d1ad8d5	0.037804443
225	0x3bfc79a4	0.0077049304
226	0xbdbc19c1	-0.091846
227	0xbd30454d	-0.04303484
228	0xbc0dc9cb	-0.008654068
229	0x3d250a22	0.040292867
230	0xbe04238b	-0.12904184
231	0x3e081b83	0.13291745
232	0xbdea36aa	-0.114362076
233	0xbce2bb02	-0.027677063
234	0x3d6c5b1a	0.05770407
235	0xbcab12ee	-0.02088305
236	0xbdbbd724	-0.09171894
237	0x3e40f679	0.18844022
238	0xbb535098	-0.0032244083
239	0xbb8cb9a3	-0.0042945906
240	0xbc2dd772	-0.010610448
241	0xbdc4a229	-0.09601242
242	0x3de4e593	0.111766
243	0x3e0cec62	0.13762048
244	0xbdbe70bd	-0.09298847
245	0x3dee2e28	0.11629897
246	0xbd8e4b9e	-0.069480166
247	0xbe0eb5e6	-0.13936576
248	0x3d988ff3	0.07449331
249	0x3d80e355	0.0629336
250	0xbe008160	-0.12549353
251	0x3e102dfa	0.14080039
252	0x3ddb6e23	0.10714366
253	0x3e1181c2	0.14209655
254	0x3e09caa2	0.13456205
255	0xbe116de3	-0.14202075

cnn2.0.bias f4 [32]
0	0xbe0161a8	-0.12634909
1	0xbd83e464	-0.064400464
2	0x3b4ee706	0.0031570806
3	0xbd476ab9	-0.048685763
4	0x3da8b572	0.08237733
5	0x3d65b0c9	0.0560768
6	0xbdf8f520	-0.12156129
7	0xbe022973	-0.12711124
8	0xbe14038e	-0.14454481
9	0xbe0472ff	-0.12934493
10	0x3d7b9d29	0.061429176
11	0xbb221ce6	-0.0024736463
12	0xbe064f41	-0.1311617
13	0x3c815689	0.015788333
14	0x3e161534	0.14656526
15	0x3e0c6293	0.13709478
16	0x3dd5f2b4	0.104466826
17	0x3ddc105e	0.10745309
18	0xbe07e1ac	-0.1326968
19	0xbcf2695c	-0.029591255
20	0xbbf1fcd4	-0.007384876
21	0xbe0b29cf	-0.13590167
22	0xbbabb68f	-0.0052402685
23	0x3dba1eb0	0.090878844
24	0x3e1fe979	0.15616407
25	0xbddf814c	-0.10913333
26	0x3cf88d3b	0.030340781
27	0x3d2f88dc	0.04285513
28	0x3dd274e0	0.102761984
29	0xbe12855c	-0.14308685
30	0x3e01d8d8	0.12680376
31	0xbdbf0d74	-0.09328738

lstm1_1.weight_ih_l0 f4 [64, 32]
0	0x3c265660	0.010152429
1	0x3e2853c4	0.16438204
2	0xbdad9740	-0.08476114
3	0x3dad18f7	0.08452027
4	0x3e23caeb	0.15995376
5	0x3d0f5815	0.03499611
6	0xbd5c96c0	-0.053854704
7	0x3e1b60a2	0.15173581
8	0xbe17cbb5	-0.14823802
9	0xbd499dd8	-0.049222797
10	0x3d95d87c	0.07316682
11	0xbdcc1052	-0.0996405
12	0xbe388038	-0.18017662
13	0xbe7ecb82	-0.2488232
14	0xbe774c22	-0.24150136
15	0xbcc26009	-0.023727434
16	0xbe71e491	-0.23622347
17	0x3d86d527	0.06583624
18	0x3e006e64	0.1254211
19	0xbd8caa64	-0.06868437
20	0x3d909237	0.07059138
21	0x3d895789	0.06706149
22	0xbe0109fa	-0.12601462
23	0x3e1eb6fe	0.15499493
24	0xbdf4abc8	-0.11946827
25	0x3e58200a	0.21105972
26	0xbbf24e83	-0.007394613
27	0x3e495342	0.19660667
28	0x3dbb0371	0.09131516
29	0x3b9f2f40	0.0048579276
30	0xbdfbc14a	-0.12292726
31	0x3dc92e30	0.09823263
32	0xbdaa30f0	-0.08310115
33	0x3e00f0df	0.12591885
34	0xbe330f6c	-0.17486352
35	0xbd471b07	-0.04860976
36	0x3e0af848	0.13571274
37	0xbe2cfdf8	-0.16893756
38	0xbe79ed2c	-0.2440688
39	0xbe4f5824	-0.20248467
40	0xbe1abba5	-0.15110643
41	0xbe0e6810	-0.13906884
42	0x3cf3f1e0	0.02977842
43	0x3d09bba8	0.03362623
44	0x3dc7a1dc	0.09747669
45	0xbe57d19b	-0.21076052
46	0xbe3d7a25	-0.18503626
47	0x3e002e43	0.12517647
48	0xbd53b63a	-0.051687457
49	0x3d02b315	0.031909067
50	0x3e10e93e	0.14151475
51	0x3e362c56	0.1779035
52	0x3db4771b	0.0881178
53	0x3cf0d48a	0.029398222
54	0x3ccbf99b	0.024899295
55	0xbd4e5e00	-0.050382614
56	0xbde1729a	-0.11008187
57	0xbe58ffb2	-0.2119129
58	0x3e32a865	0.1744705
59	0xbe2775af	-0.16353486
60	0x3e5bcdeb	0.2146527
61	0xbe19a56e	-0.15004513
62	0xbd99a74b	-0.07502612
63	0xbe1d2eec	-0.1534993
64	0xbd58e748	-0.052954942
65	0x3e09f429	0.13472046
66	0x3db22859	0.08699102
67	0x3e0fc740	0.14040852
68	0x3e0baf92	0.13641194
69	0x3debef44	0.11520246
70	0xbdbc9b54	-0.09209314
71	0xbe472914	-0.19449264
72	0x3e351c19	0.176865
73	0xbe4cbd50	-0.19994092
74	0x3d23b02b	0.03996293
75	0xbe002796	-0.12515101
76	0x3e086da0	0.13323069
77	0xbe09197f	-0.13388632
78	0x3d7b0baf	0.06129044
79	0x3e126c57	0.14299141
80	0x3d53a557	0.051671352
81	0x3d05633f	0.03256535
82	0x3c8e8880	0.017399073
83	0xbe2919b2	-0.16513708
84	0x3e1bb643	0.15206246
85	0xbe3065b4	-0.17226297
86	0x3d138fe3	0.036025893
87	0xbd2231f8	-0.039598435
88	0xbe1487f2	-0.14504984
89	0xbe05da0a	-0.13071457
90	0x3d962718	0.07331675
91	0xbe2dd5d8	-0.16976106
92	0xbe6a7e8f	-0.22899841
93	0xbe5302fc	-0.20606607
94	0x3df68a7a	0.12038131
95	0x3da9539c	0.082679
96	0xbddeffc8	-0.1088863
97	0x3e5a00b3	0.21289329
98	0xbde826b9	-0.11335511
99	0xbc517971	-0.012785302
100	0xbd2ea6c3	-0.042639505
101	0x3d567b30	0.052363575
102	0xbe493cae	-0.19652054
103	0x3e7a0e34	0.2441948
104	0x3e07fc66	0.13279876
105	0x3e2a2b92	0.16618183
106	0x3e53ed71	0.20696045
107	0x3dd81c98	0.10552329
108	0xbe2f1342	-0.1709719
109	0xbdaa44e9	-0.08313925
110	0x3e693e6f	0.22777723
111	0x3e44ef66	0.19231948
112	0x3e4cc79f	0.19998024
113	0xbd7fb475	-0.062427957
114	0x3e0e4728	0.13894331
115	0x3e3e11e6	0.18561515
116	0x3e655d24	0.22398812
117	0xbc308312	-0.010773437
118	0x3e75f3e1	0.24018814
119	0x3d10c8a0	0.03534758
120	0xbe42de4b	-0.1903011
121	0x3e4f1050	0.20221066
122	0xbe0e9d4a	-0.13927189
123	0x3e757658	0.23970926
124	0xbe160798	-0.14651334
125	0x3caacb10	0.02084878
126	0xbcba4479	-0.022737728
127	0xbe0d070c	-0.1377222
128	0x3e376ce8	0.17912638
129	0x3d3c48be	0.04596781
130	0x3e2d7e65	0.16942747
131	0x3e39ab01	0.18131639
132	0x3e49e4ed	0.19716235
133	0x3e192231	0.14954449
134	0xbe4ca872	-0.19986132
135	0x3dc3d674	0.09562388
136	0xbb6fe9a8	-0.0036607776
137	0xbd902ca4	-0.070397645
138	0x3e2501c0	0.16113949
139	0x3e3cf872	0.1845415
140	0x3d0e7988	0.03478387
141	0x3c90fffb	0.017700186
142	0xbdf51902	-0.119676605
143	0x3c4cdde6	0.012504077
144	0x3dd867d7	0.10566681
145	0xbde2a014	-0.11065689
146	0x3e555376	0.20832619
147	0xbe31b708	-0.17354977
148	0xbe37d2f5	-0.17951567
149	0xbe40056c	-0.18752068
150	0xbe488e5c	-0.19585556
151	0xbe1cada2	-0.1530061
152	0xbe0b9cb5	-0.13633998
153	0x3e5512dc	0.20807976
154	0x3d6d398f	0.05791622
155	0xbdd338ff	-0.103136055
156	0x3cb2c511	0.021822484
157	0xbaefe500	-0.00183025
158	0x3d461a9c	0.04836522
159	0x3dcae9b4	0.099078566
160	0xbdafc990	-0.08583367
161	0x3bac21df	0.005253061
162	0x3dcfc2d8	0.10144585
163	0x3e25f178	0.16205394
164	0x3e00c1e4	0.12573963
165	0x3d333583	0.043752205
166	0x3deaa4d0	0.11457217
167	0x3de61844	0.11235097
168	0x3e675f0c	0.22594851
169	0x3e4a7252	0.19770172
170	0xbdbc3aa6	-0.09190874
171	0xbe1c11db	-0.15241186
172	0x3da33c60	0.079705
173	0x3e36731a	0.17817345
174	0xbdb07ef6	-0.08617966
175	0x3c427fde	0.011871306
176	0xbd90d8d4	-0.07072607
177	0xbe0d59fb	-0.13803856
178	0xbd5471d8	-0.051866382
179	0x3e26411e	0.16235778
180	0xbe08dc9b	-0.13365404
181	0x3e5f7c0e	0.21824667
182	0x3d28f8d3	0.041252922
183	0x3e13c2a4	0.14429718
184	0x3c91af4b	0.017783782
185	0xbe3817b6	-0.17977795
186	0x3e807bca	0.25094444
187	0xbc1be686	-0.00951541
188	0xbd6e1eea	-0.05813495
189	0xbce22c30	-0.02760896
190	0xbe08d26f	-0.13361524
191	0xbcbe0910	-0.02319768
192	0x3bc12ac0	0.005894989
193	0x3e9daa2d	0.30793896
194	0x3db3fd75	0.087885775
195	0x3e42566c	0.1897828
196	0x3d2ec8d1	0.042671982
197	0xbd927375	-0.07150928
198	0x3de92984	0.113848716
199	0x3d8281d8	0.06372422
200	0xbe50bf18	-0.20385396
201	0x3ce84790	0.028354436
202	0xbe69d78f	-0.22836135
203	0x3e4197c7	0.18905555
204	0xbd94bce4	-0.072625905
205	0xbde000f8	-0.10937685
206	0xbd61b9cd	-0.055108834
207	0xbdfc2c06	-0.12313084
208	0x3e6eec69	0.23332371
209	0xbe4f8ce2	-0.20268586
210	0xbe0f659e	-0.14003608
211	0x3d5e2b70	0.054240644
212	0xbd9824c1	-0.07428885
213	0xbe4fc937	-0.20291601
214	0x3e718a1e	0.23587844
215	0x3ba27540	0.004957825
216	0x3e496858	0.1966871
217	0x3de6a2f4	0.112615496
218	0x39e4f643	0.00043671028
219	0xbd0568ff	-0.032570835
220	0xbc658fe2	-0.014011355
221	0x3bfa45c0	0.0076377094
222	0xbd865247	-0.06558662
223	0x3e29366e	0.1652467
224	0xbe21ffc4	-0.15820223
225	0x3e5f659d	0.21816106
226	0x3e24377d	0.16036792
227	0xbdfe6c89	-0.12423045
228	0x3c933f3d	0.01797449
229	0x3e41c4b2	0.1892269
230	0xbda4d2f8	-0.080480516
231	0xbd56ef68	-0.05247441
232	0xbd9c414c	-0.07629642
233	0x3d384af8	0.04499337
234	0xbd311b73	-0.04323907
235	0x3d8b9278	0.06815046
236	0x3e526ab8	0.20548522
237	0xbe22906b	-0.15875404
238	0xbe82f45a	-0.2557705
239	0xbdaf8c67	-0.085717015
240	0xbe2608e0	-0.16214323
241	0x3e551de1	0.20812179
242	0xbe666192	-0.22498158
243	0xbd0b1a58	-0.03396067
244	0x3e4e94b2	0.2017391
245	0xbc0fe5e9	-0.008782842
246	0x3bb2b0e6	0.005453217
247	0xbe53b272	-0.2067354
248	0xbe823d90	-0.25437593
249	0x3d9908a8	0.07472354
250	0x3dd86581	0.10566235
251	0x3e25904a	0.16168323
252	0x3e43f3f8	0.19136035
253	0x3e511032	0.20416334
254	0xbc7f371b	-0.015577103
255	0xbdfcff44	-0.123533756

lstm1_1.weight_hh_l0 f4 [64, 16]
0	0x3e6a560d	0.22884388
1	0x3e11f369	0.1425301
2	0xbe1658be	-0.1468229
3	0x3e5ec31f	0.2175412
4	0x3d76c0cc	0.06024246
5	0x3cc71541	0.024302127
6	0x3cefe992	0.02928618
7	0x3e024afd	0.12723918
8	0xbdd62604	-0.1045647
9	0x3d7e6bea	0.062114634
10	0xbe1d5358	-0.15363824
11	0xbe04e649	-0.12978472
12	0xbe09588a	-0.13412681
13	0xbe805435	-0.25064245
14	0xbe26501b	-0.16241495
15	0x3d5f9d8c	0.054593608
16	0xbe585ed2	-0.21129921
17	0xbdbc333e	-0.09189461
18	0x3d9239fd	0.07139967
19	0x3e648292	0.22315434
20	0xbe4534c1	-0.19258405
21	0xbe2f475b	-0.17117064
22	0xbbd90b3e	-0.0066236546
23	0xbe63bc94	-0.22239906
24	0xbe0c0ea9	-0.13677467
25	0xbe561edb	-0.20910208
26	0x3dca23fc	0.09870145
27	0x3e30551d	0.17219968
28	0x3e279961	0.16367103
29	0xbe81a63e	-0.25322145
30	0x3e5c2446	0.21498212
31	0xbdeeb9c1	-0.116565235
32	0xbe50c3da	-0.20387211
33	0xbca2449d	-0.019808108
34	0x3d8ad8f4	0.06779662
35	0xbe480c71	-0.19535996
36	0x3dc5752a	0.09641488
37	0xbd3d5962	-0.04622782
38	0xbe344d6a	-0.17607656
39	0x3e2db25f	0.16962574
40	0xbe3c6109	-0.18396391
41	0x3e64edfe	0.22356412
42	0xbe195929	-0.14975418
43	0x3e2d0cc1	0.16899396
44	0xbe4ba25d	-0.19886155
45	0xbe1cdd5a	-0.15318814
46	0x3e1d6553	0.15370683
47	0xbd869ed3	-0.06573262
48	0x3d518606	0.051153205
49	0xbe4ef1c1	-0.2020941
50	0xbdbf59e6	-0.09343319
51	0xbe1878b2	-0.14889792
52	0xbe305422	-0.17219594
53	0xbd65f386	-0.056140445
54	0x3e95ba2f	0.2924361
55	0xbd119c2b	-0.035549324
56	0xbe80adbe	-0.25132555
57	0x3cf11965	0.029431054
58	0xbe69b688	-0.22823536
59	0xbe72f5b2	-0.23726538
60	0xbe2e0fc0	-0.16998196
61	0xbd8e4469	-0.06946642
62	0x3d291c16	0.04128655
63	0xbe510675	-0.2041262
64	0xbd3da82b	-0.046302956
65	0xbc04197b	-0.008062716
66	0x3cf1dcb7	0.02952419
67	0x3da9e1df	0.082950346
68	0xbdb4f2b0	-0.088353515
69	0x3df7c5ea	0.12098296
70	0xbe4b00e3	-0.19824557
71	0x3e1aa7a6	0.15103015
72	0x3d525dc4	0.051358953
73	0x3e532579	0.20619763
74	0xbe4d4297	-0.20044933
75	0xbd91588f	-0.07096969
76	0x3e814f59	0.2525585
77	0x3d372381	0.044711594
78	0xbcdefe38	-0.02722083
79	0x3e08cc78	0.13359249
80	0x3e670529	0.22560562
81	0xbe320274	-0.17383748
82	0x3e6d171e	0.2315335
83	0xbdbee6e0	-0.0932138
84	0xbad95a6b	-0.0016582733
85	0x3e61d620	0.22054338
86	0x3e472d0f	0.19450782
87	0x3e409e18	0.18810308
88	0x3e035732	0.12826231
89	0x3e80aff8	0.25134254
90	0xbdf011eb	-0.117221676
91	0x3ca91408	0.020639434
92	0xbd8a3b42	-0.06749584
93	0xbd1c1395	-0.038104612
94	0xbcb06b9f	-0.021535693
95	0x3dda2111	0.10650838
96	0x3e56ad60	0.20964575
97	0xbe52a65c	-0.20571274
98	0x3be0049a	0.006836486
99	0x3e991fbd	0.29907027
100	0xbe854160	-0.2602644
101	0x3dae8e02	0.085231796
102	0xbd5355a0	-0.05159533
103	0xbdf50eaf	-0.11965691
104	0x3e571a13	0.2100604
105	0xbdd52f22	-0.104093805
106	0x3d825194	0.06363216
107	0xbd41291e	-0.047158353
108	0x3e293289	0.16523184
109	0x3dfd5ed3	0.12371602
110	0x3e46b9bf	0.19406794
111	0xbc6d7adc	-0.014494624
112	0xbd74dea7	-0.05978265
113	0x3e45a828	0.19302428
114	0xbc641c27	-0.013922728
115	0x3e44508a	0.19171348
116	0xbe30ced5	-0.172664
117	0x3cba16be	0.022715922
118	0x3e17766f	0.14791273
119	0xbe02acc4	-0.12761217
120	0x3e35d04b	0.17755239
121	0x3cba80b0	0.022766441
122	0x3dfc8794	0.12330547
123	0xbe42a3ec	-0.19007844
124	0xbe6b95a9	-0.2300631
125	0x3df001fc	0.117191285
126	0x3e160eca	0.14654079
127	0xbdbdbfda	-0.092651084
128	0x3dcb5a98	0.09929389
129	0xbe2fa1d3	-0.17151575
130	0x3da2f9f9	0.07957835
131	0xbe0abd0f	-0.13548683
132	0x3db51b38	0.08843082
133	0x3ab182bc	0.001354299
134	0x3e00b802	0.12570193
135	0xbd3a0254	-0.045412377
136	0xbdc78b85	-0.09743408
137	0xbe5931d1	-0.2121041
138	0x3e2972f4	0.16547757
139	0x3d87c33c	0.06629035
140	0x3c487a70	0.012236223
141	0x3e1bc183	0.15210538
142	0xbe388fce	-0.18023607
143	0x3e0c0a0d	0.13675709
144	0x3e129a3d	0.1431665
145	0xbdf0db4b	-0.11760577
146	0xbd6ad43b	-0.057331305
147	0x3e421a48	0.18955338
148	0x3dbb2524	0.091379434
149	0xbe575b77	-0.21030985
150	0xbe12c045	-0.14331158
151	0xbe5abc64	-0.21360928
152	0xbe0f746d	-0.14009257
153	0xbe0161ce	-0.12634966
154	0xbdd72f97	-0.10507124
155	0x3ba1c0f8	0.0049363337
156	0xbe248b97	-0.16068874
157	0x3dbe609e	0.09295772
158	0xbe80b23f	-0.2513599
159	0x3cdf819a	0.027283479
160	0x3d214094	0.039368227
161	0x3e730d13	0.23735456
162	0x3e66c504	0.22536093
163	0xbdd2eaac	-0.10298666
164	0x3bfb24a6	0.007664281
165	0x3e1ad10f	0.15118812
166	0x3e4dfd4f	0.20116161
167	0xbe175874	-0.14779836
168	0x3d81e1ce	0.06341897
169	0x3db06711	0.08613408
170	0x3a2324e4	0.00062234537
171	0x3e0a6844	0.13516337
172	0xbe6a78d2	-0.22897652
173	0x3e196533	0.1498001
174	0xbd9f57e2	-0.07780434
175	0x3e2e9cb4	0.17051965
176	0xbd205962	-0.039147742
177	0xbc6fbd2d	-0.014632505
178	0xbe92fc74	-0.2870823
179	0xbd81d8f7	-0.06340211
180	0x3e015b9e	0.12632605
181	0x3d925203	0.07144549
182	0x3cf81a26	0.030285906
183	0x3c6d7887	0.014494068
184	0x3d5be4a4	0.053684846
185	0xbe02af0e	-0.1276209
186	0x3e6f9975	0.23398383
187	0xbdd81a1b	-0.10551854
188	0xbd564948	-0.05231598
189	0x3e9966d3	0.2996126
190	0x3df6f5a7	0.12058573
191	0x3e913e76	0.28367966
192	0xbd7722d2	-0.06033594
193	0xbea2aee7	-0.31774065
194	0xbcccb0a7	-0.024986578
195	0x3ea33123	0.31873426
196	0xbe82c7ff	-0.2554321
197	0x3e6c422a	0.23072115
198	0x3dc289f6	0.0949897
199	0x3cf4426f	0.029816834
200	0xbbc62f6e	-0.0060481345
201	0xbd9a565d	-0.07536004
202	0x3e9b0a1d	0.30281153
203	0x3c64ee00	0.013972759
204	0x3e2c0972	0.16800478
205	0x3e19e038	0.15026939
206	0xbe91d70c	-0.2848438
207	0x3e2d14fc	0.16902536
208	0xbe9c4865	-0.30523983
209	0xbdf659f9	-0.1202888
210	0xbd18f633	-0.03734417
211	0x3dcf1448	0.1011129
212	0x3e4adf04	0.19811636
213	0x3cd862a9	0.026414232
214	0xbd0bf282	-0.03416682
215	0x3d7eba4b	0.06218938
216	0x3e7c49fa	0.24637595
217	0xbd5e556e	-0.05428069
218	0xbdcc05be	-0.09962033
219	0xbcf0a3a0	-0.029374897
220	0xbdec162f	-0.11527669
221	0xbd9dfc00	-0.07714081
222	0xbe231c48	-0.15928757
223	0xbdeddc13	-0.116142415
224	0x3c923c4b	0.017851016
225	0xbda33a21	-0.079700716
226	0x3d32feb7	0.043699946
227	0xbd060147	-0.032716062
228	0xbddfa288	-0.10919672
229	0x3d51ca71	0.051218454
230	0xbddf2c42	-0.108971134
231	0x3e1e7e5b	0.15477888
232	0x3e54cd65	0.20781477
233	0xbe567490	-0.20942903
234	0xbe72ec43	-0.23722939
235	0xbe9a69f7	-0.3015897
236	0xbe560441	-0.2090006
237	0xbe4ae715	-0.19814713
238	0xbd95a74a	-0.073072985
239	0xbd391b13	-0.045191836
240	0xbd8e5ef3	-0.06951704
241	0xbe4fcc5c	-0.202928
242	0x3d8ea25e	0.06964563
243	0xbd73f3cc	-0.059558675
244	0x3da320f5	0.079652704
245	0x3e2d91b6	0.16950116
246	0x3c80c782	0.015720133
247	0x3da2673d	0.079298474
248	0xbe404db7	-0.18779646
249	0x3d3cc568	0.0460867
250	0xbd9794cb	-0.07401427
251	0x3e50e160	0.20398474
252	0xbe276937	-0.1634873
253	0x3d734be1	0.059398536
254	0x3e3f654f	0.1869099
255	0xbe4afb38	-0.19822395

lstm1_1.bias_ih_l0 f4 [64]
0	0xbcd92ff7	-0.02651213
1	0xbde3cdb8	-0.11123222
2	0xbd6c8a67	-0.05774918
3	0xbcca02ff	-0.024659632
4	0x3e53ea35	0.20694812
5	0xbd990b6b	-0.07472881
6	0x3cdfc6ae	0.027316418
7	0x3e0950da	0.13409749
8	0xbc613d34	-0.013747502
9	0x3e649136	0.22321019
10	0xbe244ca0	-0.16044855
11	0x3e8f1105	0.27942672
12	0x3dedfd6d	0.11620603
13	0x3e125276	0.14289269
14	0x3d1b6368	0.037936598
15	0xbe5c3779	-0.21505536
16	0x3df762a6	0.120793626
17	0xbd52155d	-0.051289905
18	0x3e0ab3a2	0.13545087
19	0x3d143db7	0.03619167
20	0x3e4f936f	0.20271085
21	0xbc3734cc	-0.011182021
22	0x3de85f60	0.11346316
23	0x3b3bbd36	0.0028646714
24	0x3deb6c62	0.11495282
25	0xbc39dfb4	-0.011344839
26	0x3da5cbdb	0.08095523
27	0xbcbf7b5d	-0.023374254
28	0x3e0a18a3	0.1348596
29	0x3d61e86e	0.055153303
30	0x3e17f65b	0.14840071
31	0xbd43877e	-0.047736637
32	0xbd867509	-0.065652914
33	0xbe61b740	-0.2204256
34	0xbe70ac63	-0.2350326
35	0xbcef3cb2	-0.029203746
36	0xbd058ecb	-0.03260688
37	0x3da5b039	0.080902524
38	0xbbc7452e	-0.006081245
39	0xbe165402	-0.14680484
40	0x3d2350fe	0.039872162
41	0xbe6f7628	-0.23384917
42	0xbe4e933f	-0.20173357
43	0x3e291e98	0.16515577
44	0x3e7b48b2	0.2453945
45	0xbd95d6d7	-0.07316368
46	0xbd09c31f	-0.033633348
47	0xbe44e5bf	-0.19228266
48	0x3e3c6fc9	0.18402018
49	0x3def77cf	0.116927736
50	0xbd4ed140	-0.050492525
51	0x3dcb18a2	0.09916808
52	0xbd3447de	-0.04401385
53	0x3e2bc790	0.16775346
54	0x3e04f512	0.12984112
55	0xbe092700	-0.13393784
56	0x3e0733e6	0.13203391
57	0xbe3ecdec	-0.1863324
58	0x3e46f5fd	0.19429775
59	0xbe61e785	-0.22060974
60	0x3e82a8cb	0.25519404
61	0x3e5294db	0.20564596
62	0x3e58213e	0.21106431
63	0x3e1deeaa	0.15423074

lstm1_1.bias_hh_l0 f4 [64]
0	0x3e59265f	0.21206044
1	0xbcbd2c0c	-0.023092292
2	0xbe420f76	-0.1895121
3	0xbe09616a	-0.13416067
4	0xbe175849	-0.14779772
5	0x3e0efc0e	0.13963339
6	0x3e23d82a	0.16000429
7	0x3d3ecf6a	0.046584524
8	0x3dee304d	0.116303064
9	0x3e84798f	0.25873992
10	0xbe6b0380	-0.22950554
11	0x3e323541	0.17403127
12	0xbd1fe05a	-0.039032318
13	0xbe2d2de2	-0.16912034
14	0xbdb8d741	-0.090254314
15	0xbd9394bb	-0.072061025
16	0xbe3df54c	-0.18550605
17	0x3e7b1848	0.24520981
18	0x3cf68486	0.030092489
19	0xbcfb9c1c	-0.030714087
20	0xbe34e375	-0.17664893
21	0x3e26297d	0.16226764
22	0xbccdec9c	-0.025137238
23	0x3d5280a5	0.051392216
24	0xbcec60e9	-0.028854804
25	0x3cb26451	0.02177635
26	0x3cd011f2	0.025399182
27	0x3d157a82	0.036493786
28	0x3e88f9e0	0.2675314
29	0x3e3d6968	0.1849724
30	0xbe482b99	-0.19547881
31	0x3c0876a2	0.0083290655
32	0xbdc44809	-0.09584052
33	0xbdf39ff8	-0.11895746
34	0xbe0e9c7f	-0.13926886
35	0x3d4cd77b	0.050010186
36	0xbe3ee83d	-0.1864328
37	0xbdd9fd2f	-0.10643994
38	0xbdb2b191	-0.08725274
39	0xbc6d3d0f	-0.01447989
40	0x3e055ddb	0.13024084
41	0xbe03b767	-0.12862931
42	0x3e5d82eb	0.21631972
43	0xbe56eb5e	-0.20988223
44	0xbd018c80	-0.031628132
45	0x3cadc590	0.02121237
46	0xbe2a9571	-0.1665857
47	0x3e5b34d9	0.21406879
48	0xbe196c45	-0.14982708
49	0xbe6ff717	-0.23434101
50	0x3d3f5420	0.046711087
51	0x3e28b604	0.16475683
52	0xbe1a4f83	-0.15069394
53	0x3e12f70a	0.1435205
54	0xbe204f0b	-0.15655152
55	0x3d55750c	0.052113578
56	0x3c9beb82	0.019033197
57	0xbd7a22df	-0.061068412
58	0x3e534d17	0.20634876
59	0xbde6c155	-0.11267344
60	0xbe402848	-0.18765366
61	0xbe13bacf	-0.1442673
62	0xbc33c1b0	-0.010971472
63	0x3cd220b6	0.025650363

lstm1_1.weight_ih_l0_reverse f4 [64, 32]
0	0x3d852650	0.06501448
1	0x3ece955d	0.4034833
2	0xbb280344	-0.0025636712
3	0xbda7c97c	-0.08192727
4	0x3b0fdcb7	0.0021951625
5	0xbe12f393	-0.14350729
6	0x3dd0210c	0.10162553
7	0xbe660402	-0.22462466
8	0xbdffa8e4	-0.12483385
9	0xbdae577c	-0.0851278
10	0x3e257ead	0.16161604
11	0xbdf5b03d	-0.119965054
12	0x3de3caa4	0.11122635
13	0x3da918d4	0.08256689
14	0x3d6a5ac2	0.05721546
15	0x3c3b3648	0.011426516
16	0xbda2a64a	-0.07941873
17	0x3e82ca5b	0.2554501
18	0xbd86fa50	-0.06590712
19	0x3e6ddf02	0.23229602
20	0x3eb1a1e2	0.3469382
21	0xbde3f570	-0.11130798
22	0xbd8432d0	-0.06455004
23	0xbd994240	-0.07483339
24	0xbd302251	-0.043001477
25	0x3dacb7e0	0.08433509
26	0x3ee456a2	0.44597346
27	0x3e44e2b1	0.19227101
28	0xbce9758d	-0.028498435
29	0x3e51448a	0.20436302
30	0x3d3488b4	0.044075683
31	0xbdb0f95c	-0.086413115
32	0xbe03d594	-0.12874442
33	0x3d92cd12	0.0716802
34	0x3e5a3a86	0.21311387
35	0xbd3485f4	-0.04407306
36	0x3e5adf97	0.21374355
37	0xbdb32bf9	-0.087486215
38	0x3df9fa98	0.12206
39	0xbe2148ea	-0.15750471
40	0x3ddef39b	0.10886308
41	0xbcdbc380	-0.02682662
42	0x3ceff570	0.029291838
43	0x3e12b5d1	0.1432717
44	0xbe52f7b2	-0.20602301
45	0x3d8af806	0.06785588
46	0xbe0626d3	-0.13100748
47	0xbd7c452d	-0.06158941
48	0x3df4f19e	0.11960147
49	0x3e29461c	0.16530651
50	0xbb97d680	-0.0046337247
51	0x3ca74230	0.020417303
52	0x3c647f89	0.013946422
53	0xbd52f6e2	-0.051504977
54	0x3e4a500c	0.19757098
55	0x3c8a5020	0.01688391
56	0xbe53acad	-0.2067134
57	0xbe7a4662	-0.24440911
58	0x3cd2bd44	0.025725015
59	0x3e4380b9	0.19092073
60	0x3deff05c	0.11715767
61	0x3da61a34	0.081104666
62	0xbdd979b7	-0.106189184
63	0xbe79e6f2	-0.24404505
64	0xbd85c260	-0.06531215
65	0x3da49331	0.08035887
66	0x3dd77ab8	0.105214536
67	0x3e03b2e4	0.1286121
68	0xbd8c692a	-0.06855996
69	0x3e8f631b	0.280053
70	0x3c88f100	0.01671648
71	0x3e1f8880	0.15579414
72	0x3db1c247	0.086796336
73	0x3d60b278	0.0548577
74	0xbe750176	-0.23926339
75	0x3e82272e	0.25420517
76	0xbe1e6ac8	-0.15470421
77	0x3e8bec20	0.27328587
78	0x3e36d1a4	0.17853409
79	0xbe1b2080	-0.15149117
80	0xbe1db3a4	-0.15400559
81	0x3d9374c6	0.07200007
82	0x3dc25e48	0.09490639
83	0xbdee0ca8	-0.11623508
84	0xbcb690f9	-0.022285925
85	0x3dd50f5f	0.104033224
86	0x3d5865c4	0.052831426
87	0x3e4f408c	0.20239466
88	0x3e91bac7	0.28462812
89	0x3e6b6e16	0.22991213
90	0x3d9c6ec4	0.07638314
91	0xbd5fa78b	-0.05460314
92	0x3e3c6b3b	0.1840028
93	0xbd15b228	-0.036546856
94	0x3dc13348	0.09433609
95	0xbd2831b8	-0.04106304
96	0xbde39bd0	-0.11113703
97	0xbdee4a60	-0.1163528
98	0x3e163f35	0.14672549
99	0xbe3dc8f6	-0.18533692
100	0x3e2cbedf	0.16869687
101	0x3e0b6add	0.13614984
102	0xbdf6ba04	-0.120471984
103	0x3e69d042	0.2283335
104	0x3e3f90f8	0.18707645
105	0x3e005908	0.12533963
106	0xbe4aef3b	-0.19817822
107	0xbe102854	-0.14077884
108	0xbd4429f8	-0.047891587
109	0xbe5eb900	-0.2175026
110	0xbdb336a2	-0.08750655
111	0x3c10be71	0.008834467
112	0x3c1bb53c	0.009503659
113	0x3e718538	0.23585975
114	0x3e26aad0	0.16276097
115	0xbe127ea8	-0.14306128
116	0x3eb0973c	0.34490383
117	0xbdb6900c	-0.089141935
118	0x3d977d1a	0.07396908
119	0x3e061c6c	0.1309678
120	0x3e7db922	0.24777654
121	0x3d35f9e8	0.044427782
122	0xbd8ebc90	-0.06969559
123	0x3e26ff7d	0.16308399
124	0x3e489717	0.19588886
125	0xbe1ae126	-0.1512495
126	0x3e55979a	0.20858613
127	0x3e52b7b0	0.20577884
128	0x3dadea20	0.084919214
129	0x3e47e6e6	0.19521675
130	0xbd8187a8	-0.063247025
131	0xbe622cf6	-0.22087464
132	0x3da74ce3	0.08168962
133	0x3e6c6947	0.23087035
134	0x3b51a300	0.0031988025
135	0xbe47caa8	-0.19510901
136	0x3e0313c2	0.12800506
137	0x3e418d12	0.1890147
138	0xbe6e13ee	-0.2324979
139	0x3e170b2d	0.14750357
140	0xbb1d2100	-0.0023975968
141	0xbdeef86d	-0.11668477
142	0x3dc86b77	0.09786122
143	0x3e4cf171	0.20013978
144	0xbc9d9935	-0.019238094
145	0xbe715b0a	-0.23569885
146	0xbe47c806	-0.19509897
147	0x3e7f108c	0.24908656
148	0x3e89353a	0.2679842
149	0x3de4ae0b	0.111660086
150	0xbc6bff2b	-0.0144040985
151	0x3e2e28bc	0.17007726
152	0x3d832b9f	0.064048044
153	0xbcfab900	-0.030605793
154	0x3d9c456c	0.07630429
155	0x3e1cee08	0.15325177
156	0xbe747a91	-0.2387488
157	0xbcf8bbf0	-0.030363053
158	0xbdf729c4	-0.12068513
159	0x3e5d5670	0.21615005
160	0xbe5e7000	-0.21722412
161	0xbd1e1bd6	-0.038600765
162	0xbe1fac9f	-0.15593193
163	0xbd9dca87	-0.07704645
164	0x3e317983	0.1733151
165	0xbc5a4edb	-0.013324465
166	0x3e21eb96	0.15812525
167	0xbdb07a20	-0.086170435
168	0x3e6f9e45	0.23400219
169	0xbc9c1390	-0.019052297
170	0xbd10cceb	-0.035351675
171	0x3d642d39	0.05570719
172	0x3d9fa2c4	0.07794717
173	0x3e25de68	0.16198123
174	0x3e2ac330	0.1667602
175	0x3dac68f3	0.08418455
176	0xbc171fb6	-0.009223869
177	0x3dfe83f3	0.12427511
178	0xbe6f38f2	-0.23361567
179	0xbe058020	-0.13037157
180	0x3e2b368f	0.16720031
181	0x3da9164a	0.082562044
182	0xbe1a6d5b	-0.15080778
183	0x3e52e57a	0.20595351
184	0x3e197d87	0.14989291
185	0x3e526612	0.20546749
186	0x3dc74834	0.097305685
187	0x3d5e85cd	0.05432682
188	0x3e798738	0.24367988
189	0x3dd4054c	0.10352573
190	0xbda6930e	-0.08133517
191	0x3e25b2ea	0.16181532
192	0xbdd266b8	-0.10273498
193	0x3d8ee541	0.069773205
194	0x3e923e85	0.28563324
195	0xbbc3ea35	-0.0059788474
196	0x3e73825e	0.237802
197	0x3d53f72c	0.051749393
198	0xbe2d5bce	-0.16929552
199	0x3e6364b4	0.22206384
200	0x3e0d4314	0.1379512
201	0x3e2d519c	0.16925663
202	0xbd91e8ef	-0.07124507
203	0xbd5959f1	-0.05306429
204	0x3d9d5cc8	0.07683712
205	0xbe3ad92f	-0.18246911
206	0x3c563275	0.013073553
207	0x3bea6432	0.0071530575
208	0x3cfc0c22	0.030767504
209	0xbe11e190	-0.14246202
210	0x3e6b5756	0.22982535
211	0x3dfaeb94	0.12251964
212	0x3e7f5c93	0.24937658
213	0x3e62fad6	0.22165999
214	0x3e2a2dfb	0.16619103
215	0x3e3179ca	0.17331615
216	0xbc18a472	-0.009316551
217	0x3dd131ac	0.10214552
218	0x3db95eb2	0.09051265
219	0x3daa2317	0.08307474
220	0xbdbce0c1	-0.09222556
221	0x3d1ee128	0.038788944
222	0xbd305394	-0.043048456
223	0x3e665430	0.22493052
224	0xbe4bcba6	-0.19901904
225	0x3e15d837	0.1463326
226	0xbe55d09e	-0.20880362
227	0x3e7e771a	0.24850121
228	0xbda7d888	-0.08195597
229	0x3e4d4211	0.20044734
230	0x3def0c34	0.116722494
231	0xbe20c0b0	-0.15698504
232	0xbda3d0b3	-0.079987906
233	0xbe1f4f9e	-0.15557715
234	0x3de708ad	0.11280952
235	0xbe417e2b	-0.18895786
236	0x3e10aa3e	0.14127442
237	0x3e3cf54d	0.1845295
238	0xbdf4934d	-0.11942158
239	0xbe6131b6	-0.2199162
240	0xbe6cbb2b	-0.23118274
241	0xbdfe9cec	-0.12432274
242	0xbd92f858	-0.07176274
243	0x3c23dce0	0.010001391
244	0x3e33d198	0.17560422
245	0x3e3d8f7b	0.18511765
246	0x3e64161b	0.22274058
247	0xbe307b82	-0.17234614
248	0x3e04396b	0.12912528
249	0x3c594420	0.013260871
250	0xbde6fc50	-0.112785935
251	0xbe1966d8	-0.14980638
252	0xbe7611bd	-0.24030204
253	0x3d59c5b0	0.053167045
254	0xbd4a4f12	-0.049391814
255	0xbe48f034	-0.1962288

lstm1_1.weight_hh_l0_reverse f4 [64, 16]
0	0xbde1dedd	-0.11028836
1	0x3e73d62d	0.2381217
2	0x3d9e9848	0.07743889
3	0xbdbd5d7a	-0.09246345
4	0x3e72e9d6	0.23722014
5	0x3e8c5445	0.27408043
6	0x3b3405d2	0.002746929
7	0xbe58569f	-0.21126793
8	0xbe34c3ac	-0.17652768
9	0xbbb0fb4d	-0.005401051
10	0x3e2547ec	0.16140717
11	0xbdc6f703	-0.097150825
12	0xbe894d2e	-0.26816696
13	0x3d20e9a1	0.039285306
14	0xbe8c152c	-0.27359903
15	0xbd6c930b	-0.05775742
16	0xbd832e47	-0.06405311
17	0x3defad17	0.11702936
18	0xbc85e151	-0.01634279
19	0x3e83fadf	0.25777337
20	0xbd9cb088	-0.07650858
21	0x3ca70161	0.0203864
22	0x3e57ce90	0.21074891
23	0xbe59d831	-0.21273877
24	0xbe745789	-0.23861517
25	0xbe753378	-0.23945415
26	0xbc93d218	-0.018044516
27	0x3cbf68a3	0.023365324
28	0xbe684f6e	-0.2268655
29	0x3e571bf4	0.21006757
30	0xbe622c03	-0.22087102
31	0xbdc93633	-0.09824791
32	0x3ded6616	0.11591737
33	0x3db7000e	0.08935557
34	0x3e5d4f2b	0.21612231
35	0xbe4e0a40	-0.20121098
36	0xbe412b14	-0.18864089
37	0x3d7ded53	0.061993908
38	0xbe16b6f2	-0.14718226
39	0x3dc31e63	0.0952728
40	0x3e12d44b	0.14338796
41	0x3e06387e	0.13107488
42	0x3e296f59	0.16546382
43	0x3e5e6e97	0.21721874
44	0x3d093846	0.033500932
45	0x3e0ae108	0.13562405
46	0x3dc7a803	0.097488426
47	0xbcecb807	-0.028896345
48	0xbeb5c033	-0.354982
49	0x3e65a980	0.2242794
50	0x3d83efbc	0.0644221
51	0xbe68e0d6	-0.22742018
52	0xbdfb4c6f	-0.12270438
53	0xbe4848be	-0.19558999
54	0xbe8911ab	-0.26771292
55	0xbd81e10f	-0.06341755
56	0x3e5ac7cb	0.21365277
57	0x3e05a9ad	0.13053007
58	0xbe2caa19	-0.16861762
59	0x3e4c8e63	0.19976191
60	0xbe3950ba	-0.18097201
61	0x3d3b1e81	0.045683388
62	0xbdf8bdbf	-0.12145566
63	0x3e6c4779	0.2307414
64	0x3d835d67	0.064142995
65	0xbdddfe9a	-0.10839577
66	0xbe9d9174	-0.30775034
67	0x3b716f3f	0.003683999
68	0xbd8798bc	-0.06620929
69	0xbe6a24c5	-0.22865589
70	0x3e35c68d	0.17751522
71	0xbe3b9f3e	-0.18322465
72	0xbc14598d	-0.009054554
73	0xbd075d1f	-0.03304779
74	0x3e5ba1c1	0.21448423
75	0xbe1d879d	-0.15383764
76	0x3e15b7c2	0.1462088
77	0x3e40c9b2	0.1882694
78	0x3d99630c	0.07489595
79	0xbd3fcffb	-0.046829205
80	0xbe23abfd	-0.15983577
81	0x3d232d50	0.039838135
82	0xbe28e775	-0.16494544
83	0x3e21b1b0	0.15790439
84	0xbe3c9cbb	-0.18419163
85	0xbe2f2bb7	-0.1710652
86	0x3e276fc0	0.16351223
87	0x3e033258	0.12812173
88	0xbc4829e2	-0.012217017
89	0xbc115d06	-0.008872276
90	0xbe0e43ce	-0.13893053
91	0x3d6844d4	0.056706265
92	0x3db1e58e	0.08686362
93	0xbe10e20d	-0.14148732
94	0x3cdbdfdb	0.026840141
95	0xbdf7d700	-0.12101555
96	0x3e0aa8cc	0.13540953
97	0x3e601ea8	0.21886694
98	0xbe6cbd80	-0.23119164
99	0x3d99541d	0.074867465
100	0x3e2e56ee	0.17025349
101	0xbde010c4	-0.10940698
102	0xbc884511	-0.016634496
103	0xbe4bc46e	-0.1989915
104	0x3e5f197f	0.2178707
105	0xbe28520e	-0.16437551
106	0x3e79c1f9	0.24390401
107	0xbde54143	-0.11194088
108	0x3e8ae765	0.27129665
109	0x3db9a1bf	0.09064054
110	0xbc91e392	-0.01780871
111	0x3e191f4e	0.14953348
112	0x3d7513bd	0.059833277
113	0x3da6354a	0.08115633
114	0xbc229749	-0.0099237645
115	0xbe02e6c2	-0.1278334
116	0x3bd8884d	0.006608045
117	0xbe16fc17	-0.14744602
118	0xbe394165	-0.18091352
119	0x3e793e26	0.24340114
120	0xbe7a4c50	-0.24443173
121	0x3e44d631	0.19222333
122	0xbdd533a2	-0.10410239
123	0x3d591678	0.052999943
124	0xbe3523eb	-0.17689483
125	0xbe5e7df2	-0.21727732
126	0xbe1a769d	-0.1508431
127	0x3e62ca46	0.22147474
128	0x3e4160c1	0.18884565
129	0x3dbbc811	0.09169019
130	0xbe45eb0f	-0.19327949
131	0xbdabd560	-0.083903074
132	0x3e68b36e	0.22724697
133	0xbe1c1b3e	-0.15244767
134	0x3e498a19	0.19681586
135	0xbdbe9c42	-0.093071476
136	0xbe450d6e	-0.19243404
137	0xbd7c8dca	-0.061658658
138	0xbde164c6	-0.11005549
139	0xbe1f5113	-0.15558271
140	0x3dfdb70e	0.123884305
141	0x3d66ec07	0.056377437
142	0xbd63dff0	-0.055633485
143	0x3dc55117	0.09634607
144	0x3dff29a7	0.124591164
145	0xbe02137d	-0.12702747
146	0x3db9d081	0.09072972
147	0xbd8dec77	-0.06929868
148	0x3e63073b	0.22170727
149	0xbd8988bd	-0.06715534
150	0xbdb64921	-0.08900667
151	0xbd81965b	-0.06327506
152	0x3e04c978	0.12967479
153	0xbd4f2d8d	-0.05058055
154	0x3e5edc2b	0.21763675
155	0xbd0fdca5	-0.035122532
156	0xbe0ca74b	-0.13735692
157	0xbba63bb9	-0.0050730375
158	0x3a84bb38	0.0010126596
159	0xbdaca2b5	-0.084294714
160	0xbdd5dd26	-0.10442571
161	0x3e21025c	0.15723556
162	0xbd6150a0	-0.05500853
163	0x3d9b8c78	0.07595152
164	0xbd30d6c1	-0.043173555
165	0xbdc89874	-0.09794703
166	0xbe507413	-0.20356779
167	0xbe6d7a39	-0.23191155
168	0x3e004b0c	0.12528628
169	0xbdabe3e7	-0.08393078
170	0x3e2973f4	0.16548139
171	0xbe8601f8	-0.26173377
172	0xbd97d761	-0.07414127
173	0xbe350ba3	-0.1768022
174	0x3e1ddbc5	0.15415867
175	0xbe09e51d	-0.13466306
176	0xbe4c1a07	-0.19931804
177	0xbdcedcb8	-0.101006925
178	0xbd439ada	-0.0477551
179	0xbcc189f5	-0.023625353
180	0x3dd90856	0.10597293
181	0x3e0f0c5b	0.13969557
182	0xbe098f2d	-0.13433523
183	0xbd63cbc3	-0.055614244
184	0x3e2285eb	0.15871398
185	0x3e567ff1	0.20947243
186	0xbe3b26bd	-0.18276496
187	0xbdb428ae	-0.087968215
188	0x3cbd0de2	0.023077909
189	0x3e58ea8f	0.21183227
190	0x3e0f3736	0.13985905
191	0x3dae960b	0.08524712
192	0xbd7f67c6	-0.062354825
193	0xbe762124	-0.2403608
194	0x3b05d0ac	0.0020418568
195	0xbc9c0ecd	-0.019050026
196	0x3bd8f596	0.006621073
197	0x3e48bc0a	0.19602981
198	0x3db1ed3c	0.08687827
199	0x3e413b2a	0.18870226
200	0xbe2dea2f	-0.16983865
201	0xbc93b502	-0.018030647
202	0xbd34e9ed	-0.0441684
203	0xbdcd11b5	-0.10013143
204	0x3cf21063	0.02954883
205	0x3e2ec5ae	0.17067596
206	0xbd40c230	-0.04706019
207	0xbd55688a	-0.05210165
208	0xbe5ee01c	-0.21765178
209	0xbe277caf	-0.16356157
210	0x3e47c836	0.19509968
211	0xbe27ab6c	-0.16373986
212	0xbd97d84b	-0.074143015
213	0x3da0134e	0.07816182
214	0x3bd34c32	0.006448292
215	0x3e76e6dc	0.24111503
216	0xbbc37fed	-0.0059661777
217	0x3e01eaec	0.12687272
218	0xbe24f77c	-0.16110033
219	0x3e1ece9d	0.15508504
220	0xbe04b86c	-0.12960976
221	0xbe30166a	-0.1719605
222	0x3e372bd1	0.17887808
223	0x3e2b1216	0.16706118
224	0xbe84e5b6	-0.25956506
225	0xbea0f4cd	-0.31436768
226	0xbda5d2cf	-0.08096849
227	0xbe41249f	-0.18861626
228	0x3dc2f93d	0.09520195
229	0xbd26e45e	-0.04074513
230	0xbe288d9a	-0.16460267
231	0x3cae1a80	0.02125287
232	0xbc66ba9f	-0.01408258
233	0xbb4d65c5	-0.0031341177
234	0xbe64c27e	-0.22339818
235	0x3dc96fb7	0.09835761
236	0xbd42ddd9	-0.04757485
237	0x3d031049	0.031997953
238	0x3d95d84a	0.073166445
239	0x3d5ce68a	0.053930797
240	0xbd8d64db	-0.06904002
241	0x3e1c93b8	0.15290725
242	0xbd2c0486	-0.0419965
243	0x3e10165c	0.1407103
244	0x3d68bc0c	0.05681996
245	0x3c3ff553	0.011716205
246	0x3e0e61b5	0.1390446
247	0x3d51b000	0.051193237
248	0x3cfd5220	0.03092295
249	0x3d619a73	0.055078935
250	0xbd2ae5b8	-0.041722983
251	0x3e0cb82b	0.1374213
252	0xbe7782f3	-0.24171047
253	0xbdc5c506	-0.0965672
254	0xbd3fb678	-0.046804875
255	0x3e2bfdb8	0.16796005

lstm1_1.bias_ih_l0_reverse f4 [64]
0	0x3e27b409	0.16377272
1	0x3e274c53	0.16337709
2	0x3d81c97e	0.0633726
3	0xbe43b0c6	-0.19110402
4	0xbe013d03	-0.1262093
5	0x3e619179	0.2202815
6	0x3db7609f	0.08953976
7	0x3e0a2c33	0.13493423
8	0x3e44c780	0.19216728
9	0x3c1a5c28	0.009421386
10	0x3e5a179c	0.21298069
11	0x3d94de30	0.072689414
12	0x3d81373f	0.063093655
13	0xbdc5ff11	-0.09667791
14	0x3e25f6f0	0.1620748
15	0x3dccf188	0.10007006
16	0xbd3190e3	-0.043351065
17	0x3e63976b	0.2222573
18	0xbe270ce3	-0.1631351
19	0x3ca9fce2	0.020750467
20	0x3d90359d	0.07041476
21	0xbe5aad5c	-0.21355194
22	0x3e402566	0.18764266
23	0xbe26f6d6	-0.16305098
24	0xbe4cd4ea	-0.20003095
25	0x3e36fd1d	0.17869993
26	0xbc30f809	-0.010801324
27	0xbc07dac5	-0.008291905
28	0x3db05c03	0.086113
29	0xbc363ca6	-0.011122858
30	0xbe1205d8	-0.14260042
31	0x3e856375	0.26052442
32	0x3aeb950c	0.0017973497
33	0xbe1c9781	-0.15292169
34	0xbdae5b33	-0.085134886
35	0xbe480c05	-0.19535835
36	0xbe149b19	-0.1451229
37	0x3e47448c	0.19459742
38	0x3e1b9570	0.15193725
39	0xbd9844c8	-0.07434994
40	0x3c7036cd	0.014661503
41	0x3d483b76	0.04888483
42	0xbc305d30	-0.010764405
43	0xbda1b8be	-0.07896565
44	0xbd9a6606	-0.07538991
45	0xbdcd8713	-0.10035529
46	0xbd4efaea	-0.05053226
47	0xbcdc3bd7	-0.026884003
48	0x3e0461a5	0.12927873
49	0x3d99f460	0.07517314
50	0xbd95948f	-0.07303726
51	0x3db71a60	0.089405775
52	0x3e3db632	0.18526533
53	0x3cd28088	0.025696054
54	0xbe55df4b	-0.20885961
55	0x3cdff0a0	0.027336419
56	0x3dc4bfc4	0.09606889
57	0x3c36ef61	0.011165471
58	0x3e1242de	0.1428332
59	0xbe610c61	-0.21977378
60	0x3cdd89c6	0.027043235
61	0xbdb20cd9	-0.08693857
62	0x3e52e5da	0.20595494
63	0x3ce3e903	0.02782107

lstm1_1.bias_hh_l0_reverse f4 [64]
0	0x3e8685fd	0.262741
1	0x3e512955	0.20425923
2	0x3e3e54c4	0.18587023
3	0x3e6a8204	0.2290116
4	0x3e18b253	0.14911775
5	0xbe2376ed	-0.15963335
6	0x3e1206a5	0.14260347
7	0x3e504e6f	0.2034242
8	0x3d3006b2	0.042975135
9	0x3e0fa598	0.14028013
10	0xbcfc7527	-0.030817581
11	0x3dac3914	0.08409324
12	0xbda39b7e	-0.07988642
13	0x3de4b62f	0.11167561
14	0x3e0c9403	0.13728337
15	0x3e816b57	0.25277206
16	0x3ebc1461	0.36734298
17	0x3dd25654	0.10270372
18	0xbe43ac01	-0.19108583
19	0x3e47d901	0.19516374
20	0xbc5455a1	-0.012959869
21	0x3e2fa082	0.17151073
22	0x3d898ee1	0.06716705
23	0x3e3bcfda	0.18341008
24	0x3e4b2b5c	0.19840759
25	0x3e3fd88d	0.18734951
26	0x3e382c72	0.17985705
27	0x3c657fc2	0.014007511
28	0x3c7e7e49	0.015533038
29	0xbe5d7aec	-0.21628922
30	0x3e798fc2	0.24371246
31	0x3e91bae5	0.28462902
32	0x3d4291ae	0.047502212
33	0xbd5bf2ae	-0.053698234
34	0x3e674a33	0.22586899
35	0x3df34be8	0.11879712
36	0xbe6a4be9	-0.2288052
37	0x3c34d1e8	0.011036374
38	0xbc0efa80	-0.008726716
39	0xbe00264f	-0.12514614
40	0x3e4cb565	0.19991072
41	0x3e497c62	0.19676355
42	0x3e102882	0.14077953
43	0x3e6ee71d	0.2333035
44	0xbe81fee3	-0.25389776
45	0x3e3c0c95	0.18364175
46	0xbe188d51	-0.14897658
47	0xbe2bd684	-0.1678105
48	0x3e94f6da	0.29094583
49	0x3cd170a8	0.025566414
50	0xbddf4d19	-0.10903377
51	0xbcdb2553	-0.026751196
52	0x3da295d6	0.07938735
53	0x3e7f0a58	0.2490629
54	0xbe1131a4	-0.14179093
55	0x3e5a7c03	0.21336369
56	0x3d103586	0.035207294
57	0xbd58a8f5	-0.052895505
58	0x3dd0a3d4	0.10187498
59	0x3e0e5d97	0.13902889
60	0x3dbcc480	0.09217167
61	0xbddd6689	-0.10810573
62	0xbd0675e8	-0.032827288
63	0x3e52af15	0.20574601

lstm1_2.0.weight f4 [32, 32]
0	0xbcecb075	-0.028892735
1	0xbd14f23a	-0.036363818
2	0x3d4abc9a	0.04949627
3	0xbd9c700b	-0.07638558
4	0x3dc3f71d	0.095686175
5	0x3e125c63	0.14293055
6	0x3e27e86c	0.16397256
7	0xbd431979	-0.047631714
8	0xbcb4b1cb	-0.022057435
9	0x3e1100f7	0.14160524
10	0xbdff3e39	-0.1246304
11	0xbd83cb17	-0.06435221
12	0x3d0c8d69	0.034314547
13	0x3c870c34	0.016485311
14	0x3df6a5f7	0.12043374
15	0xbdf4b40d	-0.119484045
16	0xbdddab57	-0.10823696
17	0xbd3df316	-0.046374403
18	0x3cddc5ba	0.027071822
19	0xbd5e3167	-0.054246332
20	0xbd866f4d	-0.06564198
21	0xbc94ca47	-0.01816286
22	0x3d588cb3	0.052868556
23	0xbb715c6d	-0.0036828772
24	0x3be8bcfd	0.0071026073
25	0x3de4d52a	0.1117347
26	0x3e15ab53	0.14616136
27	0x3e0116db	0.12606375
28	0xbc23f8eb	-0.010008077
29	0xbd4d76d2	-0.050162144
30	0xbe288f1d	-0.16460843
31	0x3e181da9	0.14855064
32	0x3dec7605	0.11545948
33	0xbe3d4994	-0.18485099
34	0xbe18463a	-0.1487054
35	0x3e1fdf90	0.15612626
36	0xbe13c360	-0.14429998
37	0xbd86b661	-0.06577755
38	0x3e2fb21a	0.17157784
39	0xbdc8a3a9	-0.09796841
40	0x3e3a403a	0.18188563
41	0xbe02ad88	-0.1276151
42	0xbe21be85	-0.15795334
43	0xbe1c174e	-0.15243265
44	0xbd9e34b5	-0.07724897
45	0x3d225294	0.039629534
46	0x3dbac812	0.09120192
47	0x3e16dd97	0.14732967
48	0xbdea577a	-0.11442466
49	0x3c1021c8	0.008797117
50	0x3cbeb691	0.023280414
51	0x3ddceb98	0.107871234
52	0xbbee968e	-0.007281131
53	0x3df3d8bf	0.119065754
54	0x3e1b05c2	0.15138915
55	0xbe04c1ea	-0.12964597
56	0xbe086dc8	-0.13323128
57	0xbe258cea	-0.16167036
58	0x3e16668c	0.14687556
59	0x3dae64f3	0.08515348
60	0x3e1910f1	0.14947869
61	0xbc9804dd	-0.018557006
62	0xbd332ba5	-0.043742795
63	0xbd040d10	-0.03223902
64	0x3e2e999d	0.17050786
65	0x3d07494b	0.033028882
66	0xbd570932	-0.052499004
67	0x3d036995	0.032083113
68	0x3daed11d	0.08535979
69	0xbd0bd6b2	-0.034140296
70	0xbd202aa2	-0.039103158
71	0xbda4a354	-0.08038965
72	0xbdc4713f	-0.095919125
73	0xbdce11bf	-0.100619785
74	0x3ce1ac77	0.027548058
75	0xbe0fe120	-0.14050722
76	0xbe1cd39a	-0.15315095
77	0xbb752ce6	-0.0037410795
78	0x3db24e63	0.08706357
79	0xbda3ea4b	-0.08003672
80	0xbd2bf140	-0.04197812
81	0x3e087f31	0.1332977
82	0xbd960dc8	-0.07326847
83	0x3de25524	0.110513955
84	0x3d13fbc2	0.036128767
85	0xbde6f0a6	-0.11276369
86	0xbdd3b3b9	-0.10337014
87	0x3d627145	0.055283803
88	0xbd9afeb8	-0.07568115
89	0xbde4dd19	-0.111749835
90	0xbe0a8d7f	-0.13530539
91	0x3e0dd833	0.13852005
92	0x3e019bab	0.12657039
93	0x3b917b11	0.0044397195
94	0xbd61276c	-0.054969236
95	0x3ddc1b45	0.10747389
96	0x3d1d06ba	0.038336493
97	0x3dd3c1d8	0.10339707
98	0xbdc692ae	-0.09695946
99	0xbda6924d	-0.081333734
100	0xbe1429bf	-0.1446905
101	0xbda33a6b	-0.07970127
102	0x3ded528e	0.11588012
103	0x3e136db6	0.1439732
104	0x3ddfc40e	0.10926066
105	0x3cea2d43	0.028586036
106	0xbdcb3f47	-0.099241786
107	0xbc28c383	-0.01030052
108	0x3dcb8d20	0.09939027
109	0x3d8bfb17	0.06835001
110	0x3d8a347d	0.067482926
111	0x3d9032af	0.07040917
112	0x3dac4dc2	0.084132686
113	0xbdb074d0	-0.0861603
114	0x3e0635e2	0.13106492
115	0x3e055aa5	0.1302286
116	0x3c572ba1	0.013132961
117	0x3e2068ce	0.1566498
118	0xbe307316	-0.17231402
119	0xbdba8a4e	-0.09108411
120	0xbdde89f7	-0.108661585
121	0xbd88e6cb	-0.06684645
122	0x3d1e833d	0.038699377
123	0xbdcded26	-0.10054998
124	0x3e2501e5	0.16114004
125	0x3dea63dc	0.11444828
126	0xbe55fb0b	-0.20896547
127	0x3d778684	0.06043102
128	0x3d939416	0.072059795
129	0x3dccdbec	0.10002884
130	0xbcb44be9	-0.022008853
131	0x3e0b0b9b	0.13578646
132	0x3da13cc0	0.07872915
133	0xbe0b3c94	-0.13597327
134	0xbe0053c4	-0.12531954
135	0x3db01bc8	0.08599049
136	0x3e1e1e6a	0.1544129
137	0x3df31dcb	0.11870917
138	0xbdc01dd7	-0.093806915
139	0x3c52af5d	0.012859193
140	0xbd211749	-0.039328847
141	0xbe2a743a	-0.166459
142	0x3e15bc93	0.14622717
143	0x3cafe93e	0.021473523
144	0x3d1f2c28	0.03886047
145	0xbd67e515	-0.056614954
146	0x3d1ff5ec	0.03905289
147	0xbdd8cd7f	-0.1058607
148	0x3d1952db	0.037432533
149	0xbd3893ba	-0.045062758
150	0xbdbca1b9	-0.09210534
151	0xbd90d96e	-0.070727214
152	0xbd417a33	-0.04723568
153	0xbd768849	-0.060188565
154	0xbe2f0973	-0.17093448
155	0xbcea86ef	-0.028628794
156	0xbdf749f4	-0.12074652
157	0xbc460082	-0.012085082
158	0xbb7887b3	-0.003792268
159	0xbda0d918	-0.07853907
160	0xbe0338f8	-0.128147
161	0x3dc2ce15	0.09511963
162	0xbde20724	-0.11036518
163	0xbdfc8935	-0.12330858
164	0xbd0ded50	-0.034650147
165	0x3e10ef86	0.14153871
166	0xbde248a7	-0.110490136
167	0xbdc3f01a	-0.0956728
168	0xbdb37d87	-0.08764177
169	0x3e0f24bb	0.13978855
170	0xbd981012	-0.0742494
171	0xbdfa532a	-0.122228935
172	0xbc39e351	-0.0113457
173	0x3c1721f1	0.009224401
174	0x3d8e5bb1	0.069510825
175	0xbdd86e45	-0.10567907
176	0x3dd358ee	0.10319696
177	0xbdc3284a	-0.09529169
178	0xbdd84223	-0.105594896
179	0xbde661cc	-0.11249122
180	0x3b64b628	0.0034898613
181	0xbe17c68e	-0.14821836
182	0x3dc2dfd8	0.09515351
183	0x3dcd8a25	0.100361146
184	0xbda57699	-0.08079261
185	0xbe0c2e3f	-0.13689516
186	0x3d9d758a	0.076884344
187	0x3cae6b4f	0.021291403
188	0x3db5da51	0.08879531
189	0xbba665bc	-0.0050780457
190	0xbe1d409b	-0.15356676
191	0x3d95d08a	0.07315166
192	0xbdbf36f4	-0.09336653
193	0xbde4e80d	-0.11177073
194	0xbcf0ccc7	-0.02939452
195	0xbdc2d682	-0.0951357
196	0x3d7e4fa7	0.06208768
197	0x3a5ff7b3	0.0008543685
198	0xbd84815b	-0.06469985
199	0x3db5e317	0.088812046
200	0xbe390951	-0.1806996
201	0x3dde4c86	0.108544394
202	0xbe0fc8f1	-0.14041497
203	0x3e36728a	0.1781713
204	0xbe3b2fdf	-0.1827998
205	0x3d13f710	0.03612429
206	0xbd2b2df7	-0.041791882
207	0xbdd49545	-0.103800334
208	0x3e1f491d	0.15555234
209	0x3e025ee4	0.1273151
210	0x3d790b5c	0.06080185
211	0xbd485cbe	-0.04891657
212	0xbe042833	-0.1290596
213	0x3c2b9314	0.010472078
214	0xbdf85f6b	-0.121275745
215	0xbc36d69e	-0.011159567
216	0xbbba2010	-0.0056800917
217	0xbe2d5ad4	-0.1692918
218	0x3e0e6343	0.13905053
219	0x3c263a74	0.010145772
220	0x3e39b476	0.18135247
221	0xbda9ea28	-0.08296615
222	0xbe047f73	-0.12939243
223	0x3da7f9a3	0.08201911
224	0x3e19e432	0.15028456
225	0x3df3da8b	0.11906918
226	0x3e2ac92e	0.16678306
227	0x3dcb3927	0.0992301
228	0xbdd87841	-0.105698116
229	0xbe19338e	-0.14961073
230	0xbde7182d	-0.11283908
231	0xbda8cf24	-0.08242634
232	0x3ded4427	0.11585265
233	0xbd5235c0	-0.05132079
234	0xbb3f672e	-0.0029205787
235	0x3d894ea4	0.06704453
236	0x3e1683db	0.14698736
237	0xbe0e680d	-0.1390688
238	0xbde39b5c	-0.11113617
239	0x3d33223f	0.04373383
240	0xbd99937a	-0.07498832
241	0xbd592ac4	-0.0530193
242	0x3daa64ac	0.08319983
243	0xbe1ac91e	-0.15115783
244	0xbded9693	-0.116009854
245	0xbdcfa815	-0.10139481
246	0x3d47e88b	0.048805755
247	0x3daa1972	0.083056346
248	0xbdc4c80c	-0.096084684
249	0x3e234ac3	0.15946488
250	0xbd7786f1	-0.060431425
251	0xbda7eac1	-0.08199073
252	0x3d7d16e8	0.061789423
253	0xbc9da728	-0.019244745
254	0x3d1d5f36	0.03842088
255	0x3e342c8e	0.17595121
