results/soh_pretraining_ev_data_results/pre_trained_model.pth (torch, 95584 bytes, 27 tensors)

cnn1.0.weight f4 [16, 1, 3]
000000 bf 4b 9e 3e c9 ce 50 be d0 33 44 bd a3 c6 69 be
       0.30917165 -0.20391382 -0.047900975 -0.2282968
000010 d7 07 01 3f e1 e2 52 3e 0f 2b 12 3f f1 0e 3d 3e
       0.5040259 0.2059436 0.5709695 0.18462731
000020 77 b9 75 be f7 4f 80 3e 7d 8a 47 be 57 0b f1 bd
       -0.2399653 0.25061008 -0.19486423 -0.11769741
000030 ef b8 72 3e b4 1d f0 3e fc 8c 47 be d1 bc dd be
       0.23703359 0.46897662 -0.19487375 -0.43308118
000040 a3 1e bd be ac 33 b1 3e f3 5d 14 be d9 de fb 3e
       -0.36937436 0.34609735 -0.14488964 0.49193457
000050 60 df e7 3e cc e5 19 be 8d 18 91 be 7a 2e dc 3e
       0.4528761 -0.15029067 -0.28339043 0.4300421
000060 6f b3 36 bc 8a 45 c3 be a2 55 f6 be 0f ae 02 3f
       -0.011151179 -0.38138992 -0.48112208 0.5104684
000070 85 2e 06 3e 1d 7c 06 be 57 56 9a bd 31 bf b7 be
       0.13103683 -0.13133283 -0.07535999 -0.35888055
000080 d7 6e 80 be e6 00 04 bf 0e b1 62 3e b7 63 0a 3f
       -0.25084564 -0.5156387 0.22137854 0.540584
000090 31 20 b7 3d 0f 26 57 bb e2 e8 5d bd f0 ca 8c 3d
       0.08941687 -0.0032829081 -0.054177172 0.06874645
0000a0 89 d2 25 3f a4 9b 9e 3e 6e 4f f5 bd 4e c9 ca 3e
       0.64774376 0.3097812 -0.11978041 0.39606708
0000b0 f6 8c e1 bc 62 f0 02 3f 3f 60 0c 3f 4f 89 89 3d
       -0.027533036 0.51148045 0.5483436 0.06715643

cnn1.0.bias f4 [16]
000000 6a ed ac bd a9 56 66 be f6 dc bb ba 57 c3 2e be
       -0.08443721 -0.22493996 -0.0014332819 -0.17066704
000010 24 5d 55 be 4f a8 da be 9b ed 96 3e b0 be a3 3e
       -0.20836312 -0.42706534 0.29478154 0.3198142
000020 be ac 09 bf 84 a0 a9 bd 12 9b ae 3e c3 08 92 3d
       -0.5377921 -0.08282569 0.34102684 0.071305774
000030 46 82 f0 be 51 c0 dc be e7 0d 12 3f 24 61 b1 be
       -0.4697439 -0.43115476 0.57052463 -0.34644425

cnn2.0.weight f4 [32, 16, 3]
000000 66 e5 0f 3e c6 c2 01 3e 23 a1 f4 bd e8 af 5f 3e
       0.14052352 0.12671956 -0.11944797 0.21844447
000010 11 19 83 3e 5f 23 93 3e 49 20 3f bc 49 47 78 3d
       0.25605062 0.28737924 -0.011665412 0.060614858
000020 d7 ef d3 3d a2 52 ed 3d 2d f7 df bd fb eb d1 bd
       0.1034848 0.115880266 -0.10935817 -0.10250088
000030 28 60 e1 bd 9d 42 08 3d 8e 48 9d 3d 2e 0c 4a bd
       -0.110046685 0.033266652 0.07679854 -0.04932802
000040 40 01 c4 bd a4 b4 8d bd 5b d0 99 bd 32 ef 9e 3d
       -0.09570551 -0.0691922 -0.07510444 0.07760467
000050 a8 57 bf 3b e5 9f ba 3d a0 b5 8a 3d 03 47 09 be
       0.005839307 0.09112529 0.067729235 -0.13405995
000060 ca 6a bb bd 0c 2c 6c 3c 06 93 88 bd 8f f2 95 bc
       -0.09151228 0.0144147985 -0.066686675 -0.018304138
000070 0f 0e 09 be 4a 19 c9 bd f4 ae 12 3d 5c f3 7d bc
       -0.13384269 -0.09819277 0.03581138 -0.015499916
000080 02 1c 95 3c 8a c6 8c bc 23 8c a2 bd 85 0e 81 3d
       0.018201832 -0.017184515 -0.07936885 0.063015975
000090 11 27 0d 3e 66 b7 b0 bc f1 d5 96 3d d8 b0 bd 3d
       0.13784434 -0.021571826 0.07365025 0.09262246
0000a0 0f 80 35 3e 1d 32 8f 3e f7 8d 44 be f9 06 03 be
       0.17724632 0.2796792 -0.1919478 -0.12795629
0000b0 01 45 83 bd 99 cc 06 3e 40 46 b5 bc 14 19 18 3d
       -0.06409646 0.13163985 -0.022128224 0.03713329
0000c0 3b 9e 4a 3d b8 46 40 bd 6f df 32 bd b0 96 5e bc
       0.049467307 -0.046942443 -0.043670114 -0.013585731
0000d0 92 84 0d 3d 59 04 ab 3d 94 66 a0 3c de cb 00 be
       0.034550257 0.083504386 0.019580163 -0.12577769
0000e0 f9 ac e1 3d d7 dc eb bc 31 d3 e4 3d 94 2e 25 3b
       0.1101932 -0.028791828 0.11173094 0.0025204765
0000f0 8e aa f1 3d 3c 1f 13 3d c4 ef 58 3d 3a 1a aa 3d
       0.11800109 0.03591846 0.052963033 0.083057836
000100 a6 c2 a3 3d dd 06 95 bd da 21 e2 3d 98 2a c8 3d
       0.079961106 -0.072767 0.11041613 0.09773749
000110 02 34 13 be 41 22 e2 bd 5b 75 82 3b 44 51 e4 bd
       -0.14375308 -0.1104169 0.003981275 -0.11148313
000120 25 33 5e bc 56 09 c7 3d 74 ad dc 3d 42 3f 39 bd
       -0.0135619985 0.097185776 0.10775271 -0.045226343
000130 66 2d 02 3e 8a 4d 39 bd aa 7c 57 bd cb 1a fc bd
       0.1271263 -0.045239963 -0.052609123 -0.12309798
000140 74 b0 7e 3c ce e8 cc 3c 45 88 eb bc 7e c0 f5 3d
       0.015544999 0.025013354 -0.028751502 0.119996056
000150 97 de 04 3e 93 25 71 bd b3 67 f0 bc 59 a1 f8 bd
       0.12975536 -0.058873724 -0.029346323 -0.121401496
000160 ee fc 5f bd ee a2 0c bd a7 9c 93 3d 2b 88 aa bd
       -0.054684572 -0.03433507 0.072076134 -0.08326753
000170 1a e4 ab bd d9 d6 31 bd 68 36 f4 bd e1 1a fb 3d
       -0.08393116 -0.043417785 -0.1192444 0.12260986
000180 d7 81 f1 bd c7 14 cb bd 4e 3d 47 bd ba 90 70 3d
       -0.11792343 -0.09916072 -0.04864245 0.058731772
000190 6b 9a b1 bd 6b 0f ae 3d 05 10 ac 3c 9c 13 d8 3d
       -0.08672031 0.084990345 0.021003732 0.10550615
0001a0 8c 5f 03 3e 0a 7a 67 3d 5e 8c e1 bd a3 94 c5 3d
       0.12829417 0.05651287 -0.11013101 0.09647491
0001b0 5a e0 b6 3d c9 59 b4 bd d6 12 bb 3d 72 38 24 bd
       0.089295104 -0.08806188 0.09134452 -0.040092893
0001c0 ec ee 55 bd 1d ca ba 3d 0e ef bf 3d 75 1c 99 bd
       -0.052229807 0.09120581 0.09371768 -0.07476131
0001d0 e5 67 c3 3d 50 76 8b bd 72 b7 d6 3d 57 7a 90 bd
       0.09541301 -0.06809676 0.10484208 -0.070545845
0001e0 c8 b5 6f 3d 46 d1 fe 3d 31 fe 9b 3d e1 f1 da bd
       0.05852297 0.124422595 0.076168425 -0.10690666
0001f0 6b c8 5d 39 00 68 a1 bd 77 47 f9 3d ae 5b 89 bc
       0.00021150864 -0.078811646 0.12171834 -0.01676735
000200 74 88 fe bd c6 10 d1 3b 3d df 7c 3c ad 09 09 3e
       -0.1242837 0.0063801734 0.0154340835 0.13382597
000210 6a c1 06 3e d8 81 0d be b3 37 4e bd ba f5 9f bc
       0.13159719 -0.13819063 -0.050346088 -0.019526351
000220 ed 1d 0f be fa bc 9b 3c 20 f8 35 3d 68 07 67 3c
       -0.1397626 0.01901101 0.044426084 0.014100887
000230 c8 3c c0 bb 4c 75 36 bd 1f 05 91 3d 8a cc 1d bc
       -0.0058666207 -0.044545457 0.07081055 -0.009631285
000240 c1 62 ca bd c5 c9 4d bb d5 75 a0 3d c5 0d 84 3d
       -0.09882117 -0.0031400782 0.07834975 0.06447939
000250 47 a6 fe 3c b7 63 dc bc 52 12 65 bd 83 24 08 3d
       0.031085147 -0.026903016 -0.055925675 0.033237945
000260 f7 ec b9 3d 2d c4 9b bd 84 39 06 be 8c ac 24 3d
       0.090784006 -0.07605777 -0.13107878 0.040203616
000270 38 d4 6d bd 75 25 bd bd 41 7c 14 be 37 52 47 3d
       -0.058063716 -0.0923566 -0.14500524 0.04866239
000280 5c 27 d8 3d 5d 01 e5 bd b3 52 02 be 17 d5 14 bd
       0.10554382 -0.11181901 -0.1272686 -0.03633603
000290 b0 5c 03 be d9 f8 b3 3d f2 36 df bd 94 b3 03 3e
       -0.12828326 0.08787698 -0.10899152 0.12861472
0002a0 16 5e c4 3d 76 28 5a 3c 84 0b d2 bb bf 93 12 ba
       0.09588258 0.013315311 -0.006410064 -0.0005591474
0002b0 24 93 fa bb 8c 9c a9 bd b6 32 f7 3d ae 0f cc bd
       -0.007646935 -0.08281812 0.12070219 -0.09963928
0002c0 0e b0 27 3d 39 3b 88 3d c2 f9 11 be 08 87 09 3d
       0.040939383 0.06651921 -0.14255431 0.03357604
0002d0 13 c1 9d bc db d5 b4 bd 2d 81 26 bd e9 32 9b bd
       -0.019257104 -0.08829852 -0.040650535 -0.0757807
0002e0 ea d3 cc bd 57 d2 03 bd 8f 44 40 3c 6a db 49 bd
       -0.10001357 -0.032183018 0.011735096 -0.049281515
0002f0 86 71 21 3d 44 78 2a bd 88 82 f7 3d a4 3d b3 3c
       0.039414905 -0.0416186 0.12085444 0.021879978
000300 1a e2 9f 3d 7e 31 69 3d 35 95 fb 3d f3 5e d5 3d
       0.07806797 0.056931965 0.12284318 0.10418501
000310 a9 7d d1 bd 4d fc 06 be e2 11 0a be c6 19 0d be
       -0.10229046 -0.13182183 -0.13483384 -0.13779363
000320 c1 a1 03 3e 92 07 be 3d d5 5c 84 bb 75 1d 02 be
       0.12854673 0.09278788 -0.0040393868 -0.1270655
000330 13 69 9a bd fc 19 cb 3c 1d f6 a7 3d 4c 36 a1 bd
       -0.075395726 0.024792664 0.08201239 -0.078716844
000340 95 a2 84 3c f4 02 29 3d c6 86 d4 bd c7 15 c3 3d
       0.016190806 0.041262582 -0.103772685 0.09525638
000350 d6 ce b9 3c d0 1e 07 3e a3 db 4c 3d 82 40 ec bd
       0.022681635 0.13195348 0.05001415 -0.115357414
000360 3b 37 35 3d d5 1c c0 3d 6a f5 0c be 4c e4 f0 3d
       0.044242125 0.09380499 -0.13765493 0.11762294
000370 73 85 01 3d bd d9 09 be ab 9b 7e bb 98 f4 dd 3d
       0.031621408 -0.13461967 -0.003885011 0.10837668
000380 3c 5b da bd db 58 e0 bd 61 30 e1 bd 2a e2 fc 3d
       -0.10661933 -0.10954448 -0.10995556 0.12347825
000390 90 6d 0c bd 9c be a8 3d 06 6d 9d 3d 66 83 04 3e
       -0.034284174 0.08239481 0.0768681 0.1294075
0003a0 3a b6 82 3c ba e5 52 bd 9c b0 da bd f5 2e a0 bc
       0.015956033 -0.051488616 -0.10678217 -0.01955364
0003b0 06 f8 8b bb b3 86 94 bb f0 81 00 be f5 ec ec 3d
       -0.00427151 -0.004532659 -0.12549567 0.115686335
0003c0 27 3a 9d bd 92 67 e0 bd bb cf b3 3d af de 53 3d
       -0.07677107 -0.109572545 0.08779856 0.05172604
0003d0 77 c3 db bb 8b 82 22 bd 18 e8 e0 3d a9 cd 13 bd
       -0.006706651 -0.039675277 0.10981768 -0.036084805
0003e0 39 e1 83 bd 9a dc 2e bd 55 b4 f2 bd c5 c0 e2 bd
       -0.06439442 -0.04269085 -0.11850802 -0.11071924
0003f0 f3 13 90 3d da b7 4b bd 55 7c 9b bd 90 a5 a0 3d
       0.07035055 -0.04973588 -0.07592074 0.078440785

cnn2.0.bias f4 [32]
000000 35 d6 9d 3b d8 7d 82 bd 74 df f8 bd d3 8f 72 3d
       0.0048167952 -0.06371659 -0.12151995 0.059219193
000010 3a 7a 76 bd e8 6c c5 bd 1f 5d 3e 3c 9d 4b 30 3d
       -0.060175158 -0.09639913 0.0116188815 0.04304086
000020 52 ca 76 bd 6d b8 cc 3d c0 4b 97 bc a0 6d 06 3e
       -0.06025154 0.09996114 -0.018468738 0.13127756
000030 20 2b f5 bd c9 ce 4f bd 8c ae fe 3d b4 d1 31 bd
       -0.11971116 -0.050734315 0.12435636 -0.04341288
000040 9c b8 ac 3d 39 b0 ec 3d 05 d0 fb 3d 09 19 ae 3d
       0.08433649 0.11557049 0.12295536 0.08500869
000050 e1 d9 e9 bc cc 19 1a 3e 06 d2 77 bd eb 20 40 3d
       -0.028546276 0.15048903 -0.06050303 0.046906393
000060 b6 b5 f3 bd 92 e6 55 bc 56 64 cb 3d 91 0e a3 3c
       -0.11899893 -0.0130554605 0.09931247 0.019904407
000070 87 c2 99 bd 71 f1 0f be e9 7e 8c bd 5e f7 c5 3d
       -0.07507806 -0.14056946 -0.06860144 0.09666322

lstm1_1.weight_ih_l0 f4 [64, 32]
000000 f9 d1 31 be 40 55 c9 bd 0a 6b 11 bd 7c a4 53 bd
       -0.17365254 -0.09830713 -0.03550247 -0.051670536
000010 68 a6 6d be ac 18 eb 3d 1d 28 41 be f0 c1 b0 bc
       -0.2320801 0.11479315 -0.18862958 -0.021576852
000020 c0 bd 37 3c 7b e3 05 3c 8b 9c dd bd 64 89 81 3e
       0.0112146735 0.008171911 -0.10820874 0.25300133
000030 c0 07 82 bb aa fc ba bd cc ac c4 3d 6a 6a 04 be
       -0.003968209 -0.09130223 0.09603271 -0.12931219
000040 a8 21 a9 bc 38 20 60 be 35 2a 00 3e 69 1c ba 3d
       -0.020645931 -0.2188729 0.125161 0.0908745
000050 1c 16 a4 3c b1 58 66 3d 95 1f 37 be f2 1d c0 3c
       0.020030074 0.056236926 -0.17883141 0.023451779
000060 4e 54 c8 3d a6 8f 07 3e 32 b9 6d 3c 80 38 49 be
       0.09781705 0.13238391 0.014509486 -0.1965046
000070 c8 7a 6e 3e 48 f8 6d be 5b 9b cb bd 1b 8a 97 bd
       0.23289025 -0.23239243 -0.09941741 -0.073993884
000080 97 14 43 be b6 ea d6 bd 42 89 df 3c d1 02 4b 3d
       -0.19050823 -0.10493986 0.02728713 0.049563233
000090 9b b7 c5 3d 74 12 fc bd ac 58 aa bd 14 d4 5b be
       0.096541606 -0.12308207 -0.08317694 -0.2146762
0000a0 a6 d1 00 3d ce 85 8b 3c ee b4 08 be d3 94 37 bd
       0.031449936 0.017031576 -0.13350269 -0.044819664
0000b0 ce 4b 5f be 85 5c 20 be df 68 40 be ec f1 cc bd
       -0.21806261 -0.15660293 -0.18790005 -0.100070804
0000c0 37 28 0d be c9 c5 93 bd c8 89 31 3e ef a8 69 3d
       -0.13784872 -0.07215459 0.17337716 0.057045873
0000d0 a8 e4 c1 3d 0b 28 e5 3d f2 09 83 3e 23 29 17 3d
       0.09467441 0.11189278 0.25593525 0.036904465
0000e0 76 a1 e7 3d b8 1a 73 3d 5b 5d ff bc 13 35 31 bb
       0.11310093 0.059351653 -0.031172445 -0.0027039691
0000f0 3b 57 54 bd 9b 68 a5 bd 51 84 eb bc 56 8e 40 3e
       -0.051841002 -0.080765925 -0.028749617 0.18804297
000100 b2 ab 85 3c 69 f5 a4 3c 0f ef 8d 3d 2a bd b8 bd
       0.016317222 0.020136552 0.069303624 -0.09020455
000110 47 7a d7 3c ca 33 4e 3e 1b 25 81 3e 4c 06 ab 3d
       0.026303424 0.20136943 0.25223622 0.083508104
000120 37 7c 69 3e a7 63 37 3e 49 30 22 be 1a e2 93 bd
       0.2280129 0.17909108 -0.15838732 -0.0722086
000130 10 45 6f 3d 47 cd 59 bc 1e b0 00 3e 12 a9 41 be
       0.058415473 -0.013293571 0.12567183 -0.18912151
000140 e5 04 32 be 0f f0 09 be a1 b2 08 be 09 39 3f bd
       -0.1738468 -0.13470481 -0.13349392 -0.046685252
000150 5a 14 e4 3d 2f 78 92 bc 7e 0b 06 be 92 0b 35 bd
       0.11136694 -0.017879574 -0.13090321 -0.044200487
000160 8b db 26 be 9c ed f5 3d 74 1d 04 bd 44 86 0f 3d
       -0.16294686 0.12008211 -0.03225465 0.035040155
000170 f5 06 f3 3d b2 41 68 be 5d 83 9d 3d c7 ae 51 be
       0.11866561 -0.22681311 0.07691071 -0.20476829
000180 12 c6 0e be 1a 4c 79 3e 58 f4 cf 3c cb 17 b6 3d
       -0.13942745 0.24345437 0.025385067 0.08891257
000190 2d eb e3 bd 74 c4 5a be 38 ed 67 3e 70 16 07 3e
       -0.111288406 -0.21364003 0.22649086 0.13192153
0001a0 04 3a 8a 3b a6 fd 39 3c ed 25 29 be c2 3d 85 bd
       0.004218342 0.011351978 -0.16518374 -0.0650592
0001b0 d4 e6 40 be 87 f5 0e 3e fb 49 3e be 4c 2f 32 3e
       -0.18838054 0.13960849 -0.18582909 0.17400855
0001c0 c0 ae 5b be 1a aa 5e 3e 55 5e 52 3e 49 65 6a be
       -0.2145338 0.21744576 0.20543797 -0.228902
0001d0 7a d5 9c bd 4e ac 2b 3d fc 25 80 3e e8 1b 34 be
       -0.07657905 0.04191237 0.2502898 -0.1758877
0001e0 8e 37 e7 bd 20 33 ed bc 19 f7 6a be 10 ee 68 3e
       -0.11289893 -0.028955042 -0.22945823 0.22747064
0001f0 53 dc 49 3e 28 ec 5a be 9d bc 2f 3e 54 a8 62 3e
       0.19712953 -0.21379149 0.17161794 0.22134525
000200 9c 1a 36 be ff 2c 8e bd 94 9e 41 3e 2b 14 17 3e
       -0.17783588 -0.06942176 0.18908149 0.14753787
000210 8a 3b 9b 3c 90 c8 43 be 5f f0 0d bd 9e 53 09 3e
       0.018949289 -0.19119477 -0.034653064 0.13410804
000220 ff 41 76 3e 62 9b 71 3d 41 3c c2 3c 14 08 8f 3e
       0.24048613 0.058986075 0.023710372 0.2793585
000230 24 d0 35 be 8d cf c8 3d 10 93 64 3e d0 20 44 be
       -0.1775518 0.09805212 0.22321725 -0.19153142
000240 b6 c7 48 3e b1 3b 53 bd 33 bb 55 3e de a6 0f 3e
       0.19607434 -0.051570598 0.20872192 0.14028499
000250 78 48 4d 3d bb 1d ce 3d 49 3a 6d bc 65 34 96 3e
       0.05011794 0.100642644 -0.014479228 0.2933685
000260 04 92 32 3e ea c2 17 3e d0 ad fc 3d c6 a7 33 3e
       0.17438513 0.14820448 0.123378396 0.17544469
000270 65 e4 73 3e ce c6 7d 3b 9e cd aa bd f6 08 ac 3d
       0.23817594 0.0038723233 -0.083399996 0.08400147
000280 60 48 ca bc b0 bf 8a bd 00 3c 63 be eb 33 58 be
       -0.024692714 -0.06774843 -0.22190857 -0.21113555
000290 ba 96 53 3e 16 ca 18 be cf d5 3f be 50 65 6f be
       0.20662966 -0.1492084 -0.18733905 -0.23378491
0002a0 61 9d 4d 3e 29 4d ce bd 6c 3d fc 3d d5 1c 05 3e
       0.20079567 -0.10073311 0.12316403 0.1299928
0002b0 b0 d1 7f 3e ca 4c 52 be 3f 3c 38 3d 48 1e 3e 3d
       0.24982333 -0.20537105 0.04497933 0.046415597
0002c0 79 c3 ff 3d e7 55 8e 3c 96 d3 ae bd e3 82 26 bd
       0.12488455 0.017374946 -0.085364506 -0.040652167
0002d0 2c 72 4e be c7 78 8a bd fd 39 95 bd 7e 62 ab 3d
       -0.2016074 -0.06761318 -0.07286451 0.08368395
0002e0 9f f8 4c 3b c8 35 de bd bd b4 3f 3e 7c 86 1e 3e
       0.003127612 -0.10850102 0.1872129 0.15480989
0002f0 59 96 55 3e 0b 06 37 be 17 eb 57 3e 22 fc 73 be
       0.20858134 -0.17873399 0.21085773 -0.2382665
000300 ed 65 3f be f7 8b 8c 3c 35 b7 28 be 25 a9 53 be
       -0.18691225 0.017156584 -0.16476138 -0.20669992
000310 e5 02 f0 3d ba a1 20 3e d3 47 4f bd f4 a1 cd bd
       0.11719302 0.15686694 -0.050605606 -0.10040656
000320 ec 8d ea 3d 72 6e 07 3e d7 e7 5b 3e dd e7 0a be
       0.11452851 0.13225725 0.21475159 -0.13565011
000330 42 90 72 3e 3a ef a8 bd f9 4e a6 3d de 96 6f be
       0.23687842 -0.08248754 0.081205316 -0.23397395
000340 db 32 33 be 2d 4a 24 3d 50 65 18 3e ab 9a 49 be
       -0.17499869 0.040109802 0.14882398 -0.19687907
000350 23 5c 87 3e 75 39 54 3d 7d d1 3e 3e 9b 60 77 3e
       0.26437482 0.051812608 0.18634601 0.24157946
000360 81 cc 69 3e d8 77 43 3d 71 d7 5c 3e d6 54 83 3e
       0.22831918 0.047721714 0.2156656 0.25650662
000370 18 39 ed 3d d2 8e fa 3d 09 89 b3 3d de 06 29 be
       0.115831554 0.12234272 0.08766372 -0.16506526
000380 88 21 2a 3e a8 4e 09 3e f9 71 f1 3d b5 b0 af bd
       0.16614354 0.13408911 0.11789317 -0.08578626
000390 56 e0 7c 3e a0 81 0f bd af 72 30 be b4 c9 de bd
       0.24694952 -0.03503573 -0.17231248 -0.108783156
0003a0 70 5a 4a be a2 3d 98 3d 90 89 44 3e f5 26 cd 3d
       -0.19761062 0.074336305 0.19193101 0.10017196
0003b0 42 74 64 be 22 74 f3 3d d2 4b 14 3e c8 83 00 3d
       -0.22309974 0.11887385 0.14482048 0.031375676
0003c0 27 66 64 3e fe 99 21 3e 09 66 06 be c5 1b 3c 3d
       0.22304593 0.157814 -0.13124861 0.04592492
0003d0 9f 9f 63 3d 7f 23 b0 39 cd f8 86 3e e1 1b 88 be
       0.05557215 0.00033595783 0.26361695 -0.2658377
0003e0 1c 3a 2d bd c0 11 4e 3e 57 0e 64 3e 76 94 20 be
       -0.042291746 0.20123959 0.22271095 -0.15681633
0003f0 e2 2b da bc 00 34 bd 3e e1 e3 45 3e 8d c6 59 be
       -0.026632253 0.36953735 0.1932521 -0.21267147

lstm1_1.weight_hh_l0 f4 [64, 16]
000000 34 3d 1b 3e 43 58 7c be 57 df 19 be 73 6f 93 3d
       0.15160066 -0.24643044 -0.15026604 0.071989916
000010 d8 f8 79 3d 49 de 87 bd c0 ca 65 3e 51 49 d4 bd
       0.06102833 -0.066341944 0.22440624 -0.103655465
000020 48 0c e8 3c 33 b4 d1 bd 23 4c 24 be 98 fc 44 be
       0.028326169 -0.102394484 -0.16044669 -0.19236982
000030 0d bb d3 bd c5 f0 93 bd 4b e3 c9 3d db 95 73 bd
       -0.103384115 -0.072236575 0.09857806 -0.059469085
000040 03 35 61 3e ad 15 a5 bb 2a 45 74 be a4 47 a1 3d
       0.21992879 -0.0050379843 -0.23854509 0.078749925
000050 5a 9c 60 3c fd 8d 06 3e 97 49 ef 3c 5b 62 0f bd
       0.013709152 0.13140102 0.029209895 -0.03500591
000060 d6 6d 85 bd fe 37 15 be f5 8d 33 be 6a cb 91 3e
       -0.0651509 -0.1457214 -0.17534621 0.28475505
000070 19 13 75 be e5 15 3a 3e 17 87 23 3e 49 9f 30 3e
       -0.23933066 0.18172415 0.15969501 0.17248262
000080 24 cf ca 3d ff 77 88 bd 2a db 85 bd fd bb fe 3c
       0.0990279 -0.066635124 -0.06535943 0.0310955
000090 19 01 23 3e 6f c4 28 3e 09 e8 24 be 4b 58 a5 bc
       0.15918387 0.16481183 -0.1610414 -0.020183703
0000a0 2c 16 37 bd 22 53 ca bd 8b e1 b4 3d d7 a2 6a 3e
       -0.04469888 -0.098791376 0.088320814 0.22913681
0000b0 43 51 11 be e1 70 73 bd 57 45 2e 3e fd 4b 06 3e
       -0.14191155 -0.05943382 0.17018639 0.13114925
0000c0 ba 08 8e 3c 21 79 24 3e eb 2e a3 3d f1 a2 86 be
       0.017338146 0.16061832 0.07967933 -0.2629619
0000d0 b4 1d 68 3e f9 14 50 3e 3f a4 ad 3d db 86 1e 3d
       0.22667581 0.203205 0.08478593 0.038702827
0000e0 83 37 1b be 99 01 31 be 03 28 80 be 86 be 35 be
       -0.15157895 -0.17285766 -0.25030527 -0.1774846
0000f0 b3 ff 77 bc 67 05 67 3d a0 62 11 be b2 68 3d 3e
       -0.015136647 0.056401636 -0.14197779 0.1849697
000100 2a 2d 91 bd 50 e3 20 be 9d 14 a0 bd 14 bc 8f bd
       -0.070886925 -0.15711713 -0.07816432 -0.07018295
000110 f4 43 4e 3e 4a 29 03 3e 11 81 ee bd a9 dc de bd
       0.2014311 0.1280872 -0.11645711 -0.10881931
000120 09 23 07 3e dc cd 7d 3e d9 5e 66 bc ad 35 2e 3d
       0.13196959 0.2478556 -0.014060699 0.042531658
000130 14 2c c7 ba da 9c 13 be 85 ee 0f bd 7b 0f 96 bd
       -0.0015195631 -0.14415303 -0.03513958 -0.073271714
000140 c5 63 e3 3d 3d 6c 1e be b3 3f d7 3d 9f 81 22 be
       0.11103014 -0.15470977 0.105101965 -0.15869759
000150 51 53 56 3c 4e ba 2d 3e 55 13 af 3d 1f 68 f7 3d
       0.013081388 0.16965601 0.08548609 0.120804064
000160 5e 9c 16 be 7c c2 d1 bc 37 28 99 3d 6e 4a 5c be
       -0.14708087 -0.025605433 0.074783735 -0.21512768
000170 69 04 16 be 84 1e cc bd b9 a2 36 be a6 df 49 3d
       -0.1465012 -0.09966758 -0.17835511 0.049285553
000180 74 4f 58 bd 8d ea 18 3e 62 51 62 bd b5 1b 95 bd
       -0.052810147 0.14933224 -0.055253394 -0.07280675
000190 c8 14 3e be cc 19 b1 3c dd ab 4f be a7 dd 67 be
       -0.18562615 0.021618746 -0.20280404 -0.22643147
0001a0 9f 61 57 be 44 62 cf bc a1 ac 0e 3e 0c 6d 67 3e
       -0.21033333 -0.025315411 0.1393304 0.22600192
0001b0 eb a3 a3 3d 9d 96 40 3e 80 de b6 3d c3 f0 b5 bd
       0.07990249 0.18807454 0.08929157 -0.08883812
0001c0 28 10 af 3d 5d 64 1b be 18 d6 ea 3d dd 56 02 be
       0.085480034 -0.15175004 0.114666164 -0.12728448
0001d0 27 fb e3 bd 8d 36 81 3c ee 07 45 be fa 90 08 3e
       -0.11131888 0.015773082 -0.19241306 0.13336554
0001e0 40 6e 8b 3e e7 71 b2 3d f8 ca 4a be 50 3d 17 bd
       0.27232552 0.087131314 -0.19803989 -0.036923707
0001f0 69 38 0b be c5 27 5c be c9 6a 8f 3d 3f 1a 27 be
       -0.13595738 -0.21499546 0.070027895 -0.16318606
000200 b3 8f b6 3d 01 f6 98 3d 5d 18 04 3e 6f 12 b1 3d
       0.08914127 0.074687965 0.12899919 0.08646094
000210 91 fb ed bd 7b 35 24 be 43 a4 e8 bd 64 fb 9b 3e
       -0.11620248 -0.16036026 -0.113594554 0.30465233
000220 e6 ba 0c 3e 2f a9 7b bd 0e 99 98 b9 81 c6 a7 bd
       0.13743171 -0.061440643 -0.00029105734 -0.081921585
000230 8e e4 95 3d 6a bd 5b 3e cb ad d3 bd b6 a2 00 be
       0.07318984 0.21458974 -0.10335883 -0.1256207
000240 e7 32 82 3d 69 f8 c1 3d 1b dd de bc 0e 99 cb 3d
       0.06357365 0.094712086 -0.02720504 0.09941302
000250 67 cc 79 be 46 98 6f 3d de 23 10 bd 64 51 ea 3d
       -0.2439438 0.05849483 -0.035190456 0.11441305
000260 b7 43 cf 3c 3f b4 21 bc da ac bb bd da 06 3a 3e
       0.025300844 -0.009869634 -0.09163828 0.18166676
000270 ee 56 18 be bb 51 d0 3d 5c 24 30 be d0 c0 eb 3c
       -0.14876911 0.10171839 -0.1720137 0.028778464
000280 fc d3 1f 3e b7 b2 31 3c bb f5 b5 3d a7 a3 fd bd
       0.1560821 0.010845832 0.0888476 -0.1238473
000290 7f 23 eb bc a3 52 7e 3e fd fc 0b 3e 77 90 af 3d
       -0.02870345 0.24836211 0.13670726 0.08572476
0002a0 ef 6b e9 bd 35 71 05 bd a5 11 7b 3e 6b 3d 6f be
       -0.1139754 -0.032578666 0.2451845 -0.23363273
0002b0 ce e8 18 bd 50 ef 73 3d 7b 32 70 be 85 9d fa bd
       -0.037331395 0.059554398 -0.23456757 -0.12237076
0002c0 59 62 4e 3d 93 59 89 3d 9c 14 36 be 89 2b 18 3d
       0.05038676 0.06706538 -0.177813 0.037150893
0002d0 e6 04 06 3e d2 68 f7 bd b6 06 10 3c 97 3f 56 be
       0.13087806 -0.1208054 0.0087906625 -0.20922695
0002e0 af af 59 3d a3 03 d3 bb b5 f4 79 3e ae 13 7c 3d
       0.05314606 -0.0064396425 0.24409755 0.061542206
0002f0 e5 0f 9e 3d 35 2b 1a 3d dd fa a2 bd 8a c4 07 be
       0.077178754 0.03763886 -0.079580046 -0.13258567
000300 f7 89 a0 3d 25 e5 de bc af fc 84 3d 35 88 80 3e
       0.07838815 -0.027208874 0.06493508 0.25103918
000310 99 fe 49 be 4c 3c 10 3d 8f 07 8c bd 87 2d 14 3e
       -0.19726028 0.035213754 -0.06837379 0.14470492
000320 2a d6 eb bd c9 b8 33 3d 99 f5 10 be ef 8c 5e be
       -0.11515458 0.043877397 -0.14156188 -0.2173345
000330 5e eb 52 3e 8b 90 ee bc c6 ca b9 bd a0 a7 8c 3e
       0.20597598 -0.029121658 -0.09071879 0.27471638
000340 25 b7 4e 3e 06 81 19 3e 0d a4 35 3d 4c de 0c bd
       0.20187052 0.14990625 0.044345904 -0.034391686
000350 9c 1e 1b 3e fa 4f ce bd be 8b 6c bd d0 6d 02 3e
       0.15148395 -0.10073848 -0.057750456 0.12737203
000360 ab 7b 3a 3e 3c f5 fa bd 5b 1e c2 3b 98 17 28 3e
       0.18211238 -0.12253806 0.005924029 0.1641525
000370 40 2e 53 3d 44 04 52 be 2c f9 36 3e a2 bb 24 be
       0.05155778 -0.2050944 0.17868489 -0.16087201
000380 b1 5d 33 3d cc af 25 be c5 d0 0f 3d 5b f6 bd bd
       0.043790523 -0.16180342 0.035111208 -0.09275504
000390 9d 5b b7 3d 69 eb 4e 3e 65 09 6c 3d 2e 1e d1 bd
       0.08953021 0.2020699 0.057626147 -0.102108344
0003a0 7c d1 44 be ef a4 33 bc 9d 5c 81 3d 90 30 20 3e
       -0.19220537 -0.010964616 0.06316493 0.15643525
0003b0 08 f0 eb bd c1 36 14 be 69 98 8b bd ee 85 dc 3d
       -0.11520392 -0.14474012 -0.06816179 0.107677326
0003c0 74 5d 52 bd a4 ee 37 3e af 96 31 be f8 d1 72 bd
       -0.051358655 0.17962128 -0.17342637 -0.059282273
0003d0 11 1c 38 3d 24 8b 4b be 9e e2 44 be 0f 54 94 3c
       0.04494864 -0.19877297 -0.19227073 0.018106489
0003e0 c0 9e 19 3e 11 6c 6f 3e 71 2c ae 3d 49 e4 e3 bd
       0.15001965 0.23381068 0.0850457 -0.11127526
0003f0 26 08 74 be c8 47 4f be 35 31 e8 bd 44 17 d5 3d
       -0.23831233 -0.20242226 -0.113375105 0.10404828

lstm1_1.bias_ih_l0 f4 [64]
000000 5e 43 42 bd ed 94 84 3d 70 a6 11 3e f4 76 42 3e
       -0.047427528 0.06473718 0.14223647 0.1899069
000010 6a 24 3b 3e 8f 60 f2 3c 0a 19 75 bd 8a 2f c9 bb
       0.1827561 0.029587058 -0.059838332 -0.0061397003
000020 c4 89 39 bc d7 2e 81 bd 9f c4 98 3d 29 55 38 3c
       -0.01132435 -0.06307762 0.074593775 0.0112507725
000030 70 2c 93 bd 64 a3 b0 bd 50 50 fe bd 34 e4 54 3e
       -0.0718621 -0.08624914 -0.12417662 0.20790178
000040 17 aa 54 be 14 4a d4 3d 5e 73 d2 bd ec 4b 38 3e
       -0.20768009 0.10365692 -0.10275911 0.17997712
000050 fa 60 e0 3d b2 bc 10 3e ca c2 fc bb 4d 93 e3 bc
       0.10955997 0.14134482 -0.0077136504 -0.0277802
000060 e6 ec 0e bd d4 2e 7e be 5a 39 3f 3e 36 6b 55 bd
       -0.034893893 -0.24822551 0.18674222 -0.052104197
000070 56 12 f0 3c 66 f9 13 3e 14 d7 28 be d5 58 1e be
       0.029305618 0.14450607 -0.16488296 -0.15463574
000080 1e 0a 6c bd 1b 90 32 be 7b 52 39 be da 38 1f 3e
       -0.057626836 -0.17437784 -0.1809787 0.15549031
000090 5c 0f cb 3c 65 6e 1c 3e 12 15 62 3b 8f a3 dc bd
       0.024787597 0.15276487 0.0034497422 -0.10773384
0000a0 83 8c 60 3e f5 04 47 3e 37 28 f3 3d 76 f6 ca bc
       0.21928601 0.19435485 0.11872905 -0.024775725
0000b0 4d 04 c8 3d ea 5e db bd bc 0b 0c 3e 1f 6a 0e 3e
       0.09766445 -0.10711463 0.13676351 0.1390767
0000c0 51 c3 b5 bc a4 dc 0a be 24 c7 6f be ee 59 79 3b
       -0.02218786 -0.1356073 -0.2341581 0.0038047987
0000d0 0c dd 15 be 80 20 5d 3e 82 58 aa bd 5e eb 77 bd
       -0.14635104 0.21594429 -0.08317663 -0.060527198
0000e0 e9 f7 04 be ef af 54 3e 4c 8d fd 3d f9 91 52 3e
       -0.12985195 0.20770238 0.12380466 0.20563497
0000f0 b9 dc 92 bd 6d ca da 3c 66 3e 81 be c2 b5 97 3d
       -0.07171006 0.026707852 -0.2524292 0.074077144

lstm1_1.bias_hh_l0 f4 [64]
000000 e2 fa f6 3d 2b d4 70 be 82 a4 10 be a0 7b 26 3e
       0.12059571 -0.23518436 -0.14125255 0.16258097
000010 ba 81 aa bd b6 6c 90 3c f2 16 7a 3e b2 ee de bd
       -0.08325525 0.017629962 0.24422815 -0.10885371
000020 cb b1 4d 3e a3 26 06 3e c8 fa 33 be 39 33 45 be
       0.20087354 0.13100676 -0.17576134 -0.19257821
000030 a3 19 4a be 5d 72 1f 3e 7c de b8 bd f6 2f 27 be
       -0.19736342 0.1557097 -0.090268105 -0.1632689
000040 20 62 08 3e 35 dd 25 3d 75 c2 45 3e a4 1d 5a be
       0.13318682 0.040494163 0.1931246 -0.2130037
000050 32 ec e0 bd 68 41 ba 3d b0 52 eb 3d 4e e1 d2 3d
       -0.10982551 0.090945065 0.11490381 0.1029688
000060 00 53 28 3c a8 54 99 3d 94 42 27 3e 8d 92 08 3e
       0.010273695 0.0748685 0.16333991 0.13337155
000070 c6 18 84 3c 87 e6 f4 3b aa 79 67 be 65 75 39 3e
       0.016125094 0.00747377 -0.22605005 0.18111189
000080 59 9c 03 be d5 6a 1e be c3 b2 26 3e 68 9d 62 be
       -0.1285261 -0.1547044 0.1627913 -0.22130358
000090 36 52 1e 3c 67 e0 25 3e fc ec 81 be d8 aa f5 bd
       0.009663155 0.16198884 -0.25376117 -0.119954765
0000a0 ae 61 82 be 69 cc 58 3e ce 00 50 bd 1a 21 20 be
       -0.2546515 0.21171726 -0.050782017 -0.15637627
0000b0 9b 16 5d 3e b8 ce 5d 3d d8 b4 43 3e a1 f9 61 be
       0.21590655 0.05415222 0.19111955 -0.22067882
0000c0 5e b1 b7 bd bc 4b 5a 3e 1d aa 3b 3d d4 31 ed bd
       -0.08969377 0.21317953 0.04581653 -0.115817696
0000d0 42 2f 6e bd b0 96 f1 3d 5d 82 bb 3b c7 b2 35 be
       -0.058150537 0.117963195 0.0057223276 -0.1774398
0000e0 7b 27 51 be 01 20 6e be 28 52 15 3d 8b 3d d1 bd
       -0.20425217 -0.23254396 0.036455303 -0.102168165
0000f0 87 53 da 3d 39 c9 78 3e 72 9a 27 3e b6 05 63 be
       0.10660463 0.2429551 0.1636751 -0.22170147

lstm1_1.weight_ih_l0_reverse f4 [64, 32]
000000 2b af 17 3e b5 e0 2f 3d 4c 3c 04 be 68 ca 35 be
       0.14812915 0.042938907 -0.12913626 -0.17752993
000010 1c 1b fe bd f8 53 99 bd 87 8f 6c bd f4 62 82 bd
       -0.124075145 -0.07486719 -0.057754066 -0.0636653
000020 f0 b8 66 be 5a 55 96 3e 58 96 0f be d6 75 2e bc
       -0.22531486 0.29361993 -0.14022195 -0.010648211
000030 b0 64 c7 3c ee ed 8b 3e 1d 1e 3c 3e 38 03 2b bd
       0.024340004 0.27329963 0.18370862 -0.041751117
000040 b4 83 dc bc ca a9 4b 3a 29 6a 4e 3e 58 81 82 bd
       -0.02691827 0.0007769136 0.20157684 -0.063723266
000050 db ff 6a bd b2 52 ba 3e c4 80 2b 3e e8 43 9d be
       -0.05737291 0.36391217 0.16748339 -0.3071587
000060 8f 6e 54 be a8 c4 66 3d 3c cd 36 3e 30 94 6f 3e
       -0.207453 0.05633989 0.17851728 0.23396373
000070 91 ca 4e 3e a2 a3 3f 3f 94 dc 90 3e 47 45 07 be
       0.2019446 0.7485906 0.28293288 -0.13210021
000080 f8 2e 75 bd 5e 73 95 3d 3a dd b2 3c b8 10 1f 3d
       -0.059859246 0.07297395 0.021834005 0.038834304
000090 44 72 24 be 0c 72 0a be fc 2d 42 bc d8 cc 7a be
       -0.16059214 -0.13520068 -0.011851784 -0.24492204
0000a0 e1 a1 a1 3d ae cb 94 3e 5e 3d 64 3c a2 45 c4 3d
       0.07892204 0.29061645 0.013930647 0.09583594
0000b0 2c 13 4a be e2 9a 24 3e 13 23 87 be fe 60 54 be
       -0.19733876 0.16074708 -0.26393947 -0.20740125
0000c0 28 88 c7 3d 78 c9 a9 bd f7 8a ae 3d 73 07 a4 3d
       0.097427666 -0.0829038 0.08522599 0.08009233
0000d0 00 70 85 3e 5b 9f b5 3d c7 ef dd bd a4 4e 9b 3d
       0.26062012 0.08868285 -0.108367495 0.07583359
0000e0 6b f6 55 be e0 7e f6 bc 1a 6b 79 3e 68 79 08 3d
       -0.20894782 -0.030089796 0.24357262 0.033318907
0000f0 64 19 c6 3d 8a ba 83 3e 32 68 0e 3e 51 c9 6f be
       0.096728116 0.25728256 0.13906935 -0.2341664
000100 5e 7d 2a bc 8f 49 9e bb 1e dd 03 3e cf 56 94 bd
       -0.010405866 -0.004830546 0.12877318 -0.0724312
000110 f5 7e 27 be ec 4a 2b 3e 25 39 03 be 10 1e 26 be
       -0.16357024 0.16727799 -0.12814768 -0.16222405
000120 49 d0 58 bd 93 92 03 be 53 17 30 3e 0f 53 e9 3d
       -0.05293301 -0.12848882 0.17196397 0.11392795
000130 9c 92 0a 3e 69 c5 ee bd 43 05 c7 bc 68 0d 4c 3e
       0.1353249 -0.11658747 -0.024294501 0.19926989
000140 57 cc 05 3e 6a 8c 00 3e 29 0c 8e 3e 10 92 8e bd
       0.1306623 0.12553564 0.27743652 -0.06961453
000150 52 74 a4 bc f1 e1 4b 3d d6 16 ce 3d 5c 7e 73 3e
       -0.020074997 0.04977602 0.10062949 0.23778671
000160 a9 c5 e2 ba 06 0e 70 3e 89 23 d0 bd dc f2 f4 3d
       -0.0017301339 0.2344285 -0.10163028 0.11960384
000170 e7 0e d3 3d 05 e2 aa 3d e3 49 b9 3d cc d4 0d bd
       0.10305577 0.08343891 0.09047296 -0.034626767
000180 c2 1e 87 3e ea e8 97 3d 01 da 10 be bb aa e4 bd
       0.26390654 0.07417472 -0.14145662 -0.11165377
000190 8e da ed bc 10 84 f7 3c 21 68 80 bd 48 13 c3 3d
       -0.029034879 0.03021434 -0.06269861 0.09525162
0001a0 9b 5e 14 be 5c d0 02 bb 5b 88 8b bc 41 b0 a3 3d
       -0.14489214 -0.0019960618 -0.017032793 0.07992602
0001b0 30 da 95 3d eb 3f 17 be 53 3c 86 3d 6e bb 27 be
       0.073170066 -0.14770477 0.06554475 -0.16380093
0001c0 e4 3a 26 be 98 d8 56 3e 95 b0 53 be 36 39 62 3e
       -0.16233402 0.20981061 -0.2067283 0.22092137
0001d0 18 5a c4 3d d4 b7 0d bd 30 65 4d 3e ba 0a ed 3d
       0.095874965 -0.03459914 0.20058131 0.115743116
0001e0 87 b2 d3 3d 00 cf f7 bc be 3e 41 be 86 31 6e be
       0.10336786 -0.030250072 -0.1887159 -0.23261079
0001f0 53 ad 8f 3e 50 b4 c4 3d 06 57 bf 3d 8f 5e 47 be
       0.28061923 0.096047044 0.0934277 -0.19469665
000200 e1 ba c4 3d 3c 96 99 bc b2 0e 30 be 60 3f 11 be
       0.09605957 -0.018748395 -0.17193106 -0.14184332
000210 e3 b4 a0 bb aa fd 42 3e be b2 44 3e ec fc 1f 3e
       -0.004904376 0.19042078 0.1920881 0.15623826
000220 f2 1e a4 bd d9 39 8d 3e ca 6b 4d 3e 2b eb 95 3d
       -0.08013715 0.27583197 0.2006065 0.07320245
000230 10 53 72 3d af 99 cd 3d c8 1f 2c 3d f8 51 13 bd
       0.059161246 0.100390784 0.042022496 -0.035966843
000240 f3 4a a3 3c cb e1 76 be 74 68 71 3e cf e2 16 bd
       0.0199332 -0.2410957 0.23575002 -0.036837395
000250 f4 b5 7e 3d 35 6b 68 3d 94 53 0e be e6 ce d4 bd
       0.062185243 0.056742866 -0.1389907 -0.10391025
000260 fc 6d f6 bd b6 02 41 be 34 aa 1e 3e b6 11 80 bc
       -0.120326966 -0.1884869 0.15494615 -0.015633445
000270 28 5c cb 3d d1 5f 6b 3e 50 e7 ae bc 68 aa f1 bd
       0.09929687 0.2298577 -0.021350533 -0.118000805
000280 22 e9 93 3e 69 e3 43 be 3d 5d 9c 3e 00 89 88 3e
       0.28888804 -0.19129719 0.30539885 0.26667023
000290 69 59 28 3e 7e 3e 45 3e f1 7d 60 3e b8 0d ed bd
       0.16440357 0.1926212 0.21923043 -0.11574882
0002a0 67 1e 53 be 2a 63 53 3e ff 87 f0 bd 9b 59 d7 3d
       -0.20617066 0.20643297 -0.11744689 0.10515138
0002b0 78 46 08 be a4 43 a0 3e 1e 1d 74 3e ec 87 10 be
       -0.13308132 0.31301606 0.23839232 -0.1411435
0002c0 86 82 23 bc 8c 2e 12 be a7 72 f0 3d 3f 95 cf 3d
       -0.00997985 -0.14275569 0.11740618 0.10135888
0002d0 3c c1 1f bd 31 89 4a 3c 89 09 32 3d 94 94 42 3f
       -0.039002642 0.012361811 0.043466125 0.7600796
0002e0 05 79 8c 3e 68 c1 77 3d 60 24 e1 3d 42 40 4c 3e
       0.2743608 0.06048718 0.10993266 0.19946387
0002f0 3c e4 35 3e 11 27 7d be 19 a7 5a 3d e4 e1 0f 3c
       0.17762846 -0.24721934 0.053382013 0.008781884
000300 7e cb c5 bd d1 8f 1e 3e 3d 67 43 bd 17 08 58 3e
       -0.09657954 0.15484549 -0.047705878 0.21096836
000310 3d 1e bf bd 90 81 08 be c8 cb bf bd 0e c7 23 be
       -0.09331939 -0.13330674 -0.0936504 -0.15993902
000320 05 a9 a2 3d d5 72 ee bd ff e2 5f be f4 ec 02 3e
       0.07942394 -0.11642996 -0.21863936 0.12785703
000330 32 a1 45 3e dc 52 31 be e3 fa 20 be 3e 94 0e 3e
       0.19299772 -0.17316765 -0.15720706 0.13923737
000340 07 1c bc 3d 7f cc 85 3d b6 63 2c 3d 38 bd 07 3e
       0.09185033 0.06533145 0.04208728 0.13255775
000350 7f 85 cb bc 20 90 1e 3e 8f 4e e1 b9 48 76 d3 3d
       -0.02484393 0.15484667 -0.00042973875 0.10325295
000360 98 5e 1d 3e c0 46 59 be 6e f8 2b be fc bd f1 bd
       0.15368116 -0.21218395 -0.16793987 -0.11803815
000370 85 9c 2f 3d 71 0a 54 3e fe f9 05 be 72 64 ce 3d
       0.042873878 0.20707108 -0.13083646 0.10077752
000380 66 e4 f3 3d ec 56 52 be 14 e1 57 3e b4 51 30 3e
       0.11908798 -0.2054097 0.21081954 0.17218667
000390 2b f8 73 be 6c 04 44 3e f8 4e 0a 3e 0a f0 16 be
       -0.23825137 0.19142312 0.13506687 -0.14740005
0003a0 0d 96 93 3d 54 92 14 3e 53 af a8 3d 86 c0 80 3e
       0.07206354 0.14508945 0.082365654 0.25146884
0003b0 00 ce b5 3a bc 30 36 3c 49 93 e8 bd fc fb fc 3d
       0.0013870597 0.011120018 -0.113562174 0.1235275
0003c0 73 69 47 3e 02 71 5a 3e 70 23 cd 3d 31 e6 02 bc
       0.1947382 0.21332172 0.10016525 -0.007989452
0003d0 63 35 4e bd 2f 5e 4a bb b4 8d 19 3e d2 cf 50 3e
       -0.050343882 -0.0030878892 0.14995462 0.20391777
0003e0 24 cb b0 bc 10 40 45 be 41 80 70 bd ed d7 73 3e
       -0.02158124 -0.19262719 -0.058716062 0.23812838
0003f0 80 16 a8 3e 22 d1 dd 3d 2f 4c 40 3e f5 cb 3e be
       0.32829666 0.108309045 0.18779062 -0.18632491

lstm1_1.weight_hh_l0_reverse f4 [64, 16]
000000 a6 de f6 3d f1 eb c0 3a 8f 1c be bd e3 b1 60 be
       0.120541856 0.0014718754 -0.09282791 -0.21942858
000010 b1 53 19 3b 14 49 e9 bd 7a 58 9f 3d 1e c3 f8 3d
       0.0023395831 -0.11390892 0.077805474 0.12146591
000020 42 34 a3 3d 57 b0 b6 3c a5 47 14 be 6d 96 2c 3e
       0.07968952 0.022300882 -0.14480455 0.16854258
000030 d7 00 c7 bd f4 25 20 be 5f 8c d7 bd 09 0a 8c 3e
       -0.09716957 -0.15639478 -0.105248205 0.27351406
000040 a9 c8 98 bd 82 f9 2d bd de df 32 be 88 54 0d 3e
       -0.07460148 -0.042474277 -0.17468211 0.13801777
000050 21 1d 01 3e ad 3c 22 be 25 65 f4 bc 77 2b 93 bd
       0.12608768 -0.15843458 -0.029833386 -0.07186025
000060 d5 be 6a 3c 1e f4 2e 3c f2 0b 8e be 43 0b 91 3d
       0.014327724 0.010678319 -0.2774349 0.07082226
000070 c1 e4 5c 3e f6 bb 44 3b ce 9d ba 3d ea d1 4e be
       0.21571638 0.003001926 0.0911213 -0.20197263
000080 fd fc 7c 3e 1e c9 07 3d 1c 60 83 bd 9c d5 32 3e
       0.24705882 0.033150785 -0.06414816 0.17464298
000090 97 42 c4 bd 7e 49 90 3d 31 f1 57 be be fd b2 bd
       -0.095830135 0.070452675 -0.21088101 -0.08739804
0000a0 a0 9e ae 3e 34 4e 53 3e 27 b9 c0 bd 5a c5 6d be
       0.34105396 0.20635301 -0.09410315 -0.23219815
0000b0 ce fd 18 3d 22 dd 2d 3e 4c 9f c3 bd b0 8f 2e 3e
       0.037351422 0.16978887 -0.09551868 0.17047
0000c0 fe 21 1c 3e 47 2c d5 bd 76 8f 1e 3e 12 49 83 be
       0.15247342 -0.10408836 0.15484414 -0.25641686
0000d0 36 eb 29 be 44 60 46 3e c0 1f 4b 3e 59 fb 9b 3c
       -0.16593632 0.1937266 0.1983633 0.01904075
0000e0 1d e0 ea bd d1 da 07 be 6e 4a 6e bd 44 a3 0b be
       -0.114685275 -0.13267066 -0.05817645 -0.136365
0000f0 f5 ad b2 3d e0 64 5d bc 67 b8 d7 3d 13 9f ec bc
       0.08724586 -0.01351282 0.10533219 -0.028884446
000100 14 0e 73 3e 6d 0e 5f bd 72 12 54 be 16 ff 66 be
       0.23735839 -0.054457117 -0.20710161 -0.22558245
000110 67 39 27 be 2d c4 d7 bd 69 a7 bf 3d d1 73 da 3d
       -0.16330491 -0.105354644 0.09358103 0.106666215
000120 bf f9 3e 3e 3b 79 4f 3e 3d ec dd bd e8 e6 84 be
       0.18649958 0.2026109 -0.108360745 -0.25957417
000130 24 e9 23 bd f7 38 3b 3e d4 61 86 be 10 4e 99 3d
       -0.040017262 0.18283449 -0.26246512 0.07485592
000140 1f 10 07 be c9 10 87 3c 11 d4 92 bc d0 2a 7c 3d
       -0.13189743 0.016487496 -0.017923387 0.061564267
000150 1e 74 15 bc 49 81 0a 3d f1 6a 80 be b5 36 b6 3e
       -0.009121923 0.033814702 -0.2508159 0.35588613
000160 9d bd 2e be 05 24 0f bf 4c b5 23 be f6 78 c7 3e
       -0.17064519 -0.55914336 -0.15987128 0.38959473
000170 32 98 71 be db a8 b3 be cd 4a 46 3d 73 6d 29 3d
       -0.23593214 -0.35089764 0.04841118 0.041364145
000180 6a 79 93 3e 22 ca 87 bd 3f 4b 09 be 19 67 9c bc
       0.2880357 -0.06630351 -0.1340761 -0.01909213
000190 6f 26 9c bc 7b 1f 3d 3e e3 87 15 3e 7f 02 07 3d
       -0.019061295 0.1846904 0.14602618 0.032961365
0001a0 6c a3 32 3e 56 2f 60 3d 52 6b 6b be 69 89 eb ba
       0.17445153 0.054732643 -0.22990158 -0.0017970029
0001b0 e1 0f 6a be b2 09 3d be 0f 7c 84 3c 24 ce 8f bc
       -0.2285762 -0.1846073 0.016172437 -0.01755435
0001c0 34 d6 09 3f 82 ec 08 3e 33 9f 06 3d 46 69 08 3b
       0.53842473 0.1337147 0.032866668 0.00208147
0001d0 6f dc 3b be 62 a7 70 3e 11 11 4c be a9 a9 93 3e
       -0.18345807 0.23501351 -0.19928385 0.28840378
0001e0 9a a7 a7 bd a3 6b 3e be b9 77 85 be 19 87 f4 bc
       -0.08186264 -0.18595748 -0.26067904 -0.029849576
0001f0 13 b9 3e bc 48 a3 65 bd 2c 2c b3 bd 60 88 ee bd
       -0.011640805 -0.05606392 -0.087486595 -0.11647105
000200 a9 e5 00 3e f8 ef 40 be 3c 7a 2b 3d 41 2f 1a be
       0.12587608 -0.18841541 0.04186462 -0.15057088
000210 62 0b 8b be 42 75 d3 3d 14 4b 6b be 38 28 c9 3d
       -0.27157122 0.103250995 -0.22977859 0.09822124
000220 1f cd 96 bd 13 63 fe bd e7 f9 b3 bc 6d ab 2b 3e
       -0.073633425 -0.12421241 -0.021969749 0.16764612
000230 bf 45 49 be bc 10 11 be 38 a7 e4 bd d0 34 b9 3d
       -0.19655512 -0.1416654 -0.11164707 0.09043276
000240 e7 1c 73 3e ce 95 9c 3b 2e b1 85 3d e3 97 64 be
       0.23741494 0.0047786003 0.06527935 -0.22323565
000250 e2 f1 78 be 72 1f 5f be fb 4b 10 be 96 c8 0e be
       -0.24311021 -0.21789339 -0.14091484 -0.13943705
000260 e8 d5 1f bd cb a2 94 3d 70 d4 8a 3d 9f 5f 7f bd
       -0.039022356 0.07257613 0.067788005 -0.06234705
000270 79 11 23 bc 5f a7 26 3e b6 15 04 3e dd cc 9a 3d
       -0.009952896 0.16274785 0.12898907 0.07558606
000280 81 f9 5d 3e 31 78 48 3e a3 67 fc 3c 87 87 4e 3e
       0.2167721 0.195771 0.030811137 0.20168887
000290 17 ed 65 3d 85 54 1e 3d f9 fb 0a bc 82 55 6c 3e
       0.05613431 0.038654823 -0.0084829265 0.23079494
0002a0 e4 63 15 3e ff 91 25 be f1 3d 79 3c 46 ab a7 bd
       0.14588886 -0.16168974 0.015212522 -0.08186965
0002b0 ea f5 b8 bd 75 44 51 bd f2 21 1c be 60 cf 45 3e
       -0.090312794 -0.051090676 -0.15247324 0.19317389
0002c0 e6 9d b9 3e 0d 7c 94 3e 8b 77 e9 bd c3 63 8c bd
       0.3625328 0.29000893 -0.11399754 -0.068549655
0002d0 8d f7 51 3e 8d a4 92 bd a3 b8 13 be c4 f2 7f 3d
       0.2050459 -0.07160292 -0.14425902 0.06248738
0002e0 95 ae ec bd 73 23 e0 be 38 88 3f 3e f5 9e 2b 3d
       -0.115567364 -0.43777046 0.18704307 0.04189964
0002f0 e0 ce 2e 3e e9 04 24 3e 5e 6d 09 be 19 45 02 3e
       0.17071104 0.16017498 -0.13420627 0.12721671
000300 b4 b1 06 be 4c 03 06 bd 01 2c 40 3e 7b e7 12 bd
       -0.13153726 -0.032717988 0.18766786 -0.03586529
000310 1a a7 39 3e 4b 1c 40 be b4 c4 0a 3e d5 bc 0a be
       0.1813015 -0.18760793 0.13551599 -0.13548596
000320 35 89 8a 3d 30 54 e1 3d c2 26 23 3e c6 c2 6a 3e
       0.067644514 0.110023856 0.15932754 0.22925863
000330 2a 1f 1d 3e bc f4 e9 3d bb 3e 63 be c6 44 b3 bd
       0.1534392 0.114236325 -0.22191899 -0.08753352
000340 1e b5 cb 3d d0 90 75 3d 4a b1 3d be e6 91 24 3e
       0.09946655 0.059952557 -0.18524662 0.16071281
000350 4d 6e df bd 7e 56 67 3e c4 99 2b be 01 e1 1c 3e
       -0.1090971 0.22591588 -0.16757876 0.15320207
000360 3f e1 8a 3e fd 8e bd 3c 3c 4e 09 3c 48 24 cd 3d
       0.27124974 0.023139471 0.008380469 0.10016686
000370 40 b2 08 3e cf 2e 7d 3d 77 a9 17 be da 1f 1d be
       0.13349247 0.06181222 -0.1481074 -0.15344182
000380 ee fa 64 3e 13 9b 6d 3e a7 a0 6a 3d 97 43 16 3e
       0.22361347 0.23203687 0.057282116 0.14674221
000390 69 33 de 3c 7d ce f1 3d 62 7a 39 be 46 7c 96 3b
       0.027124124 0.11806963 -0.18113092 0.0045924513
0003a0 92 da 50 be 81 e3 30 3e 94 98 32 be 40 13 16 be
       -0.20395878 0.17274286 -0.17441016 -0.14655781
0003b0 46 56 68 be b2 cb 6c 3e f4 7d ee 3d 17 0e 71 be
       -0.2268916 0.23124579 0.116451174 -0.23540531
0003c0 67 70 da bd d9 fc 8e 3e e5 1d b6 3c 9e a8 62 3e
       -0.1066597 0.27927282 0.022231052 0.22134635
0003d0 f3 48 58 be e2 49 be 3e 34 3e 2b 3d 6f 1d 20 be
       -0.21121578 0.37165743 0.04180737 -0.15636228
0003e0 5e ac 73 3e 2d ac 2f bb f4 6b 31 bd 79 84 4c 3e
       0.23796222 -0.0026805506 -0.043315843 0.1997241
0003f0 6b b5 11 3e b2 f3 dc bd 43 bf dd 3d c9 46 01 bc
       0.14229362 -0.10788669 0.10827496 -0.007890412

lstm1_1.bias_ih_l0_reverse f4 [64]
000000 6a 56 c6 3d 81 57 57 3d c2 42 98 bd 92 7e 15 3d
       0.09684451 0.052573685 -0.07434608 0.03649766
000010 50 51 c9 3d ab ec 95 3b 7b 68 6d 3e 25 f3 bb bd
       0.09829962 0.004575332 0.23184387 -0.091772355
000020 67 a1 21 3e 57 92 0c be a9 ef d7 3c 18 4c 50 3e
       0.15784226 -0.13727699 0.026359396 0.20341527
000030 46 95 19 3d 04 20 24 bb 10 e3 4d 3d 76 89 55 3e
       0.037495874 -0.0025043497 0.05026537 0.20853218
000040 41 eb 37 3d 5b fa 49 3e d0 ca c5 bd 75 b9 02 3e
       0.04490209 0.1972441 -0.09657824 0.12766059
000050 77 bd 50 3c c3 4d 6f 3e 93 00 78 3c 29 7e 32 be
       0.012740484 0.23369507 0.015136856 -0.17430939
000060 f8 61 24 bd d7 00 db 3d ea c2 cf bc 80 55 8d 3e
       -0.040132493 0.106935196 -0.025361497 0.27604294
000070 3e 30 6c 3c 43 9d bb bd 5b 30 14 3e d0 90 07 be
       0.014415799 -0.09160855 0.14471571 -0.13238835
000080 ec 01 0e be 9f f8 50 be 0d f5 30 be c6 2e 5d be
       -0.1386792 -0.20407341 -0.1728098 -0.21599874
000090 58 60 e2 3d 8b 48 4c bd 3a 3e 91 bd 25 7b ab bd
       0.11053532 -0.04987387 -0.07091947 -0.08373097
0000a0 d5 76 07 3e a3 b0 1e be 99 f5 3f bb b5 44 62 3d
       0.13228925 -0.15497069 -0.0029290675 0.055241305
0000b0 2f 6d d2 bd 4b b0 62 3e 66 72 c3 bd e0 1a ac 3d
       -0.10274731 0.22137563 -0.09543304 0.084035635
0000c0 87 cf 55 3e 47 2d 93 bc ad 39 39 be 68 47 95 bd
       0.20879947 -0.017965926 -0.18088408 -0.0728901
0000d0 64 cf 36 3e 6f 72 12 3e b8 cb c3 3d 95 a0 24 3e
       0.1785255 0.14301465 0.09560341 0.16076882
0000e0 db 47 d0 3d 37 66 37 3e f9 5e f8 bd 95 fd e2 3c
       0.10169955 0.17910086 -0.121274896 0.027708808
0000f0 a4 ef 9c bd cc 12 35 3e d5 04 17 3e 04 3c 60 3e
       -0.07662895 0.17682952 0.14747937 0.21897894

lstm1_1.bias_hh_l0_reverse f4 [64]
000000 2e aa bf bd a6 b3 6e be 42 eb 55 3e 41 79 37 3e
       -0.09358631 -0.23310718 0.20890525 0.17917348
000010 fc a7 cc 3d 57 99 d9 3d e2 0a b3 bc 73 04 24 bd
       0.09992978 0.106249504 -0.021855775 -0.040043306
000020 4c 06 bd bd b9 db 03 be 3b 6e 8e 3d cc 8e ab 3e
       -0.09229717 -0.12876786 0.069546185 0.33507383
000030 8a ca 70 be 13 3b 11 be 0e 8c 6c 3e 3c 23 6f 3e
       -0.23514763 -0.14182691 0.23100302 0.23353285
000040 4d a2 2c 3e 4e ef c4 bd 24 bf 49 bd 34 d3 ef bb
       0.16858788 -0.09615956 -0.04925455 -0.0073188785
000050 14 ac 6d 3c 4d 05 ab 3d 77 4c 31 be 8b ac 6b bd
       0.014506359 0.083506204 -0.17314325 -0.057537597
000060 80 fb 53 3e bd b6 b4 3c ea 6d 9b 3b af b0 93 3e
       0.20701408 0.022059793 0.0047433274 0.28845736
000070 97 74 40 3e 10 14 d2 39 5e e3 d9 bd 7b 32 f0 3c
       0.18794475 0.0004006927 -0.1063907 0.029320946
000080 37 7e b9 bd ab f2 52 3e e5 e6 11 be 5e 19 28 be
       -0.09057277 0.20600383 -0.14248236 -0.16415927
000090 72 89 1a 3e 83 d6 7a be 32 2a 63 be 43 a7 e6 3d
       0.15091494 -0.24495892 -0.22184065 0.112623714
0000a0 35 10 17 be 27 44 1e be bd b8 1b be 87 15 d1 3c
       -0.14752276 -0.15455686 -0.15207191 0.02552296
0000b0 55 53 04 be 86 16 74 3d 1c b4 22 be 5b dc 38 3e
       -0.12922414 0.059591793 -0.15889019 0.18052809
0000c0 37 c2 49 bb 22 12 73 bd 57 a3 19 bc 07 bf 84 3e
       -0.0030785927 -0.059343465 -0.009377322 0.25926992
0000d0 50 37 4e 3c 1a bd b8 3e 7f 2a 53 3e b9 c3 ca bc
       0.01258643 0.36081773 0.2062168 -0.024751531
0000e0 6d ad 80 3e 7f 94 cd 3d 96 56 eb 3d ce 9c e0 bd
       0.25132313 0.10038089 0.11491124 -0.10967408
0000f0 47 75 82 be 16 77 54 be 1f 95 ea 3c 5c fc 87 3e
       -0.254801 -0.20748553 0.02863556 0.26559722
