results/soh_individual_dataset_results/Dataset 5/pre_trained_model.pth (torch, 95584 bytes, 27 tensors)

cnn1.0.weight f4 [16, 1, 3]
000000 01 43 61 3e 83 9b b0 3d 76 26 cc 3e d8 94 9c be
       0.21998216 0.086234115 0.39873093 -0.3058231
000010 c8 94 9a be 3c 7b c2 3d 6b 93 2c be ac df 02 be
       -0.30191636 0.09496161 -0.1685311 -0.12780637
000020 0a e7 23 3e f6 05 16 3f 37 5b 2a be c3 38 00 be
       0.16006103 0.58602846 -0.16636358 -0.12521653
000030 63 d2 02 3f 2f 9e 0f 3e 47 c4 f5 3e 0c 0a 59 3e
       0.51102275 0.14025186 0.4800131 0.21195239
000040 94 2d 0d 3f d7 cf b3 be 5b c9 f8 be f7 86 3f 3e
       0.5514767 -0.35119507 -0.48591122 0.18703829
000050 10 a0 ff be 6c 0e e1 be ee 90 ae 3d c8 d8 a8 be
       -0.49926805 -0.43956316 0.08523737 -0.3297789
000060 8a 22 88 3e 33 87 d6 be ee e0 95 bd 5e 4c 90 3e
       0.2658885 -0.41900024 -0.073182926 0.28183264
000070 f1 f3 fe be 1a 70 06 3e 46 9b 95 be ae f5 09 3f
       -0.49795488 0.13128701 -0.29220027 0.538905
000080 4a 87 68 be 4d 72 9f bd cb ab 46 3d 68 5e b0 3e
       -0.22707859 -0.07785473 0.04850368 0.34447026
000090 76 ec e9 be fa cd d7 be 3e 88 dc bd d4 1e 84 be
       -0.45688218 -0.42149335 -0.10768174 -0.2580477
0000a0 47 15 d1 bd 82 ab fc 3e 31 fe 03 3e 03 08 de 3e
       -0.102091365 0.493496 0.12889935 0.43365487
0000b0 69 52 a7 3d 26 d4 03 3f 38 99 28 3e 69 00 be 3c
       0.08170015 0.5149559 0.16464698 0.023193555

cnn1.0.bias f4 [16]
000000 83 41 4b 3e 17 7e 15 3f 6f 9f da bd 1d 7e 17 3e
       0.1984921 0.5839552 -0.10674941 0.14794202
000010 2c d6 aa 3d 2c 34 2e 3e 49 bb 70 be 16 dc 22 be
       0.08341631 0.1701209 -0.23508944 -0.15904269
000020 9c 62 e2 be 0b 99 c9 be c9 85 80 3e 4d 12 12 bf
       -0.44215858 -0.39374575 0.2510207 -0.57059175
000030 04 aa ea 3e 4b 0b a2 be 63 77 05 bd f1 47 82 be
       0.45832837 -0.3164924 -0.03258456 -0.25445512

cnn2.0.weight f4 [32, 16, 3]
000000 92 fb ca bd b9 bc b4 bd a2 13 9c 3d b5 b6 11 3e
       -0.099112645 -0.088250585 0.07620932 0.14229853
000010 d2 ca 0e 3e 8b 24 bd bd 07 70 02 3e 94 fd 9d 3d
       0.13944557 -0.09235486 0.12738048 0.07714382
000020 85 bf 4d bc 0b 3c 8b 3d 69 02 a5 bc dd 11 a8 bd
       -0.012557869 0.06798562 -0.02014275 -0.08206532
000030 6d 3a 03 bc 29 0b 06 be fc 07 0b 3c 04 a0 7d 3d
       -0.008009535 -0.13090195 0.00848579 0.06192018
000040 14 c6 07 3e 4d 08 68 bd 4c ec 05 3e 0e 07 03 be
       0.13259155 -0.05664854 0.13078421 -0.1279566
000050 83 0c fb bd 2b 38 ce 3d 63 d6 d6 bb 48 e2 ac bd
       -0.12258246 0.10069307 -0.0065563186 -0.08441597
000060 99 32 3e 3d 05 52 cc bc aa 6f 00 3c d2 c6 ab bc
       0.046434972 -0.024941454 0.007839123 -0.020968828
000070 df a8 b9 3d 21 77 dc bc c1 c4 04 3d 59 6d f6 bd
       0.09065413 -0.026912274 0.0324142 -0.12032575
000080 44 fb f1 bc d5 f2 9c 3d 05 0b 10 bd 95 a2 1c bd
       -0.029538758 0.07663504 -0.03516676 -0.038240988
000090 ed 7f ee bd f8 04 23 bc 95 ae ba bd f2 f5 d1 bd
       -0.11645494 -0.009949915 -0.0911533 -0.102519885
0000a0 9b 9d 02 be 9b 59 fb bd 60 16 db 3d 58 80 98 bd
       -0.12755434 -0.1227295 0.10697627 -0.07446355
0000b0 79 15 11 be 7e eb 08 be b7 32 93 bc f0 52 14 bd
       -0.14168347 -0.13371083 -0.017968519 -0.036211908
0000c0 34 35 2e bd 4a 0f 0f be 80 4a 86 bc 51 04 ea 3b
       -0.042531207 -0.13970676 -0.016392946 0.007141628
0000d0 00 17 93 bc 81 ed 08 3e ce db 85 bd a5 9a 9e bd
       -0.017955303 0.1337185 -0.06536065 -0.0774434
0000e0 5a c1 28 bd 54 06 de bc 6d 35 b3 bd e9 26 82 bd
       -0.04120002 -0.027102627 -0.087504245 -0.06355078
0000f0 ba f8 f6 3d 5a fc f6 bd 87 dc df 3d 0f 64 5d bd
       0.120591596 -0.12059851 0.10930734 -0.0540505
000100 d2 8b 02 be c4 4a 96 3b 76 fe bf 3d b2 02 ba 3a
       -0.1274865 0.0045865495 0.093747064 0.0014191477
000110 79 40 d5 bc be 32 d6 3c b9 c2 da 3d 11 84 95 bd
       -0.02603172 0.026147243 0.10681672 -0.0730058
000120 7b 0c 03 be f7 53 d1 bd 22 07 54 bd 55 f7 a8 3d
       -0.1279773 -0.10221093 -0.051764615 0.082503
000130 29 e6 ec bd 5b 62 07 be 67 5a c2 bd 07 44 0e be
       -0.11567337 -0.13221113 -0.09489899 -0.13893138
000140 d5 b8 c8 bd 46 9f e2 3d ed 22 dd 3b d2 6e dd 3d
       -0.09800879 0.11065535 0.0067485482 0.10812153
000150 ad c9 d5 bd 9a 0e ba 3c 94 90 38 3d f2 47 f4 bd
       -0.10438857 0.02271204 0.045059755 -0.11927785
000160 b3 8f f5 bd a2 65 c2 bd f2 4a c6 3a 9d 02 e1 3d
       -0.11990299 -0.09492041 0.0015128537 0.109868266
000170 ca be 98 bd f0 68 52 bd 38 25 95 3d 98 c7 da 38
       -0.07458265 -0.051369607 0.072824895 0.00010432227
000180 f6 ad 1b bc 97 c5 13 be 68 c2 a0 bd a9 e1 c8 3d
       -0.009501925 -0.14430843 -0.0784958 0.09808666
000190 48 c2 6a bb a3 42 e8 3d a8 d3 4e 3d 90 fd d5 3d
       -0.0035821367 0.11340835 0.05049482 0.10448754
0001a0 52 c6 a5 3d ca 72 a4 bd d6 6e b4 3d 8e c0 63 bd
       0.08094467 -0.08029707 0.08810203 -0.055603556
0001b0 1c e6 8e bd 56 9e 61 bd 9f 15 01 be f0 25 bc bd
       -0.06977484 -0.05508264 -0.12605904 -0.091869235
0001c0 ae 1b 84 bd 00 df 5a bd 3d 68 f0 3d 40 28 7b 3c
       -0.06450592 -0.053435326 0.11738632 0.015329421
0001d0 80 96 bf 3d f8 d1 e8 bd c1 22 ac 3d 08 3b 0d be
       0.093548775 -0.11368173 0.08405066 -0.1379205
0001e0 46 30 08 3e 83 04 a5 3d 88 94 3d 3d ad 75 03 3e
       0.13299665 0.08057501 0.04628423 0.12837858
0001f0 6f b0 2d bd 58 ac 0c be 90 b7 b2 bd 55 9a 85 3c
       -0.04240459 -0.13737619 -0.08726418 0.016308943
000200 21 14 cb bd 0a 6e 12 be dd 8a d9 3d 35 e7 d0 3d
       -0.09915949 -0.14299789 0.10622189 0.10200349
000210 03 c0 9b 3d 5f 46 0e bb ac 1b 03 be 62 68 bf bd
       0.07604983 -0.0021709425 -0.12803525 -0.09346081
000220 6f 83 5d 3d c3 2a e8 bd 9c 5c 7c bd dd f7 97 3d
       0.054080423 -0.11336281 -0.061611757 0.07420323
000230 bb b0 6b bd ae a1 1e bd fc 4e 05 be fb 0f 5b 3c
       -0.05754159 -0.03872841 -0.13018411 0.013370509
000240 ed 0b 6e bd 9d 33 03 bd 2d b4 27 bd 0f be f5 3d
       -0.058116842 -0.032031644 -0.040943313 0.119991414
000250 e9 33 21 3e dc e6 da 3c 25 e0 54 3d b8 19 88 3d
       0.15742458 0.02672141 0.051971573 0.066455305
000260 7d 4e d2 bb 9f fd b5 3d d3 e3 f5 3d 79 db dc bd
       -0.006418048 0.08886265 0.12006345 -0.107840486
000270 00 86 15 be 16 eb 54 bd 43 15 6f 3d 9c 31 0a 3d
       -0.14601898 -0.051982008 0.058369886 0.033738717
000280 cc f3 5d bc 3f ba f4 3d ce 51 e7 bc 94 f7 9e 3d
       -0.013546895 0.11949586 -0.02823725 0.077620655
000290 a0 d2 d9 3d 6a bd a1 bd 61 f7 1c bd 5b 02 3f bd
       0.10635877 -0.07897456 -0.038321856 -0.046633106
0002a0 75 bd e9 bd 41 46 c6 3d 54 01 be 3d a0 f8 4d 3d
       -0.11413089 0.096813686 0.09277597 0.050285935
0002b0 33 8d bd bd 18 dd 94 3d ee 84 eb bc 45 04 80 3d
       -0.09255447 0.07268733 -0.02874991 0.06250814
0002c0 4e 83 81 bd cb 29 e2 bd bd fe ff bc ea e4 ce bd
       -0.063238725 -0.110431276 -0.031249398 -0.10102256
0002d0 1a f5 18 3e 48 b0 c2 3b d9 c6 25 3d 94 66 c9 3d
       0.14937249 0.0059414245 0.04047284 0.09834018
0002e0 7d e8 14 3d 74 9b 9c bd 51 6b 00 3d 15 d6 25 be
       0.03635453 -0.07646838 0.031352345 -0.16194947
0002f0 de 30 0e ba 2c 8a 7b 3d 9b db 17 be 4c e5 03 3e
       -0.0005424152 0.061411068 -0.14829867 0.12880439
000300 60 32 07 be d6 67 92 bd 73 a1 d4 bd 18 9f b7 3d
       -0.1320281 -0.071487114 -0.103823565 0.089658916
000310 96 a6 be 3d b3 90 84 3d e0 09 d3 bd 4f 84 a0 3d
       0.093091175 0.06472912 -0.10304618 0.07837736
000320 ef 02 dc bd a2 a4 16 be 9e c3 ce 3d e0 6d a1 bb
       -0.10742747 -0.1471124 0.10095905 -0.004926428
000330 56 5f 19 be 2e e2 8b 3b cb fd 0c 3e 00 05 2e bd
       -0.14977774 0.004268906 0.1376869 -0.042485237
000340 4d 7d 7f 3d de 96 eb 3d fd 53 e4 bd 85 01 f6 bd
       0.062375356 0.11503385 -0.11148832 -0.120120086
000350 5b 30 cf 3d 2d 30 0f 3e 33 61 02 be 75 24 f5 3d
       0.10116645 0.13983221 -0.12732391 0.11969844
000360 de ba 04 3d 6b 4e af 3d b0 d9 d4 3d 01 d0 44 bd
       0.032404773 0.08559879 0.10393083 -0.04804993
000370 5d 5d 2a bd f3 28 b3 bd 2b c5 f5 3d ff 83 1f bd
       -0.041592944 -0.08748045 0.120004974 -0.03894424
000380 89 1d 71 bd b6 9b 06 3d c9 ad 81 3c 8a 98 fd bd
       -0.058866058 0.03286334 0.015829938 -0.1238261
000390 44 6f f9 3d b5 32 bc bc 1e 50 0a be ef 26 18 3c
       0.12179425 -0.022973398 -0.13507125 0.009286626
0003a0 3f 63 e9 3d e5 69 86 bc 63 6a 9d bd 85 a9 09 be
       0.11395883 -0.016407916 -0.07686307 -0.13443573
0003b0 18 ae 48 3e ad a4 de bd 7a 14 be bd 57 72 9f 3d
       0.19597661 -0.10871253 -0.09281249 0.077854805
0003c0 63 0a 7b 3d 29 f6 1a bc e3 b1 86 bc fe cc c7 3d
       0.061289202 -0.009458103 -0.016442245 0.09755896
0003d0 f9 2f c3 bd 0a 89 e3 bc a5 f6 ed bd ee a8 16 bd
       -0.095306344 -0.027775306 -0.11619309 -0.036782198
0003e0 e6 fb 25 bd 53 62 2f 3d c0 e1 1b be ec be 89 3c
       -0.040523432 0.04281838 -0.15222836 0.016814671
0003f0 d1 d3 60 3d 95 06 ef bd 30 26 9a 3d 50 da e3 3d
       0.054889504 -0.11671177 0.07526815 0.11125624

cnn2.0.bias f4 [32]
000000 ab 05 e7 bd 10 ce 82 3d ec 98 57 3d 26 28 d3 3d
       -0.11280378 0.063869596 0.052636072 0.10310392
000010 bb ea a5 bd 1d c3 e5 bd ea de 25 bc 8c 02 f0 3d
       -0.08101412 -0.112188555 -0.010123948 0.11719236
000020 b1 19 00 bd 40 f9 b8 3c c3 fa 13 3d 90 8c de bd
       -0.0312745 0.02257979 0.036127817 -0.10866654
000030 db f9 29 3e cc 33 a0 bd 28 a9 c2 3c 58 5b f4 3c
       0.16599219 -0.078223795 0.0237623 0.029828712
000040 60 c3 fa 3d 19 a1 d4 bd 05 cf cd 3d 60 d8 90 bd
       0.12244296 -0.103822894 0.100492515 -0.0707252
000050 42 aa 12 be bf a7 04 be fd c3 ac bd 39 f8 ad bd
       -0.1432276 -0.12954615 -0.08435819 -0.0849461
000060 5c dc 2c be d3 bb 5d bd 0b 0e 1f 3e f1 d2 b3 bd
       -0.16880935 -0.0541342 0.155327 -0.08780468
000070 3b 44 a7 3d e8 81 e3 bd bd b7 41 3e 1e 9f e9 bc
       0.08167311 -0.11108762 0.18917747 -0.028518256

lstm1_1.weight_ih_l0 f4 [64, 32]
000000 4a a1 6a 3e 0c 36 50 3e 8b 31 79 bc b3 c5 85 bd
       0.2291309 0.20333117 -0.015209566 -0.06531849
000010 77 bb 5e 3d fa ef 53 be 2d 7c 73 3e 8d 87 39 3e
       0.054378 -0.20697013 0.23777838 0.18118115
000020 7c 65 af 3d 4f e6 5e bc 62 bb 4b be 90 00 9c bd
       0.085642785 -0.013604715 -0.198957 -0.07617295
000030 30 c0 01 be a4 5a 37 be 34 b6 11 3e d5 ba 0f 3d
       -0.1267097 -0.1790567 0.14229661 0.035090286
000040 77 3e 9a 3d 30 8a f4 bd 57 18 69 be ea 42 4e 3e
       0.075314455 -0.1194042 -0.22763191 0.20142713
000050 9a c7 b0 3c 10 9f 04 3e 30 e5 73 3d 82 21 4a 3d
       0.021579552 0.12951303 0.059544742 0.04934836
000060 fd ec 11 bd ae c9 5f bd c8 80 3c be a2 77 26 3e
       -0.0356264 -0.054635696 -0.18408501 0.16256574
000070 77 0c b6 bd 48 bf 52 3d af 33 05 be 67 73 7e be
       -0.08889096 0.05145195 -0.13007997 -0.2484871
000080 c4 bb 25 3e 98 7a 4e 3e 19 d7 7f be e5 d8 86 be
       0.16184908 0.20163953 -0.24984397 -0.26337352
000090 85 bc 1c 3e 21 0c 04 3e 71 77 84 3e 63 00 58 be
       0.1530629 0.12895252 0.25872377 -0.21093898
0000a0 4a ed 2b be 01 66 64 be 58 65 e7 bb 3a 75 0f 3e
       -0.16789737 -0.22304536 -0.0070616417 0.14009562
0000b0 1c 84 26 bd 24 3f 1f be 98 31 36 3e 40 72 9a 3b
       -0.040653333 -0.1555143 0.17792356 0.0047133267
0000c0 fc 1f 5b be 10 f1 18 bd 92 2a a5 3d 28 b7 74 3e
       -0.2139892 -0.03733927 0.0806476 0.23897994
0000d0 d0 0b 41 be bc 88 dc bd 4c d7 d2 3d d8 29 be 3c
       -0.18852162 -0.107682675 0.10294971 0.023213312
0000e0 4c 15 31 be 60 c4 72 3e 45 31 67 be 72 26 54 be
       -0.1729328 0.23707724 -0.22577389 -0.2071779
0000f0 48 3d 18 3e 41 9f b2 bd 50 7d c7 3c ba b7 b2 3d
       0.14867127 -0.087217815 0.024351746 0.08726449
000100 8a 63 40 3e 40 e2 d5 3b 35 ea 4d be 89 18 8a bd
       0.18787971 0.0065272152 -0.20108874 -0.06742961
000110 1f 0b 13 3d fd 9a 3b 3e b5 41 46 3e 23 9a 2b 3e
       0.035899278 0.18320842 0.19361003 0.16758017
000120 8a 30 22 be 2d d6 09 3e 83 3e 69 3e d8 45 84 3d
       -0.15838829 0.13460608 0.22777753 0.06458634
000130 46 ce 83 bd fc 8e 25 3e a0 f8 30 bc 67 96 86 3e
       -0.06435828 0.16167825 -0.010801464 0.26286623
000140 d6 ce 63 3e 20 67 e7 3d f5 24 d5 bd 4c ab 58 3e
       0.2224687 0.112989664 -0.104074396 0.21159095
000150 f7 3c 15 be 0a f0 8a 3d 64 73 6c be 8b 68 69 3d
       -0.14574037 0.06784065 -0.23090893 0.056984466
000160 d7 66 cb bd ff d4 9b 3d 8a c2 c6 3d f6 74 51 be
       -0.099317245 0.07608985 0.09705074 -0.20454773
000170 dc 48 b8 3d 4b 09 7f 3e 92 62 35 3e 87 32 42 bd
       0.08998272 0.24905889 0.17713383 -0.047411468
000180 6e ae 54 be a8 3d 2e 3e 77 98 66 3d 1d 09 ef 3c
       -0.20769665 0.17015707 0.056297746 0.02917915
000190 bd 6b 94 3c 20 a8 83 3e f6 3c f8 3d d8 e8 a3 bd
       0.01811778 0.25714207 0.121210024 -0.08003396
0001a0 10 f4 ec 3c b5 70 d3 3c 1b df 48 bc b0 ba 83 3d
       0.028924972 0.025810579 -0.012260224 0.06432092
0001b0 65 52 e1 3c 4e 09 45 3e d8 8b 08 3e d6 f2 02 be
       0.02750511 0.1924183 0.13334596 -0.12787947
0001c0 87 5e ad 3d d8 3c 53 bd 67 97 71 3e 58 4f 3e 3d
       0.08465295 -0.051571697 0.23592912 0.046462387
0001d0 44 e8 c1 bd cb ef 81 3e 34 2f 66 be cf 58 3b bd
       -0.09468129 0.2537826 -0.22478944 -0.04573899
0001e0 6e 09 b9 39 07 59 62 be da 0b af 3d 1c 28 9e 3d
       0.00035292975 -0.22104274 0.085471824 0.07722494
0001f0 d6 4d 33 be d4 52 81 3d 25 9d 6a 3d e7 6c 08 be
       -0.17510161 0.06314626 0.05727877 -0.13322793
000200 5e 72 00 3e 98 85 21 3e f8 05 33 3e 12 92 d4 3d
       0.12543628 0.15773618 0.17482746 0.10379423
000210 67 d0 b0 3e b0 81 84 be fa 8b 0f 3e f1 9b 23 be
       0.34533998 -0.25880194 0.1401824 -0.15977456
000220 e0 80 7d be 5b 90 1a be ac af 98 bc 4e d0 37 be
       -0.24756193 -0.1509413 -0.018638454 -0.17950556
000230 92 ac 11 be be 70 04 3e 18 9c e7 3d c3 a9 1a 3d
       -0.14225987 0.12933633 0.113090694 0.037759554
000240 5b 95 fb bc 34 45 8f 3d 2b c8 ea 3d 08 0b 3c 3e
       -0.030710867 0.06995621 0.1146396 0.18363583
000250 93 e6 8e 3e 49 06 14 3d e2 b8 5d 3e 36 77 99 3d
       0.2791029 0.036138806 0.21652558 0.07493441
000260 c8 48 3c 3d 9a f1 8e 3d d1 09 7f 3e b6 3d 18 be
       0.045967847 0.069796756 0.24906088 -0.14867291
000270 b1 bc b8 bd 45 2e d0 ba 01 29 a8 3e 5f 29 e0 3d
       -0.09020365 -0.001588293 0.32843783 0.10945391
000280 44 c7 80 bd 12 4c 3c 3e 8d c9 24 3e 65 78 a4 be
       -0.06288007 0.18388394 0.1609251 -0.32123104
000290 0a 0a a9 3e 9b d7 2e bc 13 de 83 3c 7f 26 3d 3e
       0.33015472 -0.010671522 0.016097104 0.18471716
0002a0 60 db 5e bc ed 41 74 be ec a4 8c 3e 82 1a 41 3e
       -0.013602108 -0.23853274 0.27469575 0.18857768
0002b0 8f c4 1c 3d d0 7f 32 bd 40 06 ed 3b ac 25 2a bd
       0.03827339 -0.043578923 0.007233411 -0.041539833
0002c0 bf 8f 94 3e ea 9e 35 3e 83 d0 ec bd f0 72 58 3e
       0.2901592 0.17736402 -0.11563208 0.21137595
0002d0 dc eb 81 bd ff af 96 3e 70 03 74 be 26 74 a4 bd
       -0.06343815 0.2943115 -0.23829436 -0.08029966
0002e0 08 71 47 3c a7 92 ac bd 95 62 ae 3c 50 72 43 3e
       0.012172945 -0.08426409 0.021287242 0.19086576
0002f0 65 ee a6 bd f1 32 42 3e 34 70 53 3e a3 43 b3 bd
       -0.08150939 0.18964745 0.20648271 -0.08753135
000300 e8 41 1a 3e a8 cc 1e 3e 3e c6 28 3e bd 70 f6 3c
       0.15064204 0.15507758 0.16481873 0.030083055
000310 2a 51 21 bc 98 ed 36 be 0c 1f 2e be ef d4 24 be
       -0.009846011 -0.17864072 -0.17004031 -0.16096853
000320 7a 9d 49 be e5 f5 7c 3e 78 64 2a be 96 ad 4d 3e
       -0.19688979 0.24703176 -0.16639888 0.20085749
000330 49 f0 9b 3d 00 3c 94 3d 24 32 53 be f4 3b f9 3d
       0.0761419 0.072380066 -0.20624596 0.12169638
000340 c2 d8 d8 bd 60 91 f3 3d a7 e8 55 be 80 6d 16 3c
       -0.10588218 0.118929625 -0.20889531 0.00918138
000350 5c 8b 4f 3e 67 34 16 be 00 15 33 3b 2d 96 16 bc
       0.20268005 -0.14668427 0.002732575 -0.009191078
000360 bd b9 ff 3c 7e eb 85 3d 56 46 69 be 58 c9 6c 3d
       0.031216497 0.06539057 -0.22780737 0.057809204
000370 67 02 5c 3e 84 94 57 be 37 82 a0 bd 31 cb 33 be
       0.21485291 -0.21052748 -0.078373365 -0.1755798
000380 08 ac ce bd e0 dd 27 bc 0e 2d 76 be 78 c2 4b be
       -0.10091406 -0.01024577 -0.24040624 -0.19898403
000390 ff e7 d2 bd 72 f8 3d be 6f f8 98 bc 2f 15 df 39
       -0.10298156 -0.18551806 -0.01867315 0.00042549658
0003a0 d8 08 16 3e f6 4e 47 3e d4 20 72 3e 34 35 bb 3d
       0.14651811 0.19463715 0.23645335 0.09141007
0003b0 9a a3 74 3d a0 5b 60 3d dc 9c 68 be 02 89 17 be
       0.059726335 0.05477488 -0.22716087 -0.14798358
0003c0 b8 d2 50 be 8c 99 75 be ad 1e 2a 3d c0 40 1a 3e
       -0.20392883 -0.23984355 0.04153316 0.15063763
0003d0 c6 38 34 3e f2 33 3a 3d 30 b4 88 3c e1 79 b7 3d
       0.17599782 0.045459695 0.016687483 0.089587934
0003e0 a2 49 db ba 78 79 85 bc 46 88 6b be fc 6b 02 3e
       -0.0016730318 -0.016293272 -0.23001203 0.12736505
0003f0 78 9c ab bc 9e 4b 0e be 2f 0a cd 3d 8e ea 93 3c
       -0.020948634 -0.13896033 0.10011708 0.01805618

lstm1_1.weight_hh_l0 f4 [64, 16]
000000 48 f8 3a 3d 87 8b 31 3e 8a d1 81 3d 36 87 7c 3d
       0.045646936 0.17338382 0.063387945 0.061652385
000010 5b 05 56 3d 2a fe bb 3c 0e 64 39 bd b6 2d 89 3d
       0.0522512 0.022948343 -0.045261435 0.06698172
000020 3d 34 76 3e d0 22 58 3e 98 7a 09 be 14 95 58 be
       0.24043365 0.2110703 -0.13425672 -0.21150619
000030 4c 4d 7d be 2a e5 c4 bc 2e eb 03 3d 15 25 e7 bb
       -0.24736518 -0.024035055 0.032206707 -0.007053981
000040 7e 7d b0 bd b9 5d b1 3d ad 6f 6c 3e 6d 5e 6c 3e
       -0.08617686 0.08660454 0.23089476 0.23082896
000050 c9 63 a4 bc ba 51 c8 bd 83 10 30 3e c2 ca 4f be
       -0.020067113 -0.09781213 0.17193799 -0.2029219
000060 30 6f 52 3e d4 09 45 bd 94 c7 2d bd f9 93 6a 3e
       0.20550227 -0.048105076 -0.04242666 0.2290801
000070 cf cb dd 3d 5d 3b ae bd 55 1a 46 be 8c 7a 3e 3e
       0.10829889 -0.085074164 -0.19345982 0.18601435
000080 c2 96 4f be 31 f4 52 be 38 6e 93 3d 64 d7 dc 3d
       -0.20272353 -0.20600964 0.07198757 0.1078327
000090 a8 af 80 bd 1c b8 22 3e d5 cb ee bd 60 f2 53 bc
       -0.06283504 0.15890545 -0.116599716 -0.012936205
0000a0 fd be 9b 3d 02 37 0a be 14 d9 40 be 34 5c e0 bd
       0.076047875 -0.13497546 -0.18832809 -0.10955086
0000b0 51 02 8d bd a5 b3 aa 3d f8 cb 0b 3e 7c 4f 55 be
       -0.068852074 0.08335046 0.13652027 -0.20831102
0000c0 06 de db 3d b6 cc 87 be 48 aa 3a be b7 51 cc bd
       0.10735707 -0.2652337 -0.1822902 -0.09976523
0000d0 97 bc ab bd 73 cd 57 3e 23 a9 37 be 61 c0 c1 bd
       -0.0838558 0.21074466 -0.17935614 -0.094605215
0000e0 ae 86 26 be 54 81 79 bd 80 39 19 3e 0b 65 35 3d
       -0.16262314 -0.060914353 0.14963341 0.044285815
0000f0 be b7 2a be f6 a3 0a 3e 7c ca 39 bd 68 e9 22 be
       -0.16671655 0.13539109 -0.04535912 -0.1590935
000100 cd 86 07 be c9 ab 21 3e 27 06 35 3e 4e 87 49 3e
       -0.13235016 0.15788187 0.17678128 0.19680521
000110 23 73 4b 3e b7 fd e0 bd 0c 73 26 be 5e a5 99 bc
       0.1986814 -0.10985892 -0.16254824 -0.018755611
000120 22 35 7e 3e a4 56 59 3e 92 ab e9 3d 6f 75 09 3e
       0.24824956 0.21224457 0.114096776 0.13423704
000130 6d 8f d0 3d 5c 78 7a 3e a4 7d ad 3c 3f e5 97 3d
       0.10183606 0.24459976 0.021178074 0.07416772
000140 f2 1e f2 bd e3 e1 ee 3d 43 f6 74 bd 03 f0 d8 bd
       -0.118223086 0.11664178 -0.059805166 -0.105926536
000150 51 03 26 be ce bf f7 bd b5 e8 2b bd 01 f8 56 be
       -0.16212203 -0.12097131 -0.041969974 -0.20993043
000160 2d 65 be bd 13 b0 16 be da 9f 63 be c7 5d 8e 3d
       -0.092966415 -0.14715604 -0.22228947 0.0695148
000170 20 a9 ea bd 09 19 e4 3c 8b 03 82 be 0a 6f e6 bd
       -0.11458039 0.027843969 -0.25393328 -0.11251648
000180 ae 81 87 3d 5b 4b 6d 3d d0 28 20 be 3e 81 73 be
       0.06616531 0.057933193 -0.15640569 -0.2377977
000190 18 2d 18 3e 26 e1 f6 3d 66 49 4a 3c f9 56 29 be
       0.14860952 0.120546624 0.012346601 -0.16537084
0001a0 d7 27 b5 bd 94 35 18 3e fd 77 5c be 47 8b 33 be
       -0.088454895 0.14864188 -0.21530147 -0.17533599
0001b0 65 77 24 3e f3 8e 05 3e 24 19 91 3d 64 a3 41 3e
       0.1606117 0.13042812 0.07084873 0.18909985
0001c0 3f 48 71 be 11 4b 09 3e 2c 11 08 3e fc d5 76 be
       -0.23562716 0.13407542 0.132878 -0.24105066
0001d0 d0 43 2b 3e b6 96 95 3d ad dd 13 3e 9f 03 4a 3e
       0.16725087 0.073041365 0.14440031 0.19727944
0001e0 d5 8d 33 3e 96 51 18 3e 3b 61 07 be 5d 9e c5 bd
       0.17534573 0.14874873 -0.13220684 -0.09649346
0001f0 e6 41 a8 bd 9c 83 cb 3d e4 f7 82 3e c7 65 0f be
       -0.08215694 0.09937212 0.2557975 -0.14003669
000200 a2 0d 6f 3d 08 99 2e be 54 6c 69 3d 37 e8 f7 3d
       0.05836261 -0.17050564 0.056988075 0.12104838
000210 7b ba 63 3e 57 c2 1b 3b 00 88 0b 3e be 50 05 be
       0.22239105 0.0023766959 0.13626099 -0.13019082
000220 61 76 1e be c7 3a 0c 3e 21 53 63 be de c4 6d be
       -0.15474845 0.13694297 -0.2219968 -0.2321963
000230 18 fc 43 be 6e 7f 05 bc 5d b6 73 be 8f 14 97 be
       -0.19139135 -0.008148057 -0.23800035 -0.29507872
000240 3c e5 75 be 40 1b ba 3d d2 f9 2a be b5 25 88 3e
       -0.24013227 0.09087229 -0.16696861 0.26591268
000250 72 1c 16 be 7e 72 d7 bc ec d7 82 3e fc b1 cf bd
       -0.14659289 -0.026299711 0.2555536 -0.1014137
000260 1f fb 01 be 06 31 2c 3e 42 de ad 3d ba fe b6 bd
       -0.12693451 0.16815576 0.08489658 -0.08935304
000270 7b 30 5c be 84 b4 09 be 37 fa 44 be 67 15 08 3d
       -0.21502869 -0.13447767 -0.19236074 0.033223536
000280 bd 24 d3 bd ca 37 cd 3d 54 7b 82 bd 2a 83 1b 3e
       -0.10309742 0.100204065 -0.06371179 0.15186754
000290 01 e9 26 be 8e 82 5b 3e 3a 9a 2c 3e 0d 00 53 3e
       -0.16299821 0.21436521 0.16855708 0.20605488
0002a0 20 7a 8e 3d 96 b4 40 be f3 44 b8 bc d3 b6 9b 3d
       0.06956887 -0.18818888 -0.022493815 0.0760323
0002b0 c9 ba 38 3e c8 6e 1f 3d 98 b1 1b be a5 9f a7 be
       0.18040003 0.03892401 -0.15204465 -0.32738987
0002c0 51 f0 c3 3d a0 22 e8 3d 06 a8 bc 3c de af 8c 3d
       0.09567321 0.11334729 0.023029339 0.068694815
0002d0 f7 4c 01 be b1 b7 23 3d 0b fc d4 3d 97 39 9a 3d
       -0.12627016 0.039970104 0.10399636 0.07530516
0002e0 af d1 89 3d b6 b7 0f be a4 25 2c 3e 26 27 f1 bd
       0.06729447 -0.14034924 0.16811234 -0.11775045
0002f0 93 55 a7 bc aa f4 29 bd 35 2d 18 3e 3b 16 97 be
       -0.020426547 -0.041493095 0.14860995 -0.29509148
000300 99 0c 63 bd ad d0 7e be 77 10 4c 3d 13 34 47 3e
       -0.055431936 -0.24884291 0.04982039 0.19453458
000310 96 76 b5 3d a9 69 26 3d 83 ba 4a 3e cc 43 2e be
       0.08860509 0.04062811 0.19797711 -0.1701805
000320 80 6d ff 3d 5f 75 79 be 8e e7 30 be 49 52 58 be
       0.12472057 -0.2436118 -0.17275831 -0.2112514
000330 a0 79 25 be 43 e0 44 3d 61 e3 56 be e8 6e 89 3d
       -0.16159678 0.048065435 -0.20985176 0.06710607
000340 e5 9b 24 3b 2b 2c 1b 3e 96 e6 d9 bc 77 5c d2 bd
       0.0025117334 0.15153567 -0.02659921 -0.102715425
000350 5b 96 de 3d 43 ff 73 bd 64 c6 65 3d 89 55 54 be
       0.10868522 -0.05956961 0.056097403 -0.20735754
000360 3d c9 a5 3d 5a 81 43 3d ef 4c 15 3e 73 86 12 3e
       0.08095024 0.04773078 0.14580129 0.14309101
000370 54 65 57 3e 12 aa 2f be 61 ef 5e 3d 2e 3f 11 be
       0.21034747 -0.1715472 0.05442751 -0.14184257
000380 2a 70 4d be d1 59 40 3e ac ab 17 be 80 f7 45 bd
       -0.20062318 0.18784262 -0.14811581 -0.048331738
000390 1d 08 ed bd 65 d1 65 3e ca 6b bd bd 40 a2 ea 3d
       -0.11573813 0.22443159 -0.09249075 0.11456728
0003a0 3e f1 fc 3d d2 17 22 3e 5e c6 52 3e dd d6 04 bd
       0.12350701 0.15829399 0.20583484 -0.032431472
0003b0 27 a3 28 3d 8d 7f d6 bc 4e c2 2f 3e ba 06 16 3e
       0.04117122 -0.026183868 0.17163965 0.14651003
0003c0 84 1a 0a be 88 2c 12 3d 0b 3a 09 be a0 dd 0d 3e
       -0.13486677 0.035687 -0.13401048 0.13854074
0003d0 2a 01 5b 3e 25 d7 7c bd 7b 75 17 3e 7c ec 44 3e
       0.21387163 -0.061728615 0.14790909 0.19230837
0003e0 8f 23 ba 3d c8 55 2a bc 25 06 64 3e b8 60 26 3e
       0.090888135 -0.010396428 0.22267969 0.16247833
0003f0 22 2b 32 3e e3 b0 7a be b4 af 37 3e dd f7 ef 3c
       0.17399266 -0.2448154 0.17938119 0.029292995

lstm1_1.bias_ih_l0 f4 [64]
000000 45 98 35 bd 4e 49 d6 bd 04 ab 28 be be d3 01 be
       -0.04433467 -0.104632005 -0.16471487 -0.1267843
000010 93 d2 ae 3a 40 d0 d7 bd c9 45 c6 3d 9a cf 33 be
       0.0013337902 -0.105377674 0.09681279 -0.17559662
000020 9d 91 46 3e 8c fb 89 bd 65 c3 9a 3e 60 1f 5b 3d
       0.19391485 -0.06737432 0.302272 0.05349672
000030 d4 6f 40 be a4 6a 41 3e a0 dd 4b 3d ac 35 da 3d
       -0.18792659 0.18888336 0.049771905 0.10654768
000040 41 4e 13 be 13 d5 23 3e 87 d6 6e 3e 42 43 22 3d
       -0.1438532 0.1599925 0.23324023 0.039614923
000050 25 b0 43 3e ee f6 33 3e b0 2d 4a 3e de 8d 23 bc
       0.19110163 0.17574665 0.19743991 -0.009982554
000060 9d e4 12 be d8 2a 2c 3e d9 ae 5f 3d 93 05 30 be
       -0.14345022 0.16813219 0.054610107 -0.17189626
000070 48 99 d3 3b 48 94 3a be 87 86 55 be de 21 1c be
       0.0064574815 -0.18220627 -0.208521 -0.15247294
000080 0b e4 3f 3e 86 e8 20 be f9 75 6f 3e 65 1d 44 be
       0.18739335 -0.157137 0.23384847 -0.19151838
000090 b4 63 32 be fb d4 37 3e ac c7 2c be b0 1a bc bd
       -0.17420846 0.1795234 -0.16873044 -0.09184778
0000a0 e9 1d d4 3d e8 d5 d8 bc f3 d8 2e 3e c8 07 7d 3e
       0.103572674 -0.026469186 0.17074947 0.2471
0000b0 d4 6a ab bd 08 09 bb 3d 0a 98 13 be b3 ee f0 bd
       -0.08369985 0.09132582 -0.14413467 -0.11764278
0000c0 e8 9e 29 be 3e 9a 3b be 8d 46 53 be 38 1d 0b be
       -0.16564524 -0.18320557 -0.20632382 -0.13585365
0000d0 16 6c 4a be 15 70 34 be bf 3b fa 3d 99 87 c3 3c
       -0.19767794 -0.17620881 0.12218427 0.023868369
0000e0 b2 b3 88 3d 38 e0 ac bd e5 ec 4f 3e 7a 99 3d be
       0.06674899 -0.08441204 0.20305212 -0.18515578
0000f0 5d ce 48 bd e1 50 c3 3d f4 6c cc 3d 61 c6 39 3d
       -0.04902493 0.09536911 0.09981719 0.045355204

lstm1_1.bias_hh_l0 f4 [64]
000000 4f 4d 10 be f4 17 28 be 3a 8d df 3b d8 d2 80 3d
       -0.14091991 -0.16415387 0.0068222554 0.06290215
000010 71 7a e7 3d 79 33 4f bd d7 55 d8 bd 94 15 46 be
       0.11302651 -0.050586198 -0.10563248 -0.19344169
000020 3d e7 4d be f9 5c 98 3d a2 d3 ce bd 90 e7 aa bd
       -0.20107742 0.07439608 -0.100989595 -0.08344948
000030 46 4a 08 be d4 b3 eb bd 37 44 01 be 43 13 d2 bd
       -0.13309583 -0.11508909 -0.12623678 -0.1025758
000040 c5 8c af 3d 91 b0 1f be e9 2b cf 3d c5 a3 6d 3e
       0.085717715 -0.15594698 0.10115797 0.23207004
000050 e4 51 0b 3e 8a 51 23 be 49 3d e8 bc ae 69 16 be
       0.13605458 -0.15949073 -0.028349536 -0.14688751
000060 11 d0 e5 bd bb d1 4f bd 91 60 a0 bd 0e d8 88 3e
       -0.11221326 -0.050737124 -0.078309186 0.26727337
000070 42 77 8c 3d d4 33 47 3e 43 6b 7a 3d 87 a8 07 3e
       0.06858684 0.19453365 0.06113745 0.13247882
000080 05 5c 09 be 4d c0 06 be a0 a5 94 bd a5 23 35 3e
       -0.13414009 -0.13159294 -0.07258153 0.17689379
000090 bd 7c 8a be f6 27 04 be 36 13 0c be 89 23 0b 3e
       -0.27048293 -0.12905869 -0.13679203 0.13587774
0000a0 4f 38 bb bd 9c ad 16 3e a5 2e 53 be 2e 0b f8 bd
       -0.091415994 0.14714664 -0.20623262 -0.12111507
0000b0 9a e6 3b 3e 86 bc 68 3e 92 70 d2 bd 12 4e b2 bc
       0.18349686 0.22728166 -0.10275377 -0.021765742
0000c0 05 8c 5f bd 7b 2f 2e 3d 5f 61 29 3e cc af f1 bd
       -0.054576892 0.04252575 0.1654105 -0.11801109
0000d0 e4 ab 91 bc 90 7c 85 3e 25 74 99 bd 10 f7 86 be
       -0.01778216 0.26071596 -0.07492856 -0.2636037
0000e0 92 f6 4a be 83 ea 5f be a7 b1 15 be 79 60 f6 bd
       -0.19820622 -0.21866803 -0.1461855 -0.120301194
0000f0 cb 0e 2e 3e 0c ed 1f be f8 ff 08 be c1 93 a7 3d
       0.1699783 -0.1561777 -0.13378894 0.08182479

lstm1_1.weight_ih_l0_reverse f4 [64, 32]
000000 2a d6 25 3e 88 3a 89 bd 6d 94 42 3e bd f7 7b 3e
       0.16194978 -0.06700617 0.19001932 0.24606223
000010 d7 49 df 3d a6 f6 03 be 1a 52 6a 3e 91 6a 1b be
       0.10902756 -0.12887058 0.22882882 -0.1517737
000020 a8 1c 01 be 77 f9 db 3d 3e 89 c6 bd 9e d3 1f 3e
       -0.12608588 0.10740941 -0.096941456 0.1560807
000030 b2 be a7 bd 79 75 88 3d 04 df 64 be 28 73 2c 3e
       -0.08190669 0.06663031 -0.22350699 0.16840804
000040 39 06 c8 3d 32 b8 35 be 47 cf 1d be 92 9e 6a 3e
       0.09766812 -0.17746046 -0.15411101 0.22912052
000050 45 bb 0a be d7 7a 44 be d0 bb 3f 3d ec 8b 05 3e
       -0.13548 -0.19187485 0.04680997 0.13041657
000060 96 5f 06 be 90 c9 44 3e 15 9e 2e 3e 62 31 45 be
       -0.131224 0.19217515 0.17052491 -0.1925712
000070 4e 5b 88 bd 5f ac 65 3e 0e e9 1b 3e 88 ad 04 3e
       -0.0665804 0.22429036 0.15225622 0.12956822
000080 62 e1 65 3e d8 a4 15 3d b9 d7 a3 3d 35 20 23 be
       0.22449258 0.03653416 0.0800013 -0.15930255
000090 0b 62 6c 3d 13 56 c5 bd 30 70 e0 3b ff 30 d3 bd
       0.05771069 -0.09635558 0.0068493113 -0.1031208
0000a0 a6 d1 1a 3e 1e 41 13 3e 8c 58 a8 3d 8a 0e 4a be
       0.15119037 0.14380309 0.08220014 -0.19732109
0000b0 30 51 48 3e 0b a5 66 3e 00 79 b5 ba 2e fb e1 3a
       0.1956222 0.22523896 -0.0013845265 0.0017240995
0000c0 67 8d 5e be 8e 80 16 be 8a e9 7c be 68 c8 3c 3d
       -0.21733628 -0.14697477 -0.24698463 0.04608956
0000d0 d1 b4 62 3e c6 b1 b5 bd 38 8c 72 3e b0 e1 f4 bd
       0.22139288 -0.08871798 0.23686302 -0.11957109
0000e0 50 76 89 3e 95 5f 07 be d8 8a 04 3e 34 e6 7f be
       0.26848078 -0.13220055 0.1294359 -0.2499016
0000f0 91 e3 e7 bc b8 63 3a bd 6a e1 28 3e 41 47 d3 bd
       -0.028306754 -0.045505255 0.16492239 -0.10316325
000100 3c 5e 54 be 08 04 a1 bd 27 cf fd 3a 1c 92 bb bd
       -0.20739073 -0.07862097 0.0019364104 -0.091587275
000110 49 cf b8 3d 19 8c 34 be 50 d8 95 3e 43 7e b2 bd
       0.090239115 -0.17631568 0.29266596 -0.08715489
000120 18 c0 d7 bd a3 dd 2e be ca 04 59 3e 56 dc 18 3e
       -0.10534686 -0.17076735 0.21193233 0.14927801
000130 56 e3 17 3e cf b5 b0 3d 3a 9d 3d 3e 63 9e 4e 3e
       0.14832816 0.08628427 0.18517008 0.20177607
000140 44 1c 2c bc f0 4b 4d 3e 05 94 0f 3c e8 1c e2 3d
       -0.010504786 0.20048499 0.008763318 0.1104067
000150 1f c2 96 3e a4 99 77 3e 16 53 7c be f1 60 09 3e
       0.29444978 0.24179703 -0.2464107 0.13415886
000160 2f e6 08 3e 3f 63 36 3e 3b 55 cb bd 76 0c 55 be
       0.13369058 0.17811297 -0.09928366 -0.20805535
000170 2c 5c cf 3d 1d f7 d5 bc 58 68 18 3e 7f ea 91 3e
       0.10125002 -0.02611881 0.14883554 0.2849922
000180 f4 0d 95 3d dc cf 2c be 18 a7 2c bd e9 6d 9c 3e
       0.07278052 -0.16876167 -0.04215154 0.30552605
000190 ac 0b 37 3e 90 30 b2 bd 95 f3 2b bc 67 05 96 3e
       0.17875546 -0.08700669 -0.010495086 0.29300997
0001a0 aa 91 5f be a1 fd 45 be 83 fe 19 bc 68 98 03 be
       -0.2183291 -0.19335033 -0.009399059 -0.12851107
0001b0 6e f2 6f 3e 51 47 05 be 6a 9a 41 3e f5 6d 02 3d
       0.23432323 -0.13015486 0.1890656 0.031843144
0001c0 26 78 26 3e 4a b6 7c be 39 ed 8e 3d 4a 7f 58 3e
       0.1625677 -0.24678913 0.069788404 0.21142307
0001d0 e8 4f 65 3e 2d 45 cb 3d d0 e9 06 bd 9f b4 95 3d
       0.22393763 0.099253036 -0.032937825 0.07309841
0001e0 2d bf 03 3b d2 ae 62 3e 55 e5 a9 3b 80 89 56 bb
       0.0020102963 0.22137001 0.005184809 -0.0032735765
0001f0 af fc ae 3c f6 ef 9d 3d 4e 2c 0b 3e 27 af 69 3e
       0.021360723 0.077117845 0.1359112 0.22820722
000200 f8 d9 89 bd 6c 00 5a 3e 0e 3b d6 3d e8 5d 18 3d
       -0.06731027 0.21289223 0.104604825 0.03719893
000210 1c b9 0f 3d 01 72 43 3e 9e 90 83 3d fa 42 8c 3e
       0.035088643 0.19086458 0.06424068 0.2739485
000220 c8 00 bb bd bd 93 0a 3e 79 07 95 3c 6c e9 38 3e
       -0.091310084 0.1353292 0.01819204 0.18057793
000230 d9 ac ba 3d 84 ed e7 bd b0 52 f4 3d a6 f4 2c 3d
       0.09114999 -0.113245994 0.11929834 0.042225502
000240 4b cf 24 be 40 7e fa bc 15 ae 11 3e e8 e6 5d be
       -0.16094701 -0.030577779 0.14226563 -0.21670115
000250 6a 20 76 be 10 a3 ce 3d be dd 62 3e 85 99 24 bc
       -0.24035802 0.100896955 0.221549 -0.0100463675
000260 b2 64 2b bd 82 c4 fb 3c 3d 87 a3 3d c0 61 9c bb
       -0.041844077 0.03073335 0.07984779 -0.004772395
000270 13 ba e6 bb bf d5 10 bd 3f 87 2e 3e 21 c0 9b be
       -0.0070412247 -0.035360094 0.1704378 -0.3042002
000280 40 9f c7 bd 32 a5 50 be 72 c7 db 3d 2f b8 52 3e
       -0.097471714 -0.20375517 0.107314005 0.20578073
000290 b8 a6 ad bc 86 0c 3e 3e 6c fa c3 3d 92 cc 19 3c
       -0.021197662 0.18559465 0.095692486 0.009387152
0002a0 fa a3 4f 3e 5e 4f 06 3d 9a 14 57 bd f6 01 1c be
       0.20277396 0.032790534 -0.05250988 -0.15235123
0002b0 25 a9 2b 3e c4 48 4e 3d f4 0a d8 bd 83 eb 14 3e
       0.16763742 0.050362363 -0.10548964 0.14542966
0002c0 ff d8 45 3e 1a 7e 26 3e 5c ec 43 3e 80 f5 de bc
       0.19321059 0.16259041 0.19133133 -0.027216673
0002d0 97 ca 89 3e e8 44 a6 bb ea e1 44 3e b7 33 a6 3e
       0.26912376 -0.0050741322 0.19226804 0.3246133
0002e0 3b 2e 73 3e f6 71 d6 3d d6 0c 78 be 9e 57 73 3e
       0.23748104 0.10470955 -0.24223647 0.23763892
0002f0 4b 9e 54 be cf 2e 3b be e1 f1 52 3e b7 65 e8 3d
       -0.20763509 -0.18279575 0.20600082 0.113475256
000300 60 e3 93 3d a4 b6 85 3d 1c 6b 2f be 3a 29 f4 3d
       0.07221103 0.065289766 -0.17130703 0.11921926
000310 b2 5f 1d bd 70 4c 26 be 0f 4a 38 3e f9 3e 54 3e
       -0.03842134 -0.16240096 0.17997001 0.20727147
000320 ae 54 4c 3e ad a1 22 be c7 4a 7d 3e c4 59 51 3e
       0.19954178 -0.15881987 0.24735557 0.20444399
000330 f3 0b 3b bd 0d 7e d9 ba c0 d1 c0 3b a0 2d aa 3d
       -0.045665693 -0.0016593352 0.005884379 0.083094835
000340 4d 76 c9 bd ae 04 2d 3e ed 0e 5a 3e d8 e7 c4 bd
       -0.09837017 0.16896316 0.21294756 -0.09614533
000350 42 e4 f2 3d b9 db 34 3e c0 40 df 3b 0b 45 ad bc
       0.11859943 0.17661943 0.0068131387 -0.021151086
000360 51 d0 7a 3e 01 50 f8 3d 02 c4 52 be f8 69 59 3e
       0.24493529 0.121246345 -0.20582584 0.2123183
000370 48 b1 4f be 95 07 c1 3e db 89 f0 bd 01 f6 a6 3d
       -0.20282471 0.37701097 -0.11745044 0.0815239
000380 30 91 40 bd ee d6 1c be fa 85 a2 bc e8 84 04 3e
       -0.04701346 -0.15316364 -0.019839276 0.12941325
000390 ae 7d 29 3e da 3f 41 be 07 ec 44 3e b1 7d 05 3e
       0.16551849 -0.18872014 0.19230662 0.13036229
0003a0 38 32 0b 3d 05 03 85 3d 53 ff c4 bd 2e a6 0c be
       0.03398344 0.064947166 -0.09619012 -0.13735268
0003b0 b9 a8 fc bd ed 20 d4 3d 40 8f e6 bb c6 66 a8 3e
       -0.12336869 0.103578426 -0.0070361197 0.3289091
0003c0 52 38 42 3e 4a bb 3f be 35 fe 10 be 04 44 b0 3d
       0.18966797 -0.18723789 -0.14159472 0.08606723
0003d0 64 88 a0 bd 79 fc f5 3d 00 b1 c6 bd 11 1f 05 3e
       -0.078385144 0.12011046 -0.09701729 0.13000132
0003e0 22 59 6d 3e d6 d3 81 bc 39 b4 06 3e 2c db 7f 3e
       0.23178533 -0.015848082 0.13154687 0.24985951
0003f0 1b a9 7e bd 20 be 86 3d f6 a3 82 3e 9d 5b 9c bd
       -0.06217299 0.06579232 0.25515717 -0.07634661

lstm1_1.weight_hh_l0_reverse f4 [64, 16]
000000 df 0d 80 be b1 20 14 be a8 11 a2 bd a9 d8 09 3d
       -0.25010583 -0.14465596 -0.07913524 0.03365389
000010 2b 1f 67 bd f5 ff c4 be 05 fc d7 3d 27 84 59 3d
       -0.05642621 -0.3847653 0.10546116 0.053104546
000020 55 cd 67 bd 40 55 27 be 07 6d 9e bd 88 97 eb 3b
       -0.056592304 -0.16341114 -0.07735639 0.007189695
000030 93 a9 c9 3d 85 21 9d 3d 47 84 a3 be 9d 3d f8 3e
       0.09846797 0.07672409 -0.31936857 0.48484507
000040 ea c1 b5 3d 76 d8 66 3d 6b 3e 19 3e e9 27 50 be
       0.08874877 0.056358777 0.14965217 -0.20327725
000050 28 c0 4e be 0f 4b 11 be 4c 3f 0d 3d 3a 9f 09 3e
       -0.2019049 -0.14188789 0.034484193 0.13439646
000060 65 f1 32 3e 44 2d 75 bd 12 4b 7b bc 05 02 53 be
       0.17474897 -0.05985762 -0.015337722 -0.20606239
000070 66 9f 54 3e dd ae 27 3e b2 fc 35 be f9 04 8c ba
       0.2076393 0.16375299 -0.17772177 -0.0010682634
000080 93 68 93 3d 53 31 19 be 95 46 67 be ef 21 8e 3d
       0.0719768 -0.14960222 -0.22585519 0.06940066
000090 f8 f6 ab 3d d3 51 ba bd aa f5 d5 3d 2c 0a 6f be
       0.08396715 -0.09097638 0.10447247 -0.23343724
0000a0 52 66 8f be 1e dc 53 be a1 77 5b bc 61 0c dd bd
       -0.28007752 -0.20689437 -0.013395221 -0.10793377
0000b0 72 b7 06 bc 48 79 34 3e c4 55 8a be ff d7 c8 3d
       -0.008222448 0.1762439 -0.2701856 0.09806823
0000c0 fd d4 0f 3e 8f 5e ae bd 35 00 14 be 8b 60 33 3e
       0.14046092 -0.08514129 -0.14453204 0.17517297
0000d0 06 ed ba 3e cb c9 d5 bd 01 c6 52 3e 36 5d 94 be
       0.3650896 -0.104388796 0.20583345 -0.28977364
0000e0 fb 5c 46 be d2 0a 79 be 59 cb 58 bc 3a 7b 57 be
       -0.19371407 -0.24320534 -0.013232076 -0.21043101
0000f0 60 83 16 3e 91 c6 74 be a1 db 9b bd 71 02 3f bd
       0.14698553 -0.23903872 -0.0761025 -0.046633188
000100 49 78 29 be 42 85 20 be df 58 09 3e 85 2f 3a be
       -0.16549791 -0.15675834 0.13412808 -0.1818219
000110 ae 28 03 3e b2 ef 28 3e 01 dc 80 bd 9c be 0d 3e
       0.12808487 0.16497687 -0.062919624 0.13842243
000120 93 4b 77 3c 73 86 bb bd 03 b3 67 3e bf 8d a9 bd
       0.015093702 -0.091565035 0.22626881 -0.08278989
000130 8a ab 63 3e 93 f5 05 be 2d 05 17 3e b0 9e 8e be
       0.22233406 -0.1308196 0.14748068 -0.27855444
000140 86 6e f5 bc 54 40 15 be 3b 4b bb 3c 2d 19 97 3c
       -0.029959928 -0.1457532 0.022863021 0.018444622
000150 2c 8e 12 3e 07 73 98 bc dc 91 25 3e f6 3d a4 bc
       0.14312047 -0.018609537 0.16168922 -0.020049077
000160 b6 11 d4 3c cc 45 ea 3d 54 78 60 3d de 31 c9 be
       0.025887351 0.11439094 0.054802254 -0.39295858
000170 8d f4 f6 bc e1 cc 35 be e7 76 fa bd be a7 7d 3e
       -0.030145908 -0.17753936 -0.1222971 0.2477102
000180 48 78 d9 bc 65 8f 32 be 70 9b 87 be dd bb 26 3e
       -0.026546612 -0.17437513 -0.26485777 0.16282602
000190 7d b4 0a be 53 ac 03 3d 50 d6 24 3e 70 ad 32 be
       -0.13545413 0.032146763 0.16097379 -0.17448974
0001a0 1f 39 33 3e 04 54 a5 be 1f 99 74 3c 73 aa 58 be
       0.17502259 -0.3229066 0.014929085 -0.21158771
0001b0 30 07 46 be b1 08 b9 bd 7a b6 5a 3d 9e 60 24 bd
       -0.1933868 -0.09034861 0.05339668 -0.040131204
0001c0 82 35 d6 bd 75 4f a7 bc c3 a9 b8 bc 99 e9 c0 3c
       -0.104594246 -0.02042363 -0.022541886 0.023548888
0001d0 a5 ff 09 3e 40 60 33 3e 9d ce 3d be cb 03 dc 3d
       0.13476427 0.17517185 -0.18535848 0.10742911
0001e0 fa a7 87 bd 0a eb 28 3e c6 85 1c 3e 44 a6 05 3e
       -0.06623836 0.1649591 0.15285406 0.13051707
0001f0 6d 8d cc bd d8 ce 00 bd c6 08 d6 3d 80 31 d6 bd
       -0.09987912 -0.03144726 0.10450892 -0.1045866
000200 26 8b 77 be ae c1 93 be da fe 45 be 8d d5 b4 3e
       -0.24174175 -0.28858703 -0.193355 0.35319176
000210 7f b1 6d 3e 81 92 e5 ba 19 71 09 3d 85 31 f1 bd
       0.2321224 -0.0017514975 0.033555124 -0.11777023
000220 5e 8f 1b 3e 04 91 3d bd e0 76 fb bd 19 bf 4b be
       0.15191409 -0.046280876 -0.12278533 -0.19897117
000230 f7 0a c6 bd 4e 73 26 3d 31 ea 23 bd 2f 4f 99 3e
       -0.0967006 0.040637307 -0.040018264 0.29943225
000240 dd 9e 96 be a5 ee 7d 3e a8 2f 65 3d bb af 5e bd
       -0.29418078 0.24798067 0.05595365 -0.05436681
000250 09 74 35 bd 89 71 74 be 92 0f 62 3e 32 25 a0 bd
       -0.044300113 -0.23871435 0.22076252 -0.078195944
000260 ab 2f 18 be 5a 18 b9 be ce d6 38 3e 9c 61 47 bd
       -0.14861934 -0.3615139 0.18050691 -0.048677072
000270 d9 fb 68 be 23 51 4c bb 94 97 0e 3e 01 97 8d bd
       -0.22752322 -0.003117629 0.1392501 -0.06913567
000280 a7 1f 97 3e 7a a6 52 be af 5a b7 3d 58 13 93 3d
       0.29516336 -0.20571318 0.089528434 0.07181424
000290 f2 a3 af bc d3 8f ca bd d9 95 30 be 59 f0 e6 bd
       -0.02144048 -0.098907135 -0.17244662 -0.112763114
0002a0 2c 50 04 3c 5b 26 14 be 2f da 42 be d1 87 3d be
       0.008075755 -0.14467756 -0.19028543 -0.18508841
0002b0 b8 a5 d6 bd e8 3f 42 3e eb 62 50 3d 66 3f 40 3e
       -0.10480827 0.18969691 0.050875586 0.18774185
0002c0 e6 8c cb bd 8a 17 a3 bd 2e a2 80 be 2a 8d 5c bb
       -0.099389836 -0.07963474 -0.25123733 -0.0033653476
0002d0 51 fb 9d bd 6e 97 a0 3d 52 96 ad 3d f4 9e 52 be
       -0.077139504 0.07841383 0.08475937 -0.20568448
0002e0 49 2b 3c be 64 ad 8f be 56 f1 ec bc cf 65 82 3e
       -0.18375887 -0.28061974 -0.028923672 0.254683
0002f0 5a 00 32 3d bc f1 e7 bd 7d b6 4e 3e 40 e9 c5 b8
       0.043457367 -0.11325404 0.20186801 -9.437138e-05
000300 5c bd 95 3d e3 ac 53 be 02 fd 80 be e2 6a 2e 3e
       0.07311508 -0.2067142 -0.2519303 0.1703296
000310 fd 5d 8a 3e ab e1 92 3d 00 a8 7c 3d ab 00 4d be
       0.27024832 0.07171949 0.061683655 -0.20019786
000320 f9 42 93 be 5a a2 c6 bd 6b e7 6e 3e 69 f8 85 be
       -0.28762034 -0.09698935 0.23330466 -0.26166084
000330 a4 59 0d 3e 7a af 41 3e ae e1 f1 bd 78 0a 47 3d
       0.13803726 0.18914595 -0.11810623 0.04859397
000340 88 56 72 be 90 c3 9e 3d 1a 6c a5 bd 65 87 a3 3e
       -0.23665822 0.07752144 -0.08077259 0.31939235
000350 fb e1 61 3e 55 67 19 be 2d 1a 80 3e 4b 5b 0a 3e
       0.22058861 -0.14980824 0.2501997 0.13511388
000360 9a 4b 35 be 42 c9 0e 3e d3 26 66 bd 90 74 a0 be
       -0.17704621 0.13943961 -0.05618937 -0.3133893
000370 e9 30 97 3d 58 99 14 bd 98 9e bb bc 94 41 16 3e
       0.07382376 -0.036279052 -0.022902772 0.14673454
000380 72 33 b4 3d 60 73 5b be b3 65 8b 3d 65 9c e0 3b
       0.08798875 -0.21430731 0.06806507 0.006854581
000390 d9 ec 30 3d 31 6e 78 3d 60 11 8c 3e 1b 56 8b be
       0.043194626 0.06065196 0.27357006 -0.2721413
0003a0 9f cd 76 be 74 7d 23 bd 88 27 5f 3c 21 47 29 be
       -0.24101876 -0.039914563 0.013620265 -0.1653104
0003b0 20 de 18 be a1 b5 1f bc 38 ed 78 be 3d 65 8f 3e
       -0.14928484 -0.009747894 -0.24309242 0.28006926
0003c0 19 4e 05 be b0 f5 66 3e 19 e6 90 3d a6 af 41 3e
       -0.13018073 0.2255466 0.07075138 0.18914661
0003d0 5f 02 14 3e 2e a8 aa 3d fb 08 97 3e 94 2c e9 3d
       0.1445403 0.08332859 0.2949904 0.11385456
0003e0 83 ad 5f be fb 26 11 be a8 8f 8b 3e b0 6c 85 3d
       -0.21843533 -0.14175026 0.2725804 0.06514871
0003f0 65 ff ae 3a 15 9b f1 bd 6f c2 ef bd 60 ea 0c 3d
       0.001335126 -0.11797158 -0.11707007 0.034403205

lstm1_1.bias_ih_l0_reverse f4 [64]
000000 a3 70 1c 3e d4 5c 67 bd 1f 32 17 3e d2 f2 ff 3d
       0.15277342 -0.056485012 0.14765213 0.12497486
000010 55 ba 35 bd 26 19 61 be 17 be b5 bd 0b 5b 07 3e
       -0.044367153 -0.2198225 -0.088741474 0.13218324
000020 fa d4 a8 3d 0d b1 4a 3e 50 d6 ac bd 0a 3b c7 bd
       0.08243747 0.19794102 -0.08439314 -0.09728058
000030 fe 00 93 3d ed c1 43 3e 8b 30 ef bd ea 10 c8 3d
       0.071779236 0.19116946 -0.11679181 0.09768851
000040 be a1 c2 bd 14 f2 15 3c ce 7c 44 bc b1 33 c4 3e
       -0.09503506 0.009151954 -0.011992646 0.38320687
000050 d6 c2 51 bd de b7 b2 3d 2f ae ba 3d b8 45 bd bd
       -0.0512112 0.08726476 0.09115254 -0.092418134
000060 c8 76 64 3d 35 4b cb 3b 71 85 06 3e d4 15 bd 3e
       0.05577734 0.0062040337 0.13136841 0.36930716
000070 83 a8 01 3e 93 7a 8e 3e d8 2c 4c 3e ed 9d 2a 3e
       0.12661938 0.27827892 0.19938982 0.16661806
000080 22 bc 31 3d a3 e7 f4 3d b2 bc 41 be a2 31 3b 3e
       0.043392308 0.11958244 -0.18919638 0.18280652
000090 12 cb 92 3d d7 9f 5a be 84 f0 25 3e c9 39 be bd
       0.07167639 -0.21350037 0.1620503 -0.092883654
0000a0 4a 61 af 3d 43 49 67 3e 4b 1b 52 be 40 34 4b 3d
       0.08563478 0.22586541 -0.20518224 0.049610376
0000b0 0c 35 21 3e b2 e4 b5 bd 09 2d 93 bd 74 74 07 3d
       0.15742892 -0.08881511 -0.07186324 0.033070043
0000c0 8d 71 40 3e 4c 04 88 3b 38 50 31 be cc 09 66 3d
       0.18793316 0.004150903 -0.17315757 0.056161687
0000d0 86 6e 86 3e 94 ad 5d 3d 70 8b fc 3c 4a f6 3c 3e
       0.26256198 0.054120615 0.030828208 0.18453327
0000e0 6d 75 15 be c3 9a 89 3d d0 5b 6f 3d 86 69 77 3e
       -0.14595576 0.067189716 0.05843717 0.24161348
0000f0 68 92 e4 bd ce 8f 7f bb 2f a2 8e 3e 7e 1b b1 3d
       -0.11160737 -0.0038995626 0.2785811 0.08647822

lstm1_1.bias_hh_l0_reverse f4 [64]
000000 99 b1 fa 3d 7d c5 4f be 71 96 21 be e9 d6 2a 3e
       0.12240905 -0.2029018 -0.15780045 0.16683544
000010 9f e7 e0 3d a1 0a c4 3d 19 76 65 3d 5e 79 4e 3e
       0.10981678 0.0957234 0.05602083 0.20163485
000020 3f f1 8d 3d 99 24 2f 3e 1d d2 78 3d 2a d3 69 3e
       0.0693078 0.17103805 0.060747255 0.22834459
000030 98 b8 1c 3e ad 74 71 3c 93 e4 5d 3e 8a 91 c1 3d
       0.15304792 0.01473729 0.21669225 0.094515875
000040 38 06 d8 3d e2 af 36 3e 5a 43 11 bd 65 a2 e1 bc
       0.10548061 0.17840531 -0.035464622 -0.027543256
000050 e5 8a 89 3e 5c 5e 35 3d c1 37 03 3e 6d 47 68 3e
       0.2686378 0.04427944 0.12814237 0.22683497
000060 ab 3a 0a 3e b7 a8 64 3d bd ec ea 3d fb a9 a2 3e
       0.13498943 0.05582496 0.114709355 0.3177031
000070 14 d5 f2 3c bf f4 93 3e 72 d5 b0 bd d6 c1 a9 3e
       0.02964262 0.28897664 -0.086344615 0.33155698
000080 6a 00 26 be dd 52 12 3e 9c 69 43 be 78 72 91 be
       -0.16211095 0.14289422 -0.19083256 -0.28407645
000090 1b f2 dc 3d e9 db ab bd 8f 79 cb 3a 37 8f 29 be
       0.107883655 -0.08391554 0.0015523898 -0.16558538
0000a0 2a fe ca 3c 71 7a 6c be b7 ef 6c 3e f6 6b a5 3d
       0.024779398 -0.23093583 0.23138319 0.080772325
0000b0 34 f2 3b bc c6 d5 ad 3d 2c 87 1a 3e a6 07 36 be
       -0.01147132 0.0848804 0.15090626 -0.17776355
0000c0 1f d4 8c 3e 5e 60 82 38 bb ce b3 bd c6 78 ba 3d
       0.27505586 6.216833e-05 -0.08779665 0.09105067
0000d0 b9 99 4d 3e 02 5a 70 3e f9 e3 9d 3d 22 f2 85 3e
       0.20078172 0.23471835 0.07709498 0.26161295
0000e0 82 f7 13 3e f0 49 96 3e ab 4d 43 be 15 44 6d bd
       0.14449885 0.29353285 -0.19072597 -0.057926256
0000f0 52 2b 31 3d ed 3e b2 bb b6 36 4a 3e aa fe 9e 3e
       0.043254204 -0.0054396302 0.19747433 0.31053668
