results/soh_individual_dataset_results/Dataset 4/pre_trained_model.pth (torch, 95584 bytes, 27 tensors)

cnn1.0.weight f4 [16, 1, 3]
00000000: bafb 0bbf a334 57be 28cf c63d 93ff aebe
00000010: 3154 853e e8af 5b3d a61c bcbe 1232 03be
00000020: a989 873e 8e29 b2be 2eeb d83e 5bcf 783e
00000030: ab25 b9be fe5d 193e 81c9 143f 1bc1 5b3e
00000040: 5609 023f d035 b93e 4803 2ebe 1876 95be
00000050: 65f8 0abd ec60 e2be 100e 08be e0c9 c1be
00000060: 3a53 e2be 2553 92be 5040 26be 5c58 f83e
00000070: cfe2 a13d 8086 1abe 6ebb 553e e682 c1be
00000080: f2e0 dcbe d2e5 8a3e 2d8a 24be 2a36 4dbe
00000090: 143f cdbb 5735 bb3a 3a4f d6be f314 8ebe
000000a0: 0cbd 80be 3fa6 f73e 907c bbbd c22a babe
000000b0: a03f 0fbe 31d7 ef3e fdbd 913e 7bd5 d3be
-0.5468098 -0.21016173 0.09707481 -0.34179363 0.26040795 0.053634554 -0.36740607 -0.12812069
0.26472214 -0.3479733 0.42366928 0.2429785 -0.3616155 0.14977261 0.5811997 0.21460383
0.50795496 0.36173868 -0.16993439 -0.2919166 -0.033928294 -0.4421457 -0.13286614 -0.3784933
-0.44204122 -0.2857906 -0.16235471 0.48504913 0.079045884 -0.1509037 0.2087228 -0.3779518
-0.4314037 0.27128464 -0.16068335 -0.20040193 -0.006263623 0.0014282864 -0.4185732 -0.27750358
-0.2514423 0.48369023 -0.09154618 -0.36360747 -0.13989115 0.46843866 0.28465262 -0.4137381

cnn1.0.bias f4 [16]
00000000: e94c 5cbe b4f0 4dbe 15c7 1cbd b80f 003f
00000010: 8c76 16bd c247 77be 2f4e adbe a0e6 0dbf
00000020: dcfd 07bf 48a5 bb3d 6462 bbbe e0c8 b3be
00000030: 62dd c83e c3b5 38be 70cb 4e3e c692 f23c
-0.21513714 -0.20111352 -0.038275797 0.50023985 -0.03673415 -0.24148467 -0.33848712 -0.5543003
-0.53121734 0.09162384 -0.36598504 -0.35114193 0.39231402 -0.18038087 0.20194793 0.029611003

cnn2.0.weight f4 [32, 16, 3]
00000000: 8c22 f6bd 43e1 503d 81d6 ffbc dd85 083e
00000010: a297 6d3d 60b1 a9bd 8318 f3bc 5bfb e43d
00000020: d7fc c53d 23e5 f83d 4c4c 9d3d 437c e6bd
00000030: f533 083e 595c 823c 204e d83d 3924 ab3d
00000040: 7936 9abd dddd 193e ad61 0f3d 1fd2 e7bb
00000050: cfdc 043e cfaa c0bd b95b b7bd 8f64 c0bd
00000060: c643 9f3d f876 fa3c ebb3 81bc 49d0 d2bd
00000070: 0c6c e8bb d4bd 193e b6fc b3bd 1216 52bd
00000080: cd34 6fbc 3ce0 6bbd cb37 93bd 4a3f 2bbc
00000090: b74d b1bd 82ef f53c 49e0 333d 59ec 0cbe
000000a0: dd1b 013e 3322 983d ba25 ad3c 8bd9 1f3d
000000b0: 5ffa bebd ff1f cebd b967 b63d 233c fdbc
000000c0: 317e f5bd 6513 e2bc ba54 b03d aef1 0f3e
000000d0: f727 b23c 7362 58bb e30e 65bd 1b27 0a3e
000000e0: b161 a6bc 70de a1bd 4ed5 803d 9963 b03d
000000f0: 7cc4 963e 12fa 2c3e 0348 683e ec33 163e
00000100: fe96 823e d59c 0f3e 8db4 023d 0311 173c
00000110: 4009 f73d 6f02 493c fded 743d 66b0 a53d
00000120: 6ac5 01be 98d8 f9bc 2ba9 683d 5cbb edbb
00000130: a267 123e d0b7 82bc c7f2 113e 8fbc d63d
00000140: 8d22 4cbd d826 94bd 9c12 fabd d55a 6e3d
00000150: 5193 77be dd13 87be 5069 5dbe 0b15 85bd
00000160: 944d e0bd 4b09 023e 9a23 96be de37 95be
00000170: 4508 61be 05d6 523e d44f 7d3e 8265 ad3d
00000180: aef6 09bd e086 81bd edb7 d2bd f07b 07be
00000190: 995a 8c3d aa24 cdbd 4ed7 0fbe 2056 12be
000001a0: 980f 87bd 3234 133e 259e 7bbd 57c2 0a3d
000001b0: dd94 99bd ffd5 ffbc 640e 02be b61d 48bd
000001c0: 25c2 c4bd cf42 073d caa1 843c 4f9b 823d
000001d0: 51d9 d73d 07dd a63d b260 ca3d e1e5 6abd
000001e0: 6691 873d 6c61 e93d 2241 bcbd 1e60 95bd
000001f0: eedf 90bc 33ec 39bd 4ade 6f3d 36f9 b6bd
00000200: 5a07 033e 0d8a 06be 4ab9 adba 89ae 413d
00000210: 4c37 b5bd 62fb 993d c67f b83d a90b 3abd
00000220: f4fd 3f3d 2715 8abd 54f6 26bd 26cc 62be
00000230: 7504 26be b635 9c3d 3827 09bd 5e75 c4bd
00000240: 22c5 c3bd 128a 10bd cfa4 093e 0d03 033e
00000250: 1115 e9bd a4db 92bc 45ec d23d f9e0 09be
00000260: 4306 b43d b85b d53d 7adc 83bd d85f 123e
00000270: d584 1e3e 4421 653e 786a 4f3e d69c 303e
00000280: 8fca 66bd 1dcd 2c3c 6da2 e43d 5d50 f6bd
00000290: 60ab cebd c7e3 5cbc f128 ea3d b7e4 073e
000002a0: 5fc0 df3d 53d9 a1bc 91e9 f2bc 898c 053e
000002b0: a92c 9dbb 9612 c73d b17b c4bd 2d92 ed3d
000002c0: 3e21 bfbd ca6a bbbd 94d3 f83d 3e64 04be
000002d0: 0029 6abd 3600 90bd 80f7 133c 4e65 09be
000002e0: 0337 cb3d 12ce 70bc 7ab0 803c 8e2c 49bd
000002f0: 36d9 a33d 0efb 87bb 1059 a43d 6e38 e93d
00000300: 475b 18bd 58fa d73c 2560 2fbd e2dd b33c
00000310: 2a1b a5bc d82a 023e 2186 d0bd 1d43 853d
00000320: cd3d 6a3d e1ae d5bd 7571 c63c 7e28 41bd
00000330: f2bf 11bd 7723 d53d 8165 03be 6e88 cdbd
00000340: 1865 9c3d 25e5 0d3b cae3 c93d 220d 48bd
00000350: b029 8b3b a61a 0cbe ca2e 55bd e2b5 153d
00000360: 5efd cd3c 2edb c43d 4f5d 293d 5cc6 f43c
00000370: 0099 673d 60f8 0bbe 161b 6cbd 22e3 bd3d
00000380: ed98 e3bd a3d4 06be dae3 2a3d a102 c23c
00000390: e966 e43d 9f41 0bbe 720b fbbd 764c af3c
000003a0: 088c 3b3d 0d5b 40bd e3d6 3d3c 4601 093d
000003b0: dcd3 003e 5b8f 73bd 6fbe 913d 282c c1bd
000003c0: 2733 843d f067 c43d 6b40 bdbc 3f34 c4bd
000003d0: 630b d9bd 97c1 c83c add8 553d 7b32 ec3d
000003e0: 76e0 78bd a93b 75bd 6c15 f73c fbc1 84bd
000003f0: b022 8fbc a791 15bd ea3a 23be e475 ca3d
-0.12018308 0.050996076 -0.031230213 0.13332315 0.058005936 -0.08285785 -0.029674774 0.11180755
0.09667366 0.12153079 0.07680568 -0.1125417 0.1330107 0.015913175 0.10561776 0.08356518
-0.07529921 0.1502604 0.03500526 -0.007074609 0.12974857 -0.09407579 -0.089530416 -0.0939418
0.07776599 0.030574307 -0.015832862 -0.102936335 -0.0070929583 0.1501382 -0.08788435 -0.05129058
-0.014599991 -0.057586893 -0.07188376 -0.010452101 -0.08657401 0.030021433 0.043915067 -0.13762034
0.12608285 0.07428398 0.021136153 0.039025825 -0.09325098 -0.100646965 0.08906502 -0.030912464
-0.1198696 -0.027597139 0.0860991 0.14057037 0.021747572 -0.0033017665 -0.0559224 0.1349148
-0.020310255 -0.07903755 0.06290685 0.08612747 0.2944678 0.16892269 0.2268372 0.14668244
0.25505823 0.1402467 0.031910468 0.0092203645 0.12062311 0.012268647 0.059797276 0.08090286
-0.12672964 -0.030498788 0.056801956 -0.007255001 0.14297345 -0.01595679 0.14252768 0.104851834
-0.049837638 -0.07233971 -0.12210581 0.058192093 -0.2417729 -0.26382342 -0.21622205 -0.06498154
-0.10952297 0.12698857 -0.29324037 -0.29144186 -0.21975811 0.20589454 0.24737483 0.08466627
-0.033682518 -0.063245535 -0.10288987 -0.13230872 0.06853218 -0.10016759 -0.14046976 -0.14290667
-0.06594771 0.1437538 -0.061430115 0.033876743 -0.074990965 -0.031229971 -0.12700802 -0.04885646
-0.09607343 0.033022698 0.016190428 0.06377279 0.10539497 0.08147626 0.098817244 -0.057348136
0.066195294 0.11395535 -0.091921106 -0.072937235 -0.017684903 -0.045391273 0.0585616 -0.08934252
0.12795773 -0.131386 -0.0013254073 0.04728559 -0.08848438 0.075186506 0.09008746 -0.045421276
0.046873048 -0.06742316 -0.04076226 -0.22148189 -0.16212638 0.07627432 -0.033484668 -0.095926985
-0.095590845 -0.035287924 0.13441776 0.12794133 -0.11380971 -0.017926998 0.10298971 -0.13464727
0.08790257 0.104178846 -0.06438537 0.14294374 0.15480359 0.22375971 0.20255458 0.17247328
-0.05634552 0.01054695 0.11163793 -0.12027047 -0.10091281 -0.013482041 0.1143359 0.13270842
0.10925364 -0.019756949 -0.029652389 0.13041891 -0.0047965837 0.09720342 -0.09593905 0.116001464
-0.09332512 -0.09151228 0.1214973 -0.12928864 -0.057168007 -0.0703129 0.009031177 -0.13417551
0.09922602 -0.0146975685 0.01570915 -0.049114756 0.08000414 -0.004149801 0.080248 0.11387716
-0.037196424 0.02636449 -0.0428163 0.021956388 -0.020154554 0.12711656 -0.10181833 0.065069415
0.057187844 -0.10433746 0.024224022 -0.047157757 -0.035583444 0.10407155 -0.1283169 -0.100357875
0.076364696 0.0021651473 0.098579004 -0.04884065 0.004246913 -0.1368204 -0.052046575 0.03655041
0.025145229 0.09612118 0.04134875 0.029879741 0.056542397 -0.13668966 -0.05764302 0.09271838
-0.11113153 -0.13167052 0.041721202 0.023682894 0.11152441 -0.13599251 -0.122580424 0.021398764
0.04578784 -0.046961833 0.0115868775 0.03344848 0.12580818 -0.059462886 0.071164005 -0.0943225
0.06455069 0.09590137 -0.023102006 -0.09580278 -0.10597875 0.024506373 0.05220859 0.11533066
-0.060760938 -0.05987135 0.030161582 -0.06482311 -0.017472595 -0.036515858 -0.15940443 0.09885767

cnn2.0.bias f4 [32]
00000000: 4bfa 0dbd c514 ab3d d9ef 123e 37e0 913d
00000010: 42cc ba3d b6b9 d53c 14bf b53d e345 81bc
00000020: 63b2 a4bd 804c 7bbd b296 d4bd 884a 98bd
00000030: 8c91 d53d 4396 89bd c744 953d e20d bf3d
00000040: 73ac 10be 9e6e 0a3e af9d d9bd fb3b 0abe
00000050: a473 fdbd 854b 933c 1118 153e 705f 5dbd
00000060: 2b72 86bd 4247 e6bd 293d 933d 17ea a5bd
00000070: 6737 8aba 10fd 383e 883d 96bd f308 803d
-0.034662526 0.08353571 0.14349307 0.07122844 0.0912099 0.02608953 0.08874336 -0.015780395
-0.08041837 -0.061352253 -0.10380305 -0.07436091 0.104281515 -0.06718113 0.07288509 0.0932882
-0.14128284 0.1351876 -0.10625779 -0.13499443 -0.12375572 0.017980346 0.14559962 -0.054046094
-0.065647446 -0.1124406 0.071894 -0.0810129 -0.0010545076 0.18065286 -0.07335955 0.06251707

lstm1_1.weight_ih_l0 f4 [64, 32]
00000000: 0d9c 0a3e 1c1c ae3e 1951 903d 2344 7c3d
00000010: e889 2d3e 4b05 a23d 1958 323e 3be3 663e
00000020: f921 963e 6d34 4c3e 205a 513e 6c83 253e
00000030: 624a 52be d57a 1c3e 640a 443e 3647 29be
00000040: f0e0 ac3d 8cf5 283e 8613 7fbe 7084 7fbd
00000050: 6e51 7f3e 53dd 16be 8a05 803e 81bc 9bbc
00000060: 10af 6abc 20e2 91bd c229 d63d 17aa 933e
00000070: 38da 40bd 91f0 e6bd 7480 53be f8d7 6ebd
00000080: be36 9cbb 7fc8 8c3e d43d 32bd a262 e43d
00000090: 89ca 453e c78b b5bd 94cf 883e ac0f ce3d
000000a0: dbb6 d23e 2cca e0bd ec07 853d d192 033e
000000b0: 4863 54be df73 75be 1f44 02be ce7c 393e
000000c0: 88af 2e3e 4874 04be 3d39 4cbe 5005 7e3e
000000d0: 88f5 1b3d c294 293e 57c4 53bd fc40 3a3e
000000e0: 81d4 263e a021 1e3e 214f ecbc 75b0 893e
000000f0: a872 d7bd 0034 99be 845f 653e e823 1ebe
00000100: f4a5 ddbd dc25 4bbe a24f 683e f2f0 953c
00000110: cd5d b6bd 3e57 2cbe c42b 2ebe 3d15 3b3d
00000120: a116 aabc 7e4c f63c 805d 723b b356 50be
00000130: 48de 5dbe 3fcf 973d cc86 87bb ac4e a43d
00000140: 44de 733e 100c 223e 339b dd3a 444b 7a3e
00000150: a0d4 19bd e3a5 253e 81ec 083e 271e 6e3e
00000160: af81 85be 4628 16be 6156 3ebe 3d6c a2bc
00000170: bd92 643e 4108 afbd ecf8 3bbe b88c 04bd
00000180: ee81 683e 4a16 a33e 1afd 5d3e ec21 8b3e
00000190: 7090 153e 38cc 58bd 874d 413d 7317 533e
000001a0: c09d 253e de14 e63d 2af5 45be 0ba2 9ebd
000001b0: e3a0 50be a09e 1bbe 845a ae3c b69c 063d
000001c0: 8e3d 163e c29d 34be 3e7a 5bbe 70bc e23c
000001d0: a8b4 5f3d aeb8 563e 3951 bc3b 56d6 e33c
000001e0: 7b47 b93d f01c 793d fd53 02be d8ef 853d
000001f0: 7fee ccbd 63d2 b73d 18a8 473e 10cb 973d
00000200: 01e9 743e e89d 99be 66c8 edbd 815f 9bbc
00000210: 8c06 58be 3bcb 97bd fdda 043e 061f 58be
00000220: 6f20 ef3c e77b a33d a855 043e 15ce e0bd
00000230: a956 0dbe 8711 713e 080a 2d3d 5221 5a3e
00000240: 380b 013e ba6f 4bbe 1226 513e a8c3 58bd
00000250: 7005 0cbe 0390 75be a755 113e 55f6 8abd
00000260: 1e86 1abe 605a 15bc e78c 05be cd8c 2b3d
00000270: 662e ca3d 489c cfbd acb8 c93d d05d dabc
00000280: a389 9c3e a7d1 dcbc db28 fabd 1b61 36bd
00000290: efec 4bbe 5035 2c3e b1e3 693d 0736 163e
000002a0: bfcf 12bc d532 613e c4ce 6b3e d993 9c3e
000002b0: b7ec 32be 52db 9dbd 5741 233e 97ae 39be
000002c0: 1cfa cc3d 96ed 66be 6477 81bd 68a4 39be
000002d0: 9e60 343e 7479 8d3e 9c2d 413d 0eba 4bbe
000002e0: fdb0 23be c4d6 afbd 0118 d5bd c2d6 27be
000002f0: af44 6c3b 6f9d 74bd 905b 86bd 18cf 2e3d
00000300: c77c 443e bd29 66bc 0d43 823d 0103 6dbd
00000310: 1255 503e c954 45be 1aa4 4dbe dbaa e03d
00000320: 3eff de3e 0e17 163e c2b8 383e 0da2 9ebd
00000330: d93f c2bd 6576 f73d 7e06 2f3e 16b1 90bd
00000340: b8ca 933d 0866 d7bd 8ae4 e63d 002e e1bd
00000350: c4df 61be 2ee2 5abe ef67 2dbe 1ddf 453e
00000360: 8dcd 213e d401 7a3e 67de f3bd 0eff d83d
00000370: 6866 df3d abad 32bd 6803 3dbe da40 63be
00000380: 1e7b 853d c501 b83d 4613 3c3c 8baa 033e
00000390: c7cb 693e 628f 1b3e 33b2 10be 3c7c f5bd
000003a0: ed5d 923d cc14 313e 3c6d 853d a8f2 95bd
000003b0: 8f3c 2b3b f881 5d3e 16d2 373e 6a67 c2bd
000003c0: 00e2 c53d a8bd 04be fb04 19be 7071 433e
000003d0: 54b0 e1bd 5f84 903d 623e b13e 0f06 263e
000003e0: d2d9 f63d 782b 5cbe 4b3b bfb9 ece9 da3c
000003f0: f3a0 273e 1675 a1be 4c5b 72be 320c 3f3e
0.13536091 0.3400582 0.07046718 0.061588418 0.16947138 0.07911166 0.17416419 0.22547619
0.29322794 0.19941874 0.20444536 0.16163415 -0.20536187 0.15281232 0.19144589 -0.16531071
0.08441341 0.16499919 -0.24909791 -0.06238216 0.24933407 -0.14732866 0.25004226 -0.019010784
-0.014323965 -0.07123208 0.104571834 0.28840706 -0.04708311 -0.11276353 -0.2065447 -0.058311433
-0.004767268 0.27496716 -0.043515995 0.11151625 0.19315542 -0.08864551 0.2672087 0.10061583
0.41155133 -0.10976061 0.064956516 0.12848975 -0.20740998 -0.23969983 -0.12721299 0.18114015
0.17059147 -0.12934983 -0.1994371 0.24806714 0.038075954 0.16560653 -0.051700916 0.18188852
0.16292001 0.15442514 -0.028846325 0.2689244 -0.10519916 -0.29922485 0.22399718 -0.15443385
-0.10822669 -0.19838661 0.22686628 0.018303368 -0.0890461 -0.16830155 -0.17008883 0.04567455
-0.020762743 0.030065771 0.0036982 -0.20345573 -0.21666825 0.07412576 -0.004135942 0.08022818
0.23815256 0.15824914 0.0016907215 0.24442774 -0.03755629 0.16176562 0.13371469 0.2325369
-0.26075503 -0.146638 -0.18587638 -0.019827003 0.22321601 -0.08546496 -0.18356675 -0.032360762
0.22705814 0.31852943 0.21678582 0.27174318 0.1460588 -0.052929133 0.047193076 0.20614414
0.16173458 0.11234449 -0.19331804 -0.07745751 -0.20373873 -0.1519723 0.021283396 0.032864295
0.14671919 -0.17638305 -0.2143335 0.027677745 0.054615647 0.20968887 0.005746987 0.027812164
0.09046837 0.060818613 -0.12727351 0.06539887 -0.10006427 0.08975675 0.19497716 0.07411778
0.23917009 -0.30003285 -0.116104886 -0.018966438 -0.21096247 -0.0741181 0.12974162 -0.21105585
0.02919027 0.07982617 0.129233 -0.10976807 -0.1380259 0.23541842 0.042245895 0.21301773
0.12601936 -0.19866839 0.20424679 -0.052920967 -0.13673949 -0.23980717 0.1419283 -0.06785265
-0.15090224 -0.009115785 -0.13042031 0.041882325 0.09872131 -0.1013723 0.098496765 -0.026656061
0.30573758 -0.026955439 -0.12214824 -0.0445262 -0.19914602 0.16817212 0.05710191 0.14669047
-0.008960663 0.21992047 0.23028094 0.3058155 -0.17473112 -0.07707848 0.15942894 -0.18133007
0.10008642 -0.2255157 -0.063216 -0.18129122 0.17614982 0.27631724 0.047162637 -0.19895193
-0.15985484 -0.08585885 -0.10404969 -0.16390517 0.003605168 -0.059720453 -0.06560433 0.04267797
0.19188224 -0.014048037 0.06360445 -0.057864193 0.20344952 -0.19270624 -0.20082131 0.10970088
0.4355411 0.14657232 0.1803923 -0.077457525 -0.09484834 0.12083129 0.1709232 -0.070650265
0.072164 -0.10517508 0.11274059 -0.10995102 -0.22058016 -0.21375343 -0.16934179 0.19323392
0.15801068 0.2441476 -0.11907654 0.10595523 0.10908204 -0.043622654 -0.1845833 -0.22192708
0.06517623 0.089847125 0.0114792045 0.12858026 0.22831641 0.15191415 -0.14130478 -0.119865865
0.07146821 0.1729309 0.065149754 -0.07321674 0.0026128625 0.2163161 0.17951235 -0.09492381
0.09662247 -0.12962973 -0.14943306 0.19086242 -0.1101996 0.07056498 0.34617907 0.16213249
0.12053265 -0.21500957 -0.00036474536 0.02672287 0.16369991 -0.31534642 -0.2366764 0.18656996

lstm1_1.weight_hh_l0 f4 [64, 16]
00000000: 4d80 67be cdef 33be 5240 2c3e 3ba0 423e
00000010: e3b3 7bbd 3c69 e3bd 5942 943d 5506 253e
00000020: bd5a 9c3d 53ea 393e 3dd6 a8bd 5a67 3fbd
00000030: de3f 48be cae9 00be 76df 4f3d e1e8 76bd
00000040: 11ae 8d3d a535 e63d a58f 77be 18ad 1abd
00000050: 9b7f 6a3e 0481 133c 665b 71be e8a6 603e
00000060: c4c6 d8bd 3add 8bbe 416f 283c 68fa 8b3e
00000070: a158 cbbd 8eae 683e 4d90 e5bd 430d db3d
00000080: d623 693d 433a 203e 0f27 66be 6303 453e
00000090: 0caf 3a3e 4d77 3ebe 61e1 79be 1551 aa3e
000000a0: b288 f53d 9401 59be 9c6d e53d d980 8a3e
000000b0: 9a91 29bd a6f9 043e 1e99 11be adba 1ebe
000000c0: 21fb 1ebd 6411 88be 13d1 2cbd 783b 6f3e
000000d0: 1eba b8bd 3019 97bd fe84 f7bd 5f55 7a3e
000000e0: aaf8 41be 3124 083d b623 6e3e 0588 8bbd
000000f0: 9d93 77bd d362 343d 9a1b db3d b621 453e
00000100: 50f2 2ebc cd79 873d d261 de3d 84b0 773e
00000110: cb86 6ebe 5b82 d13c 60d1 5abe 4edf 63be
00000120: 054d 493e e428 153e ad6c 19be bbfd 0d3d
00000130: e749 803d 562f 663e 2521 723d 9b4b 503e
00000140: 7068 ddbd a412 b7be e105 6b3e 8f46 323e
00000150: 4a1c 90bd cc47 163e f5a1 92be 9a86 7f3e
00000160: 80ba 703d e8a1 c4bd 46b2 eabd 76ab 33be
00000170: d111 0ebe f9a3 24bd c1d9 2d3e 795b 003e
00000180: dc83 443d d8ab 223e dc98 863d 89de 383e
00000190: 36da 623e 3b8f 82be bf5c 293e 8e90 cf3d
000001a0: 88ab 54be 967a 1b3e 2ea5 823e f073 833d
000001b0: 5c3d 653e 2730 3abe 4486 dc3d 977f 863d
000001c0: 6d14 88bd 5116 6ebe f1d0 d43c b086 533e
000001d0: d46c 02bd 6abc b6bd a7cb d3bc 7e8e 80bd
000001e0: 5f03 32be d5dd 67be 40cb a43e 8ccf 963e
000001f0: efd5 2a3c cb2c 263c 46b3 133e 66ee 383e
00000200: 1f42 a93e b9dc b6be 3241 b5bd b992 163e
00000210: 392e f4bd bf49 a33b 5c4e 5ebe f95c cc3e
00000220: 0ac9 0dbe 7a3e 0bbe 393e 2bbe c86a cf3e
00000230: a276 3e3e 3566 053e eb3b 083e 9aee c33d
00000240: 14c3 1fbd d516 5abd 76c6 34bc 54cd 39bd
00000250: f178 8c3d bb6f 55be ad23 563c 297f d13d
00000260: cafb 333d 6cd1 223e 4528 80bd d6f5 55be
00000270: 854c f43d 7fbc b0bd 4a81 383c 7798 26be
00000280: 76d3 36be 06b9 313d bc4b 62bd c70e 2e3e
00000290: c0c8 8abd 489a 423e 3eac 1b3e 3efc f13d
000002a0: baa5 b1bd 00ac 5b3e 00b5 d8bd b415 d13d
000002b0: f1ec 693e b9c5 2f3e 0c97 a4bc 4fa0 4b3d
000002c0: 569b 253e ced2 46be e665 64be 40d2 b63d
000002d0: 13dd 583d b2b9 4b3e b044 383e 9aa8 ce3d
000002e0: 9df1 d3be 41ae f9bd 939c e8bc e273 bfbd
000002f0: 1b91 783e 9549 17be d4bc 57be f459 573e
00000300: 18df 8f3e 58b7 94be 5657 50be c7e5 2dbe
00000310: 936d c93c b6aa 19bd 69e3 b2bd a429 963e
00000320: e219 00be 1ed0 77be 0a62 04be 3c82 e63b
00000330: eea7 83bd 07bf e2bd 4adc 713e c7c8 a13d
00000340: 4437 183e 5529 f5bc 73db a03d c05d cbbd
00000350: 5314 79be e864 833e 76cd 74bd 3f2c 12be
00000360: a694 8dbe 862e 48be 92a0 4bbe 21c0 0abe
00000370: 1844 81bd 3bb5 98bd 0e2c 353e 907c 79be
00000380: 2b5c abbd 1a88 af3d c436 bc3d bedf 073c
00000390: a868 69be c259 203e 201d a03d 903d 05be
000003a0: 9c56 2cbe 5fb9 0e3d 9b3c c3bd 59f9 6abe
000003b0: 7a19 843e 2dd9 1a3d 31c1 aabd 2d41 4fbe
000003c0: b468 ebbc 973f 063c a7e9 51be acf0 d23d
000003d0: 538e 82be 097c 25bd 27b8 5a3d 7077 95bd
000003e0: d013 41bd b39b 33be 154b 5a3e 76e8 393e
000003f0: 06fc c93d 4130 5cbd bc80 4ebd 0b59 2f3e
-0.22607537 -0.17571945 0.16821411 0.19006436 -0.06145085 -0.11104056 0.07239217 0.16115697
0.076344945 0.18155794 -0.08243988 -0.046729423 -0.19555613 -0.12589183 0.05075022 -0.060280684
0.06917966 0.11240701 -0.2417589 -0.03776273 0.2290024 0.009002928 -0.23570022 0.2193867
-0.105847865 -0.2731722 0.010280431 0.27339482 -0.09929014 0.22722837 -0.11209164 0.10695889
0.05691894 0.15647225 -0.22475837 0.19239573 0.18230838 -0.18600197 -0.24402381 0.33264986
0.11988963 -0.21192008 0.11202547 0.27051428 -0.041398622 0.12985858 -0.14218566 -0.15500899
-0.038813714 -0.26575768 -0.042191576 0.2336253 -0.09019874 -0.07377851 -0.12085913 0.24446629
-0.18942514 0.03323764 0.2325581 -0.06813053 -0.06044351 0.04403956 0.10698624 0.19251141
-0.010677889 0.066150285 0.108585015 0.24188429 -0.23293607 0.025574854 -0.21368933 -0.22253153
0.19658287 0.1456638 -0.14982863 0.034665804 0.06264096 0.22478995 0.05911364 0.20341341
-0.108109355 -0.3575641 0.22951461 0.17409728 -0.07036646 0.14675826 -0.28639188 0.2495369
0.05877161 -0.09601194 -0.11459784 -0.17545876 -0.13873984 -0.04019544 0.16977598 0.12534894
0.047977313 0.15885866 0.06572124 0.1805364 0.22153553 -0.254999 0.16539286 0.101349935
-0.20768559 0.15183482 0.25516647 0.06418598 0.22386688 -0.18182431 0.10767797 0.065673046
-0.06644521 -0.232507 0.025978537 0.20656848 -0.031842068 -0.08922656 -0.025853945 -0.06277178
-0.17384098 -0.22643216 0.32186317 0.2945522 0.010426982 0.010142515 0.14423856 0.18059692
0.3305826 -0.35715273 -0.08850326 0.14704408 -0.11922879 0.0049831565 -0.21709579 0.39914683
-0.13846222 -0.13598052 -0.16722955 0.40511155 0.18599942 0.1302727 0.13304107 0.09566994
-0.0390044 -0.05324443 -0.011033645 -0.04536183 0.06859005 -0.20843403 0.013070029 0.10229332
0.043941297 0.159002 -0.06257681 -0.2089456 0.119286574 -0.08629703 0.011261294 -0.16269098
-0.17854103 0.043389343 -0.055248007 0.16997825 -0.06776571 0.19004166 0.15202424 0.118156895
-0.08674188 0.21452332 -0.10581398 0.10209218 0.22844292 0.17165269 -0.020091556 0.04971343
0.16172537 -0.19416353 -0.22304496 0.08926821 0.052945208 0.19895056 0.17994952 0.10090752
-0.41395274 -0.121914394 -0.028394973 -0.09348275 0.24274103 -0.14774163 -0.21068126 0.21030408
0.28099895 -0.2904613 -0.20345816 -0.16982184 0.024588382 -0.03751632 -0.08734781 0.29328644
-0.12509874 -0.24200484 -0.12928024 0.007034568 -0.064285144 -0.11071592 0.2361919 0.07899623
0.14864832 -0.029926935 0.078543566 -0.09929991 -0.2432416 0.25662923 -0.059766255 -0.14274691
-0.27652472 -0.19548997 -0.19885471 -0.13549854 -0.06311816 -0.07456442 0.17692587 -0.24363923
-0.08367189 0.08570881 0.09190133 0.00829309 -0.2279383 0.1565924 0.07818055 -0.13011765
-0.16829914 0.034844752 -0.09533044 -0.22946681 0.25800687 0.03780477 -0.083376296 -0.20239706
-0.02873645 0.008193872 -0.20499288 0.10299811 -0.2549921 -0.040401492 0.053398278 -0.072981715
-0.047138035 -0.17539863 0.21317704 0.18155083 0.09862523 -0.053756956 -0.05041574 0.17123811

lstm1_1.bias_ih_l0 f4 [64]
00000000: 1134 103e 87cf 1b3d f388 40be ec7c 9dbd
00000010: 26b5 d3bd 2853 23be b0fd 3a3e 8c6b 3f3e
00000020: 5422 a83d 6c29 773e c94b 0a3e 72d3 2ebd
00000030: 1d56 463e 0bfc 553e 658a 3e3e 0ee9 69be
00000040: d812 14bd 9509 813d d054 173e e908 9abd
00000050: 26e5 9fbd 22a1 803e 009f c0bd 0584 49be
00000060: e284 773e c1ea 58be f778 2c3d 1575 6fbe
00000070: 639a ad3d b199 a93c bab9 2cbd f785 533e
00000080: b3e8 42be 0594 39be 1aec 643e 51a2 103e
00000090: c7bb 683e fbe2 92bd 727c 72be 7368 1ebe
000000a0: 1cad 91bd dd00 57bd cfc6 353d 93d6 04be
000000b0: 9f73 38be 6979 2e3e bab9 1fbe 5ef1 b0bd
000000c0: 1c80 9bbc 3ad3 f5bc 4482 4f3d b574 e23d
000000d0: 8f94 69be 1121 a33d 02ce 7f3e ecd5 423e
000000e0: c5be 72bd c344 4bbe 7d49 debd acae 843d
000000f0: f47e 393e f0a6 913c 2f4d 27be 8639 183e
0.14082362 0.03803971 -0.18802242 -0.076898426 -0.10337286 -0.1594969 0.18260837 0.1869337
0.082096726 0.24136895 0.13505472 -0.04268212 0.19368787 0.20896928 0.18607481 -0.2284281
-0.036150783 0.06300656 0.14778447 -0.07521231 -0.078073785 0.25122935 -0.09405327 -0.19679268
0.24171785 -0.21183302 0.04210755 -0.23384507 0.084767126 0.020703169 -0.04216931 0.20656572
-0.1903408 -0.18122871 0.2235569 0.14124419 0.22727881 -0.07172199 -0.23680285 -0.15469532
-0.07113096 -0.052491058 0.04437905 -0.12972479 -0.18012856 0.17038502 -0.15598193 -0.08639787
-0.018981986 -0.030007947 0.05066134 0.11057416 -0.22810577 0.07965291 0.2498093 0.19026917
-0.059263963 -0.1985045 -0.108538605 0.064786285 0.18114835 0.017779797 -0.16338037 0.14865693

lstm1_1.bias_hh_l0 f4 [64]
00000000: 31e5 61be 86a3 14be ef6a 19be 7dda 05bc
00000010: 1ddf 373e a30c bdbd 307e 503e 3ff4 23be
00000020: 7554 d2bd d322 0d3e 5d89 c6bd 2be2 03be
00000030: 7cc3 fcbc 98ab 2fbd 0fc1 0a3e f423 e3bd
00000040: ea51 04bd 0103 c53d 909e 1abd 1060 21be
00000050: 2d2a 57be 9500 52be 4b4d 4e3d 47db 42be
00000060: 7fce be3c 2263 c5bc 46f9 43be b594 ccbd
00000070: 2516 d9bd 01b7 44be d56b 72be 079e 6a3e
00000080: bdd9 34be 63a2 de3d 159f 4d3c a097 86bd
00000090: a291 f63d 3334 dcbd d6e9 4dbe 8871 763e
000000a0: 10e2 da3d c490 d93c 52cc 223e eeee 7abe
000000b0: 6b97 abbd 45db 0c3e 58bf 29bd d57f 213e
000000c0: 3e74 47be c56a 6c3d 652d 20bd e0e3 ecbc
000000d0: ef08 4bbe a3d8 973e 4a90 a43d 867a 1cbe
000000e0: 7019 703c 55f7 32be 3384 1e3e de35 163e
000000f0: 9434 673e 6d6d 01be d5f9 27be a83d 153e
-0.22060086 -0.14515504 -0.14982198 -0.008169767 0.17956205 -0.09230926 0.20360637 -0.16011141
-0.10270015 0.13782816 -0.09694169 -0.12879245 -0.030854933 -0.042888254 0.13550209 -0.11090842
-0.03230468 0.096197136 -0.037748873 -0.15759301 -0.21012183 -0.20508035 0.05036668 -0.1902896
0.023291824 -0.024095122 -0.19138059 -0.09989301 -0.10599927 -0.19210435 -0.23673947 0.22911845
-0.17661186 0.108708166 0.012550135 -0.06571889 0.12039496 -0.10752144 -0.20108733 0.24066746
0.10687649 0.026558287 0.15898255 -0.24505207 -0.0837849 0.1375552 -0.041442245 0.1577142
-0.19477937 0.05771901 -0.03910579 -0.028917253 -0.19827627 0.29657468 0.080353335 -0.15281114
0.014654502 -0.17477162 0.15480117 0.14668986 0.2257865 -0.12639399 -0.16403897 0.14574301

lstm1_1.weight_ih_l0_reverse f4 [64, 32]
00000000: d9da 23be c0c3 ab3d cbe0 5bbe c1bd 293e
00000010: f277 fabd 585d 923b 355c 4fbe 929e 503e
00000020: b7c9 62be 727b e2bc f0c5 343e 51c3 e1bd
00000030: 1735 14be 6e46 413d 796d 8c3d 51d2 babc
00000040: 1430 f73d ac87 a53d e035 283e 2676 203e
00000050: a496 0f3e c8a8 14be 8145 5abe 15ba 263d
00000060: 9ba4 d73d 0008 f5bd 9d67 523d a217 39bd
00000070: 286b 013e 0b8f 043d 1065 efbc 5a11 74be
00000080: 4dfb 09be 634e ac3c 90c6 413e 643f eabd
00000090: a0bb 65be 4c1c a4bd d4c8 62be 5af1 76be
000000a0: 8a7a 2e3e 0c65 c1bd b885 5ebd 94df b13c
000000b0: 7813 1eba a5e9 c8bd e8c6 373e caae 42be
000000c0: a8c4 083d 00f1 793d 37b2 b2bd 786a 883d
000000d0: e296 233e 40d4 48be ab0b fd3d 406a 353d
000000e0: c772 8b3e 08d8 fabd e20a 2ebe 9672 493e
000000f0: b958 213d f342 33be 20a3 44be 1c23 a63d
00000100: 483a 03be 04e2 8a3d a2f3 753d 4845 9c3e
00000110: 217d 19be 24f2 0bbe bf28 5f3d 45b2 dcbc
00000120: c083 cd3e 9922 283e 80c5 413d 5f28 13be
00000130: 1cf8 b63d 97e8 0cbd 28d3 84bd 97e6 793e
00000140: fce6 a13d f877 bb3d 39df 70bc e6bc 763e
00000150: 081a 3abd 5ced 28be 6fa7 e73d 73e3 76be
00000160: 690e 333e ac45 babd de54 f8bc d374 d6bd
00000170: b809 54be 4ce5 6e3e 6801 95bd 76b7 0f3e
00000180: 49fa 753e 9981 27be 2ecc b9bc aa3e 813e
00000190: 53f8 143b 242a fdbd 69e4 08be 6314 633e
000001a0: fa38 b4be c08f 45be e807 463e f74a 2c3d
000001b0: 5c40 30be 7c18 0cbe ab86 6abe 1145 663e
000001c0: 0080 c43c 1037 65be f235 2fbe 506e 0cbd
000001d0: 10d1 f83d f0b4 75bd 0998 93bd f61e 793e
000001e0: 17ef c23d 1ab2 213e 4525 1fbe a53a 613e
000001f0: b655 753e 0a1d 4ebe 26be 013e 6e35 71be
00000200: 3aad 623e 780c 5b3e 95a2 513d 0921 a2bc
00000210: 0c43 04be b3f1 423e dac3 5c3e 8dc7 c0bd
00000220: 7320 c63e 437a 2bbe b0ca 7abd 11eb 833d
00000230: 9203 4dbe 0392 72be a33a 3fbd fe42 013c
00000240: 22fc 2ebe 7881 1fbd 5222 28bd cecb 6cbe
00000250: 9294 68be 9335 75bd 17ef 883e 556b db3c
00000260: 9002 723d 0c79 2abe 8298 30be 8545 4dbd
00000270: 9c61 903e 2707 eabd 56ff 47be 9040 ee3c
00000280: d176 993e 5c38 b03e 1edd 3fbd 16ab 41be
00000290: 6be8 3abb d91d 23bb 42d8 5c3d 933c 053c
000002a0: ac77 9a3e c6a5 03bc 8697 1e3e 447f 5bbe
000002b0: ec33 9c3d 2f1b 333e f833 913e e1ac a4bd
000002c0: 8075 11be 762e 373e 2f44 1f3e 0845 b63d
000002d0: 5a29 2fbe 8a9d a23c c72a a23d dd55 07be
000002e0: ef91 733e 6864 efbd b48a 0abe 812e 973e
000002f0: dcc6 8c3b 0548 2cbe ec87 393e 0452 c53d
00000300: 9505 803e 9266 ad3e 3ed9 e7bd 9497 72ba
00000310: cb07 0cbe 0fdb 093e 96ba 893e e157 053e
00000320: af16 823e c6dd 4c3e faee 2d3e a0f8 883e
00000330: 1182 ccbb d525 e83c a9f9 d0bd cf82 58bd
00000340: 2008 723c f8fe 0f3d bc2a ad3d ac98 9f3d
00000350: 08a6 13bd c159 0abe 9b8c 8e3e 3a46 1dbd
00000360: 532f 8b3e 6a9f 7f3e ad98 49bc e8d3 643d
00000370: 2d3b fc3d 949e fc36 e461 52be 0090 d9b9
00000380: 5bbd 473e 8158 69bd 1057 903d 370e c6bc
00000390: 0284 a13d 8e04 f7bd 0fc8 dc3d ec72 533b
000003a0: 2e9c a6bc 172e 65bd 863b 5ebe fd5a d539
000003b0: 0561 cb3d c1b3 a73d a418 5a3e d370 393d
000003c0: ecfd 4c3e e0f2 8fbd 97b5 f5bd 26da 5d3e
000003d0: 5ac1 5f3e 931b 0fbe 0c80 b63c 252d 2c3e
000003e0: ea36 513e a082 233e 8793 e4bd d359 ab3e
000003f0: a415 9b3d d8ef 353d 80a6 673d b45d 833d
-0.16001453 0.08386946 -0.2147247 0.16576292 -0.12229909 0.004466694 -0.20250018 0.2037299
-0.2214726 -0.027646754 0.17653632 -0.11023582 -0.14473377 0.047186308 0.06856818 -0.022805365
0.12069717 0.08082518 0.16426802 0.1567007 0.14022309 -0.1451751 -0.21315576 0.040704805
0.10529443 -0.119644165 0.051368345 -0.045188554 0.12638533 0.03236298 -0.029222995 -0.23834744
-0.1347477 0.021033471 0.18923402 -0.11437872 -0.22434855 -0.0801321 -0.22146922 -0.24115506
0.17038932 -0.09443101 -0.054326743 0.021713056 -0.0006030123 -0.09810189 0.1794697 -0.19011989
0.03339067 0.06102085 -0.08725398 0.06660932 0.15975526 -0.19612217 0.12355741 0.04429078
0.27236006 -0.12248236 -0.16996339 0.19672617 0.039391253 -0.17506008 -0.19202852 0.08112165
-0.12815201 0.0678139 0.0600468 0.30521607 -0.14989139 -0.13666588 0.054482218 -0.026940474
0.4013958 0.16419448 0.04730749 -0.14370869 0.08934042 -0.034401502 -0.06485587 0.2440437
0.07905385 0.091537416 -0.014701658 0.24095497 -0.04543498 -0.16496795 0.11311232 -0.24110202
0.17485966 -0.0909532 -0.030313905 -0.10471501 -0.20706832 0.23329657 -0.07275659 0.14034829
0.24021257 -0.16358031 -0.022680368 0.2524312 0.002273102 -0.12361553 -0.13368382 0.22175746
-0.3519972 -0.19293118 0.19338953 0.04206368 -0.17212051 -0.13681215 -0.22902934 0.22487284
0.023986816 -0.22384286 -0.17110422 -0.03428489 0.121492505 -0.05998701 -0.07206733 0.24328217
0.09518259 0.15790597 -0.15541561 0.21995027 0.23958477 -0.20128265 0.12670192 -0.23555538
0.22136393 0.21391475 0.05118044 -0.019791143 -0.12916201 0.19037513 0.21559086 -0.09413061
0.38696632 -0.16745858 -0.061228454 0.0644132 -0.20020893 -0.23688512 -0.04668678 0.007889507
-0.17088369 -0.03894183 -0.041048355 -0.2312462 -0.22712925 -0.059865545 0.2674491 0.026784578
0.059084475 -0.16647738 -0.17245677 -0.050115127 0.2819947 -0.114271455 -0.19530997 0.02908352
0.29973462 0.34418 -0.046841733 -0.1891292 -0.002851988 -0.0024889617 0.053917177 0.008132118
0.30169427 -0.008035129 0.15487489 -0.21435267 0.07627091 0.17490838 0.28359962 -0.080407865
-0.14204979 0.17888817 0.15553354 0.088998854 -0.17105618 0.019850511 0.079183154 -0.13216348
0.23786138 -0.11689073 -0.13529474 0.29527667 0.004296167 -0.16824348 0.18118256 0.09634784
0.2500426 0.33867317 -0.113207325 -0.0009254154 -0.13674848 0.1346247 0.26900166 0.13021804
0.2540793 0.20006475 0.16985694 0.26752186 -0.006241091 0.028338352 -0.10203869 -0.052859124
0.014772445 0.035155267 0.084554166 0.07792792 -0.03604701 -0.13510801 0.27841648 -0.03839705
0.27184543 0.24963155 -0.012304467 0.055866152 0.123159744 7.528646e-06 -0.20545155 -0.00041496754
0.19505827 -0.05696917 0.07047856 -0.0241767 0.078865066 -0.120614156 0.10780346 0.0032264544
-0.020338144 -0.055952158 -0.21702394 0.00040694317 0.099306144 0.08188582 0.21298462 0.045273613
0.20018739 -0.070287466 -0.11997526 0.21665248 0.21851102 -0.13975362 0.022277854 0.16814096
0.20431104 0.15967798 -0.11160951 0.33466968 0.07572487 0.044418186 0.05655527 0.06414357

lstm1_1.weight_hh_l0_reverse f4 [64, 16]
00000000: 63b0 88bc f8d3 303e ca1a 86bc e8b1 823d
00000010: ac6e bebd ce47 4e3e 97c7 873d 0703 2abe
00000020: bfd2 3b3e c497 f03d a477 35be aa5c 393e
00000030: 79c9 2e3d 409b f4ba d9d7 663c 4503 c2bc
00000040: 4a09 8dbe b99f 503d da5e 183e 6384 763c
00000050: 2845 0dbe de72 273e 5a62 003d 3e3f 9d3c
00000060: fda9 5abe 4792 04be 44fa 773e 5e48 24be
00000070: 42e0 e0bd c7df 113e ff0f 773e 9ff2 d0bd
00000080: 25c9 593e 8945 903d 5294 fb3d eb06 033e
00000090: 5603 be3d b510 123d 518d 0ebe aa57 60be
000000a0: f751 23be cfa4 253e da3d 893e e820 80be
000000b0: e2e1 05be 6f6e 19bd 13da 7d3e a36e 8e3d
000000c0: 3b44 5abe d941 6c3e c628 3c3e af76 a93d
000000d0: 9638 da3d 93dd 413d c9e7 9bbd b0c5 533e
000000e0: 6bb3 693e 5d3a 45be 043b 0c3e e1ac 35be
000000f0: 3296 cd3d 4f8e 343e 426e 443e f7ff 41bd
00000100: b3d7 4d3e 1212 753e 855e 593e 2a85 463c
00000110: 2a84 5ebe 9a75 c63d b28b 80bc 7e28 67bd
00000120: eb4c 1d3e bd15 55be e7c5 14be 34f2 87bc
00000130: 386e ebbd a230 da3b b8bc d1bc a6e0 18be
00000140: 0b04 63bd 79bd e93d aeb0 ee3c 11f5 1d3d
00000150: 33ce 89be 5980 483e 2e40 3bbd 96c6 19be
00000160: 5d25 a1bd a90c 59be bf43 093e 0da2 8abe
00000170: 4663 34be 6166 3c3e 258c 43be ab11 a5be
00000180: e92a edbd e21c 503e a517 73bd 6ea7 133e
00000190: fceb fabd 8fce 303e f1f9 04bd 9963 013e
000001a0: 36ca 0ebc e223 85bd b2cd 0abe e7dc 1abe
000001b0: 48f4 3a3d ca24 c1bd 797a c43c c502 ed3c
000001c0: f451 5b3e d4f0 07be 8347 323e c1f6 bbbd
000001d0: ebd3 7ebd b817 b93d ea96 0ebe d6b4 25be
000001e0: 9e0d dcbd de25 c93c 0f0d 00be 6593 823c
000001f0: 37a4 df3d 0580 79be 41db 9b3c 10d8 58be
00000200: 275a 8c3d 8fed 6dbe ecdd 16be 41ab e5bc
00000210: e1c9 293e da8c 193d c175 c33d ed03 3c3e
00000220: 3764 d8bd 2a97 733e 952b 763d 7f73 f13d
00000230: 4893 8a3d 0e88 673e cc01 fa3d 03a6 393e
00000240: 9aff 6b3e 9640 083d 81e3 f73d 1ca3 3cbd
00000250: 0465 86be d3a9 9cbd bae1 1fbd 2967 493e
00000260: 1745 293e d9de 22bd fbf1 893d 4f44 32be
00000270: e415 e73b 7225 3dbe dc32 0f3e 38c0 413e
00000280: 15f0 a2bd 2e46 b5bd 6659 fb3d d764 51be
00000290: 36f5 94be af9b 783e f9e5 e93d 4934 5ebe
000002a0: a474 fdbd 0622 303e 3285 143e 7074 953b
000002b0: 40dc ca3d 7a6b 2fbc e077 04be 3a52 a33d
000002c0: 57b6 923c 3099 60be 604d 1d3e 7665 423e
000002d0: fbed 54bd 7e1a 2bbe e4ba 733e 876f 083e
000002e0: dbac 31be bee6 48bc cac5 003e 36d4 373e
000002f0: 9df2 83be ba69 103e 7c9a e1bd d6ef 3b3e
00000300: 9b2b 70be 2998 30bd 3c3d 63bd ecba 593e
00000310: f270 863c 57fd 083e 3e1f eebd 995c 0e3e
00000320: 6a81 793e 6b40 be3d d1d8 21bd 8c38 d1bd
00000330: 9514 50be ac5c 183d 8bd3 893d 6fb5 85be
00000340: 3f26 ef3c 119c 59be 4c51 1d3e 7154 82bd
00000350: 5f49 183d e2b4 ac3d 9683 163e 0360 10be
00000360: f9c3 a9bd 20b8 5f3e ba29 973d fc56 e13c
00000370: 60f3 fb3d 9767 0e3e 6af5 e03d 7e7e b23d
00000380: 7393 0f3e 2d76 05be 18df bf3c d9ce fb3d
00000390: d62f 70bd 0b96 8dbd f0dd 06be 22ae 3b3e
000003a0: 9df9 633e 62bb ff3d b7fc 3fbd 642a c2bd
000003b0: 8fac 35bc 8841 60be a3a1 63be 56b3 31be
000003c0: 449a 2abe 3777 073e 0740 95bd aa8b 21be
000003d0: 66cb 62be 1892 dabd 63b2 4a3e 223a 243e
000003e0: 2095 473d d022 603e 4539 863e d3f3 dc3d
000003f0: b30f 23be bcd9 adbd 98f2 fdbd d06b 183e
-0.01668567 0.1726836 -0.016370196 0.06381589 -0.09298453 0.20144579 0.066298656 -0.16602717
0.18342112 0.11747697 -0.1772142 0.18101755 0.042672608 -0.0018661991 0.014089548 -0.0236832
-0.2754615 0.050933573 0.14879933 0.015046212 -0.13795912 0.16352412 0.031343795 0.019195195
-0.21353908 -0.12946425 0.24216563 -0.16043231 -0.10980274 0.1424552 0.24127196 -0.10202526
0.21268137 0.07044513 0.12284149 0.12795608 0.0927798 0.035660464 -0.13921095 -0.21908441
-0.15949236 0.1617615 0.26805001 -0.25025105 -0.13074449 -0.037458833 0.2479022 0.06954696
-0.2131509 0.23071994 0.18374929 0.0827459 0.10655324 0.04733045 -0.07612569 0.2068088
0.22822349 -0.19260545 0.13694388 -0.1774173 0.10038413 0.17632411 0.19182685 -0.047363248
0.20101814 0.23932675 0.21227463 0.01211671 -0.21730104 0.096903995 -0.015691612 -0.0564351
0.15361373 -0.20809074 -0.14528619 -0.016594984 -0.11495632 0.0066586295 -0.025602683 -0.14929447
-0.055423778 0.11413092 0.029136982 0.03856379 -0.2691513 0.19580211 -0.045715503 -0.15017161
-0.078684546 -0.21196236 0.1340475 -0.2707676 -0.17615995 0.1839843 -0.1909643 -0.32240042
-0.1158045 0.20323518 -0.05934872 0.14419338 -0.12252042 0.17266296 -0.032464925 0.1263565
-0.008715203 -0.06500985 -0.13555029 -0.1512333 0.04564312 -0.09430845 0.02398418 0.028931985
0.21417981 -0.13275462 0.17410092 -0.09177924 -0.06221382 0.09037727 -0.13924757 -0.16182265
-0.10744785 0.02455419 -0.12504981 0.015939424 0.10919993 -0.24365242 0.019025447 -0.21176171
0.06853133 -0.23235153 -0.14733094 -0.028035762 0.16580917 0.037487842 0.09543944 0.18360873
-0.105659895 0.23788133 0.060100157 0.11789607 0.06766373 0.22610494 0.12207374 0.18129735
0.23046723 0.03326472 0.1210394 -0.04605399 -0.26248944 -0.07649579 -0.03903363 0.19668259
0.16530262 -0.039763305 0.06735607 -0.1740887 0.00705217 -0.18471316 0.13984245 0.18920982
-0.07955948 -0.08851276 0.12272911 -0.20448624 -0.2909333 0.24278139 0.11420817 -0.21699633
-0.12375763 0.17200479 0.14503935 0.0045609996 0.099052906 -0.010706777 -0.12936354 0.07974668
0.017909212 -0.21933436 0.15361547 0.18984017 -0.05198477 -0.16709325 0.23801762 0.13323794
-0.17351095 -0.0122620445 0.1257545 0.17952046 -0.25771037 0.14102831 -0.11015794 0.18353209
-0.23454134 -0.04311386 -0.05547832 0.21262711 0.016411278 0.13377891 -0.11627053 0.1390251
0.24365774 0.092896305 -0.039513413 -0.102158636 -0.20320351 0.037197754 0.06729802 -0.26114985
0.029193042 -0.21250941 0.15363044 -0.06363762 0.037179347 0.08432938 0.14698634 -0.14099126
-0.08289332 0.21847582 0.073810056 0.027507298 0.123022795 0.13906704 0.10984309 0.08715533
0.14021091 -0.13033362 0.02342181 0.122953124 -0.05863937 -0.06913384 -0.131706 0.18328145
0.22263189 0.12486912 -0.046871867 -0.094807416 -0.011088504 -0.21899998 -0.22229628 -0.17353567
-0.1666041 0.1322907 -0.07287603 -0.15775934 -0.22147903 -0.106723964 0.19794612 0.16037801
0.0487262 0.2188828 0.26215568 0.10788693 -0.15923958 -0.08488795 -0.12399787 0.14884877

lstm1_1.bias_ih_l0_reverse f4 [64]
00000000: 40b4 4bbc b307 17bd 2e30 a83c 1baa 883d
00000010: 9050 233e 5572 ad3d 81c2 15be 971c ab3d
00000020: 4e22 2dbe 05dc 2fbe 68ef f3bd a2d5 d73d
00000030: 60e4 efbd 78cd 41be 78d0 be3c e3d7 00be
00000040: eebd d1bc bb99 42be d46f 8cbd 8d43 043e
00000050: 0f8d 873e 3073 50bd 85aa 113e bb87 75be
00000060: 31ec 31be b97d cfbd 4147 523d b025 2bbe
00000070: c171 0c3e 6b5e bd3d 6877 cabc 38c6 a7bd
00000080: 1208 7c3d 07eb 47be ef62 593e 1aa7 13be
00000090: 303a 8d3c 3565 123e 9ce5 ccbd b602 8ebb
000000a0: 4de1 1b3e eb8a 3abd 72e8 cebd 905e 393e
000000b0: 792d 603e 7727 3b3e 7743 67be 97fe a5bd
000000c0: dc9c 453e 4611 2ebc 4165 a1bc 6761 b3bb
000000d0: 7e76 433d 04f2 efbd e627 e2bd f166 073d
000000e0: 2b36 42be c1a0 293e b894 40be 0030 5d3e
000000f0: cea6 c53d 3359 59be 8fe5 e5bd abab 69bc
-0.012433112 -0.036872577 0.020530786 0.0667307 0.15948701 0.08469073 -0.14624979 0.083550625
-0.16907617 -0.17173775 -0.119108975 0.10538794 -0.11713481 -0.18926036 0.023292765 -0.12582354
-0.02560326 -0.19003956 -0.06857267 0.12916394 0.26474807 -0.0508911 0.14225204 -0.23977558
-0.17375256 -0.101314016 0.051337484 -0.16713595 0.13715269 0.092465244 -0.02471514 -0.08192104
0.061531134 -0.1952325 0.21229146 -0.14419213 0.01723966 0.1429642 -0.10004732 -0.0043338193
0.15222664 -0.04554264 -0.10102929 0.18102479 0.21892346 0.18276773 -0.2258433 -0.081052
0.19298118 -0.0106242355 -0.019701602 -0.0054742577 0.047720425 -0.11716083 -0.11042766 0.033057157
-0.18965976 0.16565229 -0.18806732 0.21600342 0.09650956 -0.21225433 -0.112254255 -0.01426212

lstm1_1.bias_hh_l0_reverse f4 [64]
00000000: 09bd 18bd d015 d53c 960b 833e 100d 253e
00000010: 4790 ddbd 677d 5bbe 170c 53be 0700 3c3e
00000020: aa0f b63d bbcb cc3d 3a09 8cbd 8df1 6dbe
00000030: c4c9 3f3e 78d9 dd3d d26c ec3d e6d5 b7bc
00000040: 1289 853d 7294 0cbe cc6c c53b 8e7d 5fbe
00000050: 82a6 a03d 7474 393e 09f9 873d 0b95 8a3d
00000060: 3673 a43d e965 b4bd 5954 793d 9836 4d3e
00000070: be96 4b3e 6ec6 7c3d 1d90 683b b6c6 4bbe
00000080: cc32 f23d 4179 43be 89db bbbc 2247 6fbe
00000090: f770 a8bb 8df6 43be 306f a7bd 77d5 b13d
000000a0: d8ed 7a3e 545f aa3d 4114 ffbd 3a43 debc
000000b0: 4822 a5bd 997b 3abd 4d80 46be 100a 353d
000000c0: f5e0 c0bd 272d a5bd 0278 c23a 0f48 cbbd
000000d0: 53fc 3dbe 07af 49be 0ef0 113e 21ab 5bbe
000000e0: 792e 69bd 0e16 fc3d 903d 6f3e 585b 1c3e
000000f0: a609 7abe b1f7 44be bf2b 7cbe 61e2 6abd
-0.037289653 0.026011378 0.25594777 0.16118264 -0.10818534 -0.21434556 -0.2061008 0.18359385
0.088897064 0.09999796 -0.06837697 -0.23236676 0.18729311 0.108324945 0.11544193 -0.022440862
0.06520285 -0.13728502 0.0060249325 -0.21825239 0.07844259 0.1811083 0.066392966 0.06766709
0.08029787 -0.088085 0.060871456 0.20040357 0.19881722 0.061712675 0.0035486289 -0.19900021
0.11826095 -0.19089223 -0.022931831 -0.23366979 -0.0051404196 -0.1913702 -0.08175504 0.08683293
0.24504793 0.08318964 -0.12455035 -0.027131665 -0.08063179 -0.04552803 -0.1938488 0.04419905
-0.09417907 -0.08065253 0.001483679 -0.099258535 -0.18553285 -0.19695674 0.1425173 -0.21451999
-0.056929085 0.12308894 0.23363328 0.1526922 -0.24417743 -0.19235112 -0.24626063 -0.057344798

lstm1_2.0.weight f4 [32, 32]
00000000: 2260 f0bd 8bc4 a6bd 4ffa 883c 25ab 2c3d
00000010: 3c97 f6bd 3f7f c8bd 0b6a 8fbc 88b3 043e
00000020: d246 123e 8d3b 9ebd 92c8 83bd 4277 cebc
00000030: 6e67 a13b 847d d6bd 26df 23be 5d3f dbbd
00000040: db10 e03c ce09 0d3e e7a2 93bd ccf9 3bbc
00000050: 4456 233e c307 bcbd a4f6 19be befb fc3d
00000060: d19f 24be 204e f83d 2e99 2abe 1106 fabc
00000070: 3914 acbd 07c3 303e a7ea 7c3d 396b 1d3e
00000080: 4fe7 09bd 5532 b23d 9048 d5bd 5d41 9c3c
00000090: d79c 93bd 24c0 173d cd0d 093e 48c2 803e
000000a0: 9b3c 7bbd 9109 ea3d 7caf edbd 9dfe 75bd
000000b0: 0639 ed3c d011 0f3e 96aa c6bd 26fc 2ebe
000000c0: d028 ee3d e423 a73d 05c8 f23d a2b6 f2bd
000000d0: e6c2 8cbd 8e07 1d3e 6b53 bcbd c8c5 3bbd
000000e0: 08b6 6ebc 63f4 013e 3fa2 54bd 9033 16be
000000f0: d0a7 41be 883d b2bd 3079 b83d 700f f4bd
00000100: 96c9 b2bd f74e d23d f0e4 81bd f8ec 8c3d
00000110: 85f0 68bd c962 24bd 6467 933d eeab fe3d
00000120: 8984 cbbc e9b5 e43c 3ea4 f33d 2187 a5bd
00000130: 5b38 42bd bee5 ed3c 45c7 27be 3a22 143e
00000140: 61bc 113d d6b2 a2bd bb04 4fbd a01e 89bd
00000150: 24c3 14be 2482 893d 6340 fd3d 50b2 8cbd
00000160: 4203 543d 5fc5 8abd 65ae f0bd 35ce bb3d
00000170: ba39 4e3a f51e b4bd a7b7 e13b 42fd 29bc
00000180: 8957 c13d 94c8 fe3d 0fb2 adbd 5125 523d
00000190: 4526 2cbe 5154 07be 4b5c 4abd 1081 8b3d
000001a0: 7726 c7bc 0602 0a3e 67a2 df3d ff6f b63d
000001b0: 78c2 05be 1dd9 a5bd 8744 803c 0079 c33d
000001c0: 1e32 28be 07e5 7c3d 2160 1d3d 418b 783d
000001d0: 4c69 273e c8e5 193e 4a42 3b3d 03b1 7a3d
000001e0: 2e93 43bd 91ec 323e 3d48 0b3d 12ce f53d
000001f0: 427e 9b3c 4128 7e3d f56e 223e 8eab a2bd
00000200: 4379 993d b367 d1bd 1f70 fdbd 0c8a 593e
00000210: d358 1ebc c63c d13c a861 2cbe 6940 843e
00000220: c8da 49be 59ef 1fbd ef89 a43d 3f98 7b3d
00000230: f094 db3d 1a83 2e3e 7ef2 4d3b d0d7 eb3d
00000240: c9df f5bc 234b 1abd 0682 393e c7b9 113e
00000250: 59ba 89be 60c9 0f3e 7004 bb3d 36fa 28be
00000260: 084b 09be efae 0b3e 461e 2d3e 2ae3 37be
00000270: b523 063d 6b58 a0bd 65d5 723c 51b9 18be
00000280: 286f ed3d d467 2cbe e231 a2bd 06c3 c03c
00000290: 0fca 01be c6c9 cd3c 4f70 ea3d 3210 69bc
000002a0: acb4 0d3d 4d78 6a3d 23e1 c0bd 2672 cebc
000002b0: 05f6 23be 325d b1bd 26d7 61bd fe56 043e
000002c0: 9bdd 353d 9293 b03d 76ef 0e3e 11e4 2b3e
000002d0: fb86 02be 36c0 963d 87ca c53d ad96 b8bd
000002e0: 1e01 263d f4b2 4f3c bf9b 15be 11fe 09be
000002f0: db3e 373d fc52 d4bd 9bdb 45bd 8a95 e93d
00000300: beaf 1fbe afcf 383e 7bde 22be 2e82 0a3e
00000310: 4943 203e a727 2d3e b23d 57bc bb78 3b3d
00000320: 2ced 81bd 882b 073e d348 0cbe e5ff 293e
00000330: b580 8a3c 8abe eebd 2604 f7bd e414 7dbc
00000340: c6a1 e7bd 1796 2abd 84ff 1fbe 8fd0 2fbd
00000350: 5fb3 323e 0fd0 4bbd 8109 933d b1f6 9cbd
00000360: d5c5 973d c417 6cbd 7ead 85bd 245e 923d
00000370: 0262 093e 3415 76ba a81c a93d 29e3 d0bd
00000380: 1ddc b6bd 117e bd3d a781 e63c 3c54 ca3c
00000390: e3c0 843d 89b5 013e 5332 1c3e ce1e 16be
000003a0: b03e ab3d be9c d13c 9d88 303e a977 343d
000003b0: bb29 14be dbe5 f43b 1786 cbbd 522b 9ebc
000003c0: d248 c23d 9cea 1cbe e1c7 9c3d bcfe c43d
000003d0: 2296 0abd 6ba6 62bd 995d 1ebe 5f55 9a3d
000003e0: a7db 25be 7200 b6bd 3e6a 893d e0ea a73c
000003f0: 4532 07be 5bce d8bc 2a4f b7bd 15e7 2e3e
-0.11737086 -0.08142956 0.016720919 0.042155404 -0.120405644 -0.09789895 -0.01750662 0.1295911
0.14284828 -0.07726202 -0.0643474 -0.025203351 0.00492566 -0.10473159 -0.16003093 -0.10705445
0.027351787 0.13773271 -0.072088055 -0.01147313 0.15950876 -0.09181168 -0.15035492 0.123527035
-0.1607659 0.12124276 -0.16659996 -0.03052047 -0.08402295 0.17261897 0.06174722 0.15372933
-0.03366786 0.08701006 -0.10414231 0.019074136 -0.07207649 0.037048474 0.13384171 0.25148225
-0.061337095 0.11427606 -0.116057366 -0.06005727 0.028957855 0.13971639 -0.097005054 -0.17088374
0.11628878 0.081611425 0.11854557 -0.11851241 -0.068731114 0.15334913 -0.09195598 -0.045842916
-0.014569767 0.12690882 -0.051912542 -0.14668107 -0.18911672 -0.087031424 0.0900749 -0.11917007
-0.08729856 0.102689676 -0.063424945 0.06881136 -0.056870002 -0.04013327 0.071974546 0.12435137
-0.024843471 0.027918773 0.11896561 -0.080824144 -0.047417026 0.029040214 -0.16384609 0.14466181
0.035580043 -0.079442665 -0.05054162 -0.066952944 -0.14527565 0.067142755 0.123657964 -0.06869948
0.05176092 -0.06775927 -0.11752013 0.0917019 0.00078668783 -0.08794967 0.006888348 -0.010375323
0.09440524 0.12440601 -0.084812276 0.05130512 -0.16811474 -0.13215758 -0.049404424 0.06811726
-0.024310334 0.13477334 0.10919648 0.0890808 -0.13062465 -0.08098052 0.015657676 0.09544563
-0.16425368 0.061741855 0.038421754 0.060679678 0.16348761 0.15029061 0.045717515 0.061203968
-0.047747783 0.17473055 0.03400444 0.120021954 0.018981103 0.062050108 0.15862639 -0.07942878
0.07493832 -0.10224857 -0.12374901 0.21244067 -0.009664732 0.025541674 -0.16834128 0.2583039
-0.19712365 -0.03904662 0.08034121 0.06142449 0.10721767 0.17042199 0.0031425054 0.11515772
-0.030013936 -0.037669312 0.18116006 0.14231025 -0.26899984 0.14041662 0.09131706 -0.16501698
-0.13407528 0.1364095 0.1690608 -0.1795775 0.032748897 -0.078293644 0.014821385 -0.14914443
0.11593467 -0.16836482 -0.07919671 0.023530494 -0.12674735 0.025120627 0.114472024 -0.014225053
0.03459613 0.057243634 -0.094179414 -0.025200915 -0.16011818 -0.08660354 -0.055136822 0.1292381
0.044400793 0.08621897 0.13958535 0.16786219 -0.12746803 0.0736088 0.0965777 -0.09013114
0.04052841 0.012676943 -0.14610194 -0.13475825 0.044737678 -0.103673905 -0.048305135 0.114054754
-0.15594384 0.18047975 -0.15905182 0.13526222 0.15650667 0.16909657 -0.013137268 0.045769434
-0.06344065 0.132002 -0.13699655 0.16601522 0.016907075 -0.11657436 -0.12061338 -0.015446875
-0.11310153 -0.041647043 -0.15624815 -0.042923506 0.17451237 -0.049758967 0.07179547 -0.0766424
0.0741078 -0.057639852 -0.06527232 0.07146862 0.13416293 -0.0009387315 0.08257419 -0.10199577
-0.08928702 0.09252561 0.028137995 0.02469837 0.06482103 0.12666906 0.15253572 -0.14660189
0.08361566 0.025587436 0.17239614 0.04405943 -0.14469044 0.00747369 -0.09937685 -0.019307766
0.094865456 -0.15323871 0.076553114 0.09618899 -0.033834584 -0.05533449 -0.15465392 0.075358145
-0.16197072 -0.08886804 0.06709717 0.02049774 -0.1320277 -0.026465585 -0.08950646 0.17080338

lstm1_2.0.bias f4 [32]
00000000: a2b2 52bd 7581 293e 5518 9ebc ecab d6bd
00000010: ae04 b9bb ad54 2dbd f288 ff3b c8cb c5bd
00000020: 9820 17be 65eb c83c 57b3 68bd 9c23 45bc
00000030: 33ed b83d d8d8 8e3c 1006 ad3d 5d4c df3d
00000040: 4fe9 10be 8184 43bd 7cbf 1dbe 8eec 67bd
00000050: b414 eabd 2b9f 083e f5fd 7f3d f5ca c33d
00000060: 5d5c 56bd 1dec 2a3d 0f43 26bd 95f3 3ebb
00000070: d32a 0f3d 9f33 1bbe 727f 4cbc f614 e03d
-0.05143989 0.1655329 -0.019298712 -0.1048201 -0.00564631 -0.04231708 0.0077983076 -0.09658009
-0.14758527 0.024526307 -0.056811657 -0.012032416 0.09029617 0.017437384 0.08448422 0.10903237
-0.141515 -0.047733787 -0.15405077 -0.05662208 -0.1142973 0.13341968 0.06249805 0.09560195
-0.05233418 0.04172908 -0.040591296 -0.0029136885 0.03495295 -0.1515641 -0.012481557 0.10941498
