results/comparison_methods_benchmark_tl_results/WSL/pre_trained_model.pth (torch, 95584 bytes, 27 tensors)

cnn1.0.weight f4 [16, 1, 3]
0.4609635 0.53132486 0.45195556 0.4804946 0.07644291 0.42266625 -0.26353633 -0.30541652
-0.52171886 -0.5708462 -0.03916984 0.04416478 0.07385439 -0.5124597 -0.123436704 0.3114012
0.609779 0.009070714 0.06453264 0.48437333 -0.3837124 0.12302818 0.3471607 0.20607466
0.5503237 0.04367483 0.46012655 -0.4835665 0.34275934 -0.3877939 0.06872075 0.2506874
0.28665397 -0.22636126 0.50279677 -0.2745718 -0.45061615 -0.4701848 0.19402099 -0.22486407
0.5848841 0.72643125 0.23559368 -0.030057844 0.009087868 0.1062298 0.15567455 0.351848
00000000: 6803 ec3e e804 083f b866 e73e 6303 f63e
00000010: 1a8e 9c3d b667 d83e 3cee 86be 8e5f 9cbe
00000020: 5e8f 05bf fa22 12bf 8e70 20bd 21e6 343d
00000030: f840 973d 8f30 03bf 62cc fcbd fa6f 9f3e
00000040: 7a1a 1c3f 559d 143c b029 843d c8ff f73e
00000050: f475 c4be 33f6 fb3d 0cbf b13e 3c05 533e
00000060: 04e2 0c3f 61e4 323d b595 eb3e 0796 f7be
00000070: 277e af3e ec8c c6be 77bd 8c3d 195a 803e
00000080: 4fc4 923e 3fcb 67be 4ab7 003f ad94 8cbe
00000090: 29b7 e6be 10bc f0be 70ad 463e c442 66be
000000a0: f7ba 153f 66f7 393f 783f 713e de3b f6bc
000000b0: 48e5 143c 028f d93d 2669 1f3e 6c25 b43e

cnn1.0.bias f4 [16]
0.42312336 0.27594185 -0.5070087 -0.12078444 -0.120083176 0.4208356 -0.0062713246 0.43798223
0.3079833 0.5123077 0.14678733 -0.34917435 0.5932954 -0.43281987 -0.23327999 0.39797607
00000000: a0a3 d83e 4048 8d3e 52cb 01bf d55d f7bd
00000010: 2bee f5bd c477 d73e af7f cdbb 353f e03e
00000020: fdaf 9d3e 9926 033f 6b4f 163e fbc6 b2be
00000030: 35e2 173f 919a ddbe f3e0 6ebe 85c3 cb3e

cnn2.0.weight f4 [32, 16, 3]
0.13594674 0.110768 0.065634735 0.037786 0.06946683 0.029512877 0.060201436 0.11543477
-0.020441694 -0.110002734 -0.105862655 -0.120819665 0.076414764 -0.14136492 -0.03409568 -0.0073488057
0.0052335756 -0.14277385 0.18171284 0.019482302 0.13122362 -0.035398584 0.110909924 -0.010568379
-0.0801227 0.07879285 0.12604076 -0.13606793 -0.2096564 0.0102464575 -0.02808575 0.08287002
0.09477876 -0.011165683 -0.014915074 -0.08985682 -0.18592791 -0.15200326 -0.14090712 0.23600017
0.26848614 -0.00969511 0.1407663 0.06848268 0.124545716 0.05790196 0.050272282 0.09525336
-0.055209167 -0.04583284 0.19266911 0.14044607 -0.017320324 0.09684185 -0.00842765 0.055724062
-0.0842701 0.12468124 0.10052102 -0.102215715 0.052627772 0.008337247 0.071059 -0.051501874
0.02893889 0.17539106 0.041818205 0.10388316 0.1588422 0.16533571 0.11542797 0.001998916
0.057875168 0.06364919 0.19397348 0.02160311 -0.14296266 -0.22733773 0.12462418 -0.051610064
-0.024890417 0.04169694 -0.05186985 -0.121194124 -0.18098548 -0.1115847 -0.0036809212 0.3493326
0.26442012 0.35253295 -0.07244438 0.038384467 0.010247971 -0.040502682 0.10603641 0.071675114
-0.1561734 -0.0027994926 -0.05786723 -0.0379205 0.02333086 0.08214262 0.11354457 -0.068195246
0.11774553 0.07875263 -0.03030045 0.13305469 -0.0756243 0.12554106 0.124429695 -0.05587811
0.009970918 0.009368933 -0.030514862 -0.16746475 -0.11746842 0.06748922 0.002329657 -0.12193022
0.019298686 -0.13768347 0.06628215 -0.027892465 0.09747019 0.11967483 -0.08390317 -0.030623626
-0.011675705 -0.13416786 -0.06770154 0.043362726 0.110024944 0.050394353 -0.04229579 0.0043314286
0.10719847 -0.11626676 0.07624551 -0.11318089 -0.07657363 -0.045872293 0.031049544 0.11016255
-0.1363094 0.103883594 0.03153406 0.030028572 0.11254553 -0.09670145 -0.09527735 -0.13566495
-0.10532303 -0.09970463 0.02694648 0.022180742 0.1192779 0.08186807 -0.004747257 -0.10045397
0.010908087 -0.0589006 0.06748242 0.018784806 -0.03689495 0.028484317 0.11208688 0.14234565
-0.09441713 -0.08865064 -0.047712427 -0.028643183 0.107735075 -0.02127087 0.043619633 0.09099443
-0.07834143 0.11245286 0.07356186 -0.060947333 0.08168708 -0.12478828 -0.08415058 0.12045062
-0.13033244 0.063562155 0.05136584 -0.004641507 -0.11105659 -0.017678935 -0.010681737 -0.1086185
-0.1279452 0.06558153 -0.102002494 0.095942765 0.098909974 0.023187866 0.13089451 -0.01892786
0.0303568 0.062700264 0.0981378 -0.07874709 0.034720976 -0.05049461 0.0670872 0.00015155379
-0.006194348 0.13564597 0.062314052 0.107493594 -0.11249785 -0.08211617 -0.03672674 -0.1111168
-0.025002794 -0.12807627 -0.1290525 0.004105683 -0.035552647 -0.1200234 -0.12921557 0.088099495
0.11211508 0.09215881 0.12645479 0.005028908 -0.13821946 -0.022891298 0.0032346444 -0.11487634
-0.01771505 -0.057105597 -0.119785435 0.1431818 0.009268904 -0.023145229 -0.011027517 -0.04377843
0.07927834 -0.06434167 -0.044818737 -0.107450865 -0.10323912 0.06949954 0.08756703 -0.090965286
0.058186293 -0.0796651 0.098180264 -0.032218065 -0.07783324 -0.007934532 -0.06671405 -0.05139778
00000000: 9f35 0b3e 55da e23d 816b 863d 7ec5 1a3d
00000010: a044 8e3d fdc4 f13c c895 763d 1169 ec3d
00000020: 5775 a7bc 1d49 e1bd 85ce d8bd 4d70 f7bd
00000030: 587f 9c3d f7c1 10be e9a7 0bbd 40ce f0bb
00000040: 6a7e ab3b 4f33 12be ee12 3a3e 5999 9f3c
00000050: 7c5f 063e 1bfe 10bd be24 e33d ff26 2dbc
00000060: 5f17 a4bd 255e a13d d410 013e 6455 0bbe
00000070: 2bb0 56be c2e0 273c 1614 e6bc c2b7 a93d
00000080: 5e1b c23d 45f0 36bc 5b5e 74bc da06 b8bd
00000090: e363 3ebe bea6 1bbe f549 10be 07aa 713e
000000a0: 0477 893e 3dd8 1ebc 0a25 103e a640 8c3d
000000b0: d311 ff3d 9b2a 6d3d 4fea 4d3d 3214 c33d
000000c0: 0223 62bd 37bb 3bbd 0d4b 453e 18d1 0f3e
000000d0: 5ae3 8dbc 0555 c63d 2014 0abc ea3e 643d
000000e0: cd95 acbd e158 ff3d f7dd cd3d 7956 d1bd
000000f0: 3890 573d f398 083c 6287 913d a1f3 52bd
00000100: 4011 ed3c b799 333e 9149 2b3d b2c0 d43d
00000110: 88a7 223e c44d 293e 8065 ec3d 3f00 033b
00000120: 830e 6d3d 825a 823d fca0 463e 01f9 b03c
00000130: ce64 12be 39cb 68be f63a ff3d 1365 53bd
00000140: fde6 cbbc 69ca 2a3d 7b75 54bd a034 f8bd
00000150: 4254 39be 8586 e4bd 9c3b 71bb b9db b23e
00000160: 1362 873e 337f b43e b85d 94bd 0839 1d3d
00000170: 1be7 273c 24e6 25bd 9e29 d93d 67ca 923d
00000180: ebeb 1fbe b177 37bb 3006 6dbd 8752 1bbd
00000190: 5c20 bf3c 643a a83d 0e8a e83d f3a9 8bbd
000001a0: 9224 f13d 0f49 a13d a638 f8bc 7d3f 083e
000001b0: eae0 9abd d68d 003e ffd4 fe3d 72e0 64bd
000001c0: 105d 233c 2780 193c 4efa f9bc e17b 2bbe
000001d0: 4893 f0bd ca37 8a3d 29ad 183b 8db6 f9bd
000001e0: 4718 9e3c e5fc 0cbe f0be 873d bd7e e4bc
000001f0: 739e c73d 1418 f53d 6dd5 abbd 66de fabc
00000200: 754b 3fbc 4d63 09be 1ba7 8abd 1d9d 313d
00000210: c254 e13d 4f6a 4e3d 5a3e 2dbd a8ee 8d3b
00000220: df8a db3d 441d eebd 9b26 9c3d 62cb e7bd
00000230: a3d2 9cbd 96e4 3bbd 9d5b fe3c e79c e13d
00000240: b194 0bbe ecc0 d43d dc29 013d 7bfe f53c
00000250: 457e e63d 690b c6bd c520 c3bd c1eb 0abe
00000260: 9ab3 d7bd f131 ccbd ddbe dc3c 63b4 b53c
00000270: f947 f43d 72aa a73d e18e 9bbb d0ba cdbd
00000280: d5b7 323c c141 71bd 3934 8a3d 98e2 993c
00000290: 291f 17bd f157 e93c ce8d e53d 0fc3 113e
000002a0: c55d c1bd 778e b5bd 1b6e 43bd 1ca5 eabc
000002b0: 35a4 dc3d 3f40 aebc 80aa 323d 4a5b ba3d
000002c0: 7971 a0bd af4d e63d 9aa7 963d e9a3 79bd
000002d0: 8e4b a73d ff90 ffbd 2457 acbd d1ae f63d
000002e0: de75 05be e02c 823d fd64 523d c817 98bb
000002f0: a371 e3bd 6ad3 90bc 7402 2fbc 6073 debd
00000300: 1104 03be 9c4f 863d afe6 d0bd a47d c43d
00000310: 5091 ca3d 7bf4 bd3c 3609 063e 990e 9bbc
00000320: d3ae f83c ff68 803d 79fc c83d 2846 a1bd
00000330: 9537 0e3d 70d3 4ebd 0465 893d 69ea 1e39
00000340: f5f9 cabb c7e6 0a3e 053d 7f3d 9a25 dc3d
00000350: 4665 e6bd 862c a8bd c76e 16bd 3491 e3bd
00000360: a9d2 ccbc 6d26 03be 5726 04be f788 863b
00000370: a79f 11bd d4ce f5bd 1651 04be 826d b43d
00000380: 979c e53d c2bd bc3d 5d7d 013e 8ac9 a43b
00000390: 6789 0dbe 8886 bbbc 54fc 533b 4944 ebbd
000003a0: 271f 91bc 8fe7 69bd 1152 f5bd 409e 123e
000003b0: 9adc 173c 109b bdbc c2ac 34bc 0351 33bd
000003c0: af5c a23d 91c5 83bd da93 37bd 330f dcbd
000003d0: 086f d3bd c655 8e3d 5856 b33d 024c babd
000003e0: c054 6e3d 7527 a3bd bc12 c93d 17f7 03bd
000003f0: 0967 9fbd d7ff 01bc 60a1 88bd 7b86 52bd

cnn2.0.bias f4 [32]
0.11215825 0.09407455 0.077050865 0.040709637 -0.021405939 -0.06381946 -0.12335181 -0.121692285
0.1635232 -0.14014491 0.052811682 -0.024215775 -0.09511515 0.043633103 -0.019694611 -0.0673052
-0.12335292 0.018860443 -0.00093229447 0.03922373 0.0796166 -0.031675875 -0.11476197 -0.04412731
0.12632799 -0.13975412 -0.10235065 0.07199749 -0.11271415 -0.046794247 -0.04146161 -0.0056344005
00000000: 39b3 e53d 28aa c03d d8cc 9d3d 26bf 263d
00000010: 825b afbc c7b3 82bd e09f fcbd ce39 f9bd
00000020: a072 273e 2682 0fbe 1051 583d 2960 c6bc
00000030: bbcb c2bd a0b8 323d 9856 a1bc 4fd7 89bd
00000040: 75a0 fcbd 3781 9a3c 3965 74ba 10a9 203d
00000050: 070e a33d 90be 01bd 5308 ebbd d7be 34bd
00000060: 205c 013e b41b 0fbe 389d d1bd 6c73 933d
00000070: add6 e6bd 53ab 3fbd a6d3 29bd c7a0 b8bb

lstm1_1.weight_ih_l0 f4 [64, 32]
-0.02602455 0.20887601 -0.16405314 0.052981168 0.2367264 0.033598386 0.0388945 0.19075671
-0.20698202 -0.17351133 0.14332439 -0.033249795 0.09552539 0.04377845 0.05862518 -0.11523189
-0.17804027 0.1509418 0.14098327 0.19861224 0.11600853 0.14291301 -0.19223636 -0.06890736
0.18157163 0.24251047 -0.17438935 -0.07342291 -0.034050554 -0.23904921 0.06212303 -0.18367276
-0.1438104 -0.05191552 -0.16190396 0.12824512 0.09461513 -0.14073625 0.10583899 0.11293647
0.24429798 -0.05718866 -0.08504309 -0.06598398 0.21695894 -0.20579934 -0.08305366 -0.23971482
-0.11901727 0.058566835 -0.064065345 0.20673963 0.008282008 -0.023317873 -0.063853145 0.019133223
-0.08292681 0.05222018 -0.09172796 -0.11978385 -0.16865599 -0.007038152 0.16123255 0.2144961
0.14115407 0.20803568 -0.18403597 0.014008194 -0.19023821 0.13042022 -0.041755095 -0.08283228
0.11248637 0.041419476 -0.14217119 0.21703953 -0.09007329 -0.20569167 0.13592869 -0.25896168
0.18442509 0.01340552 0.14657941 -0.14941472 0.15647507 0.11590886 -0.24244148 0.22615008
0.1556167 -0.15665029 0.058025245 -0.10463941 -0.13293779 -0.16149502 -0.18552522 -0.1256735
0.10935567 -0.023572937 -0.1456496 0.20187035 -0.0888091 -0.19114174 -0.009805794 -0.042586267
0.006485168 -0.16312218 0.16760513 -0.17688718 0.02623026 -0.010206997 0.052814048 0.17884257
0.12326819 -0.19217026 -0.16256611 0.23797181 -0.17652614 0.00091189146 -0.04887551 0.033953723
0.18532345 -0.06663599 -0.13108984 -0.16418815 -0.21723792 0.175611 0.16395333 0.036531866
0.03019488 -0.027542874 -0.23498192 0.034294248 -0.16949767 0.07805613 0.06282781 -0.053209245
0.26892313 -0.22567871 0.21867506 0.12285736 0.1682619 -0.009246588 0.25248167 0.20566636
-0.10162014 -0.19970869 0.2673311 0.20005181 0.072949916 0.02060777 -0.18211368 0.12097256
-0.24663493 -0.21223406 0.2693696 -0.13339913 -0.08479801 -0.0014288563 -0.061956372 0.20845729
0.23704877 -0.21253082 -0.10516656 -0.1335957 -0.18009567 -0.015356539 0.081569254 -0.16237646
-0.112180054 -0.20749915 -0.17463501 -0.09970805 -0.19318226 0.035280436 -0.15039375 0.05761489
0.15219146 0.15827267 -0.0019911688 0.21093696 -0.02017817 -0.10410285 0.21611601 0.12690824
-0.16880995 -0.06452169 0.21437049 0.2342824 0.19356233 0.16831793 0.07272864 0.23150903
-0.0984034 -0.063889295 0.16227362 0.1932095 0.051873207 0.19050649 -0.07801643 -0.17631945
0.23095974 0.004333645 -0.0983046 -0.030657858 -0.040487286 0.0827356 0.041274883 -0.010901594
0.026000977 0.18397969 -0.1303775 0.12986284 -0.10704217 -0.19650236 -0.062017173 0.055519547
0.07890341 -0.23460427 0.23640436 -0.041843385 -0.06926951 -0.18637276 -0.1835322 -0.14546952
-0.123955116 -0.13600697 -0.16288568 0.09248534 0.1671277 -0.08245891 0.14857022 -0.13257208
-0.07490009 -0.12107098 0.19953595 0.033175588 -0.027282398 0.19591552 0.010276701 -0.08851162
0.14028952 -0.19869044 -0.14088418 0.24632344 0.103004776 -0.18170044 0.13611591 -0.021476785
-0.017185748 0.21713719 -0.090414144 -0.18416601 -0.22060117 0.18021892 -0.20899664 0.23415288
00000000: 7031 d5bc 98e3 553e 8cfd 27be c802 593d
00000010: 6868 723e 769e 093d d74f 1f3d ba55 433e
00000020: 18f3 53be f4ac 31be a1c3 123e f030 08bd
00000030: d1a2 c33d 0851 333d f520 703d b2fe ebbd
00000040: 3050 36be 7d90 1a3e eb5d 103e 0261 4b3e
00000050: e195 ed3d ca57 123e 9cd9 44be 4d1f 8dbd
00000060: eaed 393e aa54 783e 1f93 32be c05e 96bd
00000070: 9878 0bbd 51c9 74be b874 7e3d b614 3cbe
00000080: 0943 13be 5ea5 54bd 27ca 25be b052 033e
00000090: 94c5 c13d 2a1d 10be 1dc2 d83d 3c4b e73d
000000a0: 4029 7a3e a83e 6abd 122b aebd 9c22 87bd
000000b0: 7c2a 5e3e 10bd 52be 0a18 aabd cd77 75be
000000c0: 54bf f3bd c7e3 6f3d b134 83bd 8eb3 533e
000000d0: 42b1 073c 2005 bfbc 70c5 82bd 47bd 9c3c
000000e0: 88d5 a9bd d4e4 553d dedb bbbd 3c51 f5bd
000000f0: 28b4 2cbe 4ca0 e6bb 251a 253e dea4 5b3e
00000100: b18a 103e 4e07 553e ed73 3cbe a082 653c
00000110: cecd 42be e18c 053e 6407 2bbd f8a3 a9bd
00000120: 415f e63d 78a7 293d 5395 11be 9c3f 5e3e
00000130: 5878 b8bd d6a0 52be e430 0b3e a096 84be
00000140: eed9 3c3e d3a2 5b3c ea18 163e 2c00 19be
00000150: 003b 203e a061 ed3d 9442 78be e393 673e
00000160: fc59 1f3e ef68 20be e1ab 6d3d 304d d6bd
00000170: d820 08be f35e 25be 53fa 3dbe 8eb0 00be
00000180: def5 df3d 081c c1bc 2b25 15be 1ab7 4e3e
00000190: 8ce1 b5bd a9ba 43be 7ba8 20bc f06e 2ebd
000001a0: 8881 d43b 8009 27be aea0 2b3e ea21 35be
000001b0: d8e0 d63c 403b 27bc 8b53 583d 8222 373e
000001c0: 0874 fc3d 48c8 44be bb77 26be e2ae 733e
000001d0: 45c3 34be 000c 6f3a b031 48bd 0f13 0b3d
000001e0: 6ec5 3d3e 7378 88bd 6a3c 06be f020 28be
000001f0: 9e73 5ebe 5fd3 333e 62e3 273e 70a2 153d
00000200: 415b f73c 98a1 e1bc 1a9f 70be 2078 0c3d
00000210: cc90 2dbe e4db 9f3d deab 803d f0f1 59bd
00000220: 4bb0 893e 5218 67be 5bec 5f3e a49c fb3d
00000230: d94c 2c3e 007f 17bc 4745 813e 349a 523e
00000240: 381e d0bd 6f80 4cbe 9fdf 883e 62da 4c3e
00000250: c466 953d a0d1 a83c 027c 3abe 76c0 f73d
00000260: de8d 7cbe e353 59be d0ea 893e c899 08be
00000270: 94aa adbd 7648 bbba f7c5 7dbd d475 553e
00000280: eabc 723e aea1 59be 9161 d7bd 50cd 08be
00000290: 006b 38be fe99 7bbc c80d a73d 0446 26be
000002a0: a8be e5bd a87a 54be 85d3 32be bc33 ccbd
000002b0: 92d1 45be 3882 103d d200 1abe 97fd 6b3d
000002c0: 14d8 1b3e 3b12 223e 457e 02bb dcff 573e
000002d0: b14c a5bc e033 d5bd 844d 5d3e 3cf4 013e
000002e0: 84dc 2cbe f323 84bd f083 5b3e bae7 6f3e
000002f0: 3435 463e 895b 2c3e c1f2 943d b410 6d3e
00000300: b987 c9bd 64d8 82bd 0e2b 263e b6d8 453e
00000310: 0079 543d 2214 433e 14c7 9fbd 168d 34be
00000320: b680 6c3e 4001 8e3b ec53 c9bd 3026 fbbc
00000330: ffd5 25bd 4871 a93d da0f 293d 999c 32bc
00000340: 0000 d53c 2c65 3c3e ae81 05be c4fa 043e
00000350: ed38 dbbd ea37 49be b805 7ebd 7768 633d
00000360: 1c98 a13d 1a3c 70be fc13 723e f863 2bbd
00000370: 2cdd 8dbd 80d8 3ebe ddef 3bbe f6f5 14be
00000380: 2edc fdbd 6945 0bbe 81cb 26be f468 bd3d
00000390: 8623 2b3e 38e0 a8bd cb22 183e fac0 07be
000003a0: 3865 99bd 10f4 f7bd 2753 4c3e 20e3 073d
000003b0: 567f dfbc 149e 483e 9c5f 283c 9545 b5bd
000003c0: 0ea8 0f3e 8275 4bbe f143 10be 363c 7c3e
000003d0: 2bf4 d23d ae0f 3abe f861 0b3e 15f0 afbc
000003e0: 20c9 8cbc 3659 5e3e 0d2b b9bd 0496 3cbe
000003f0: 46e5 61be 4f8b 383e 3703 56be c6c5 6f3e

lstm1_1.weight_hh_l0 f4 [64, 16]
-0.06385977 0.102589585 0.18741773 0.23374447 -0.0605197 0.22681692 0.20081984 0.23762086
0.18557376 -0.02383058 0.12530513 0.14430627 0.036281586 0.22893146 -0.19733293 -0.1832572
0.3820064 -0.26973465 0.096158475 0.0010953023 0.07598637 0.054757938 0.21775891 -0.09574971
-0.23009673 -0.032024894 0.18120183 -0.11724882 -0.067545384 -0.14168046 -0.119541205 0.12837052
-0.10127963 -0.058359984 0.31557918 -0.12456806 -0.025382118 0.0025354514 0.040623575 -0.079337224
0.0008100456 0.24478383 -0.008349553 0.22365224 -0.26123908 -0.027686179 -0.080989316 0.25169343
0.023282787 0.08211999 -0.089966245 0.14593267 -0.24407144 -0.20941405 0.113134876 0.14126875
0.23253192 -0.191597 0.10072744 -0.00070438924 -0.031132355 -0.023262713 -0.09292461 -0.070268214
0.33002812 0.2381318 0.019128675 0.0030911372 -0.2116478 0.44563112 0.44044453 0.191689
0.008628015 0.15739542 0.37400427 0.11844085 0.0824571 0.036157414 -0.15336503 0.4949737
0.2570673 -0.0801819 -0.11249746 0.12256184 0.1407103 -0.1492576 0.19526531 -0.026710056
0.16972591 0.1903994 -0.1632972 0.20221238 -0.08446625 0.1361875 -0.09267818 0.0790534
0.22379708 0.023903321 0.033752862 -0.0220215 -0.14846836 0.06617973 -0.19244137 0.21537018
0.14775334 0.11698902 -0.17887986 -0.00031013545 0.17865857 -0.1586643 0.2235422 -0.15661412
-0.0007055736 -0.050920013 0.1943504 -0.16450453 -0.12010109 0.09051814 0.08316465 -0.19069599
-0.049127035 0.21870458 -0.08011591 -0.087655395 0.16985181 0.16439481 -0.096287586 0.14542161
0.24151811 0.13740289 0.27771392 -0.13281338 0.17157575 0.11179622 0.19895884 -0.0047301324
-0.2658068 0.25942814 -0.011054748 -0.08769455 0.07049483 0.25126487 0.18141262 0.21691866
-0.22957826 0.25292653 0.059599496 0.08656815 -0.21431184 -0.20342311 0.1292564 0.07935777
-0.0934855 0.101372585 0.106100164 -0.012649532 -0.0017401606 -0.13440311 0.11352563 0.15350369
-0.13857166 -0.2750313 -0.013237611 0.0012483149 0.16091222 0.0067194127 -0.000680631 -0.1812052
-0.2250214 0.08294999 -0.14417732 0.10548203 -0.18363129 -0.2118273 0.11747709 -0.09070938
-0.17388152 -0.08487461 0.19489989 -0.002767503 0.099742025 0.12281995 -0.24541879 -0.15240371
-0.12305273 -0.23538621 -0.19380379 -0.05980989 -0.14561908 0.18722016 0.0902036 0.09129759
0.040720522 0.11722079 0.16239904 0.11609399 -0.18071774 -0.03625263 -0.06310003 -0.15328456
0.23067361 0.3057031 0.039366957 0.039363544 -0.077114895 0.24321039 0.058082446 0.24846812
0.08151753 0.061191656 0.06882791 0.058142748 0.16572347 0.15846337 0.15110058 -0.22973393
-0.016098212 -0.14083976 0.23139039 0.18356699 0.040651962 0.12425285 0.083249554 0.16948898
0.15937491 -0.12900612 0.053514645 -0.25335592 -0.28185555 0.25929785 0.18160672 0.30862114
-0.05119806 0.26448908 0.06156383 0.27927852 0.044112705 0.27763936 0.11403385 0.23334536
-0.14377248 0.044334143 0.064385094 -0.14113165 0.15403324 -0.059080824 0.21233681 -0.0070982375
-0.2069172 0.1860497 0.04250404 0.07568579 0.06382083 0.068611115 0.08616164 0.15674047
00000000: e9c8 82bd 7d1a d23d 6fea 3f3e b65a 6f3e
00000010: 81e3 77bd b242 683e b7a3 4d3e e252 733e
00000020: 0c07 3e3e 5938 c3bc fd4f 003e 06c5 133e
00000030: 009c 143d 026d 6a3e a511 4abe c7a7 3bbe
00000040: 5896 c33e a91a 8abe bcee c43d 3f90 8f3a
00000050: be9e 9b3d dc49 603d 31fc 5e3e 6d18 c4bd
00000060: 7a9e 6bbe 892c 03bd f98c 393e 2620 f0bd
00000070: 3c55 8abd af14 11be 05d2 f4bd 9073 033e
00000080: b26b cfbd e10a 6fbd 9893 a13e 8a1d ffbd
00000090: 29ee cfbc d129 263b e864 263d 8e7b a2bd
000000a0: 3d59 543a 9da8 7a3e 90cc 08bc 1805 653e
000000b0: 21c1 85be 20ce e2bc badd a5bd f6dd 803e
000000c0: 8bbb be3c 862e a83d 3940 b8bd 606f 153e
000000d0: dded 79be a370 56be 42b3 e73d c1a8 103e
000000e0: d91c 6e3e 0132 44be 304a ce3d c3a6 38ba
000000f0: 4809 ffbc 7291 bebc 424f bebd c8e8 8fbd
00000100: 72f9 a83e d3d8 733e bdb3 9c3c ad94 4a3b
00000110: 33ba 58be c329 e43e f281 e13e 1f4a 443e
00000120: 855c 0d3c 442c 213e 7d7d bf3e 1e91 f23d
00000130: 45df a83d cc19 143d b90b 1dbe 316d fd3e
00000140: 539e 833e 6836 a4bd 1165 e6bd b401 fb3d
00000150: 5c16 103e fcd6 18be a1f3 473e 0ccf dabc
00000160: a1cc 2d3e 0ff8 423e 6237 27be c310 4f3e
00000170: a4fc acbd bc74 0b3e 0fce bdbd c0e6 a13d
00000180: 102b 653e e6d0 c33c 7140 0a3d 6f66 b4bc
00000190: 1708 18be 3d89 873d 5a0f 45be 008a 5c3e
000001a0: a74c 173e f097 ef3d 482c 37be ad99 a2b9
000001b0: 46f2 363e e578 22be 3fe8 643e 745f 20be
000001c0: 3ef6 38ba 8191 50bd cb03 473e e073 28be
000001d0: 8ff7 f5bd 9361 b93d 3a52 aa3d cf45 43be
000001e0: 6e39 49bd 18f4 5f3e cf13 a4bd ac84 b3bd
000001f0: a2ed 2d3e 1d57 283e 6d32 c5bd 67e9 143e
00000200: 8650 773e 58b3 0c3e 8530 8e3e 3b00 08be
00000210: 8eb1 2f3e 6bf5 e43d debb 4b3e 3aff 9abb
00000220: d417 88be c4d3 843e f91e 35bc 3399 b3bd
00000230: 985f 903d caa5 803e 3bc4 393e ed1f 5e3e
00000240: 9016 6bbe 967f 813e 9a1e 743d a44a b13d
00000250: 9074 5bbe 264e 50be ca5b 043e 5486 a23d
00000260: 5375 bfbd 6e9c cf3d 0b4b d93d fc3f 4fbc
00000270: 1a16 e4ba f8a0 09be 2080 e83d 1230 1d3e
00000280: bbe5 0dbe e7d0 8cbe 91e2 58bc 7f9e a33a
00000290: 2cc6 243e 852e dc3b 606c 32ba db8d 39be
000002a0: 036c 66be afe1 a93d 38a3 13be f606 d83d
000002b0: d709 3cbe 41e9 58be d497 f03d d7c5 b9bd
000002c0: ff0d 32be bdd2 adbd d693 473e ff5e 35bb
000002d0: 8c45 cc3d 0789 fb3d 104f 7bbe b80f 1cbe
000002e0: 1203 fcbd 1509 71be 8074 46be 37fb 74bd
000002f0: 2b1d 15be a4b6 3f3e aabc b83d 3bfa ba3d
00000300: 90ca 263d 7411 f03d ef4b 263e b0c2 ed3d
00000310: 120e 39be a37d 14bd 973a 81bd a1f6 1cbe
00000320: b435 6c3e 1e85 9c3e 3f3f 213d ab3b 213d
00000330: 6aee 9dbd 250c 793e dce7 6d3d 6d6e 7e3e
00000340: aaf2 a63d 1aa4 7a3d a6f5 8c3d 1727 6e3d
00000350: 6ab3 293e 3944 223e 1cba 1a3e 5f3f 6bbe
00000360: 66e0 83bc 4c38 10be 9af1 6c3e fcf8 3b3e
00000370: ac82 263d 4778 fe3d be7e aa3d 858e 2d3e
00000380: 2d33 233e 2e1a 04be 2c32 5b3d deb7 81be
00000390: 5f4f 90be b0c2 843e 1df7 393e 9703 9e3e
000003a0: 0fb5 51bd 1d6b 873e 5b2a 7c3d 98fd 8e3e
000003b0: 86af 343d bf26 8e3e 948a e93d 16f2 6e3e
000003c0: 1839 13be b897 353d 55dc 833d d184 10be
000003d0: e4ba 1d3e bcfe 71bd d26e 593e 5598 e8bb
000003e0: 1ae2 53be d083 3e3e b718 2e3d 2701 9b3d
000003f0: 7fb4 823d fc83 8c3d 8475 b03d 9380 203e

lstm1_1.bias_ih_l0 f4 [64]
-0.117628835 0.23376833 0.092993736 0.009063256 0.17350005 0.23843277 -0.06072687 0.24537125
0.21279125 -0.052584562 -0.020554097 0.16357046 0.23569062 0.24351393 -0.05449772 0.16113855
0.041885376 -0.039852355 -0.27415302 0.124505945 0.08532839 0.027390048 0.094886094 0.07669085
0.15612705 0.20627421 0.01618877 -0.11253871 -0.025782907 -0.06937573 -0.19532067 -0.07535326
-0.17453572 -0.02343485 -0.17452322 -0.20398884 -0.009333447 0.23559615 0.00857068 0.16746214
0.042737547 0.23370272 0.1987565 -0.18142793 0.08923971 0.1958678 0.16517346 -0.0045068334
0.2220621 -0.112407975 0.1375563 -0.2276994 -0.13007268 -0.16265552 0.039545003 -0.084075
-0.06650976 0.050349947 0.0471737 0.0003621877 0.18773238 0.12426612 -0.026419077 0.20645607
00000000: 63e7 f0bd f760 6f3e 8073 be3d 0d7e 143c
00000010: ffa9 313e b827 743e bdbc 78bd 9a42 7b3e
00000020: f3e5 593e e962 57bd 1161 a8bc 047f 273e
00000030: e258 713e b75b 793e 0039 5fbd 8101 253e
00000040: 0090 2b3d 393c 23bd c95d 8cbe f9fc fe3d
00000050: a7c0 ae3d 1861 e03c a453 c23d 1810 9d3d
00000060: c5df 1f3e 8c39 533e 509e 843c b27a e6bd
00000070: ad36 d3bc dd14 8ebd 2402 48be cf52 9abd
00000080: 7eb9 32be 71fa bfbc 37b6 32be 73e2 50be
00000090: 50eb 18bc 1e40 713e 0a6c 0c3c 327b 2b3e
000000a0: 910d 2f3d c44f 6f3e d386 4b3e 3ec8 39be
000000b0: 4fc3 b63d 9291 483e 3b23 293e 0fae 93bb
000000c0: 3f64 633e 2736 e6bd 8fdb 0c3e 082a 69be
000000d0: c631 05be 2b8f 26be f1f9 213d 832f acbd
000000e0: 4536 88bd bf3b 4e3d 3639 413d 03e4 bd39
000000f0: eb3c 403e 3c7f fe3d d26c d8bc 3869 533e

lstm1_1.bias_hh_l0 f4 [64]
-0.20175618 0.24908005 -0.032236993 0.22399046 0.029244874 -0.19707638 0.14968808 -0.13330053
0.016052227 -0.19901396 0.2197972 -0.02597548 -0.13604221 0.123659916 0.07852789 0.21253099
-0.048612595 -0.21029209 0.09952659 -0.048479058 0.11512727 0.13235179 0.24238506 -0.11909309
0.017188672 0.072124034 -0.15137853 -0.15119626 -0.04164941 0.2295039 0.008708684 0.0005739903
0.11293156 0.176823 -0.21842726 -0.11962345 -0.17354134 -0.033337783 -0.025729526 -0.17868549
0.04847191 0.13649249 0.06357717 0.037048366 0.04387989 0.16721085 0.14158262 -0.18019219
0.038796347 0.1653465 0.10553891 0.15905568 -0.083236955 -0.123459235 -0.03682471 -0.0825414
-0.056131385 0.039296713 0.044810645 0.091530465 -0.1941187 -0.24087964 0.24528731 -0.08118988
00000000: 2c99 4ebe d70e 7f3e f00a 04bd c15d 653e
00000010: f292 ef3c 64ce 49be d547 193e ef7f 08be
00000020: f67f 833c 51ca 4bbe 8412 613e 88ca d4bc
00000030: a64e 0bbe 6941 fd3d 3bd3 a03d b9a1 593e
00000040: 001e 47bd cf56 57be 99d4 cb3d fa91 46bd
00000050: d9c7 eb3d 3a87 073e ca33 783e 14e7 f3bd
00000060: 42cf 8c3c c4b5 933d f902 1bbe 31d3 1abe
00000070: 9298 2abd 1203 6b3e deae 0e3c d677 163a
00000080: a948 e73d 1711 353e 65ab 5fbe 24fd f4bd
00000090: d2b4 31be 338d 08bd bac6 d2bc 54f9 36be
000000a0: 7b8a 463d b0c4 0b3e bf34 823d 07c0 173d
000000b0: 66bb 333d 5239 2b3e 09fb 103e 4d84 38be
000000c0: ebe8 1e3d 9850 293e c924 d83d 7edf 223e
000000d0: 2378 aabd 32d8 fcbd 82d5 16bd 770b a9bd
000000e0: 06ea 65bd 97f5 203d 5e8b 373d 5374 bb3d
000000f0: 0dc7 46be 27a9 76be 992c 7b3e e146 a6bd

lstm1_1.weight_ih_l0_reverse f4 [64, 32]
0.20711526 -0.26365024 -0.05337739 -0.034509927 0.1424607 0.114037044 0.17874923 -0.20432293
0.034447998 -0.06572908 0.022913313 0.2256932 0.08373867 -0.005636692 0.22118387 -0.0014361208
-0.24933818 -0.16168922 0.023351368 0.106815696 0.068961345 -0.13804978 -0.066007674 -0.11833353
-0.19862199 -0.18595552 -0.20887232 -0.014031291 0.23297542 -0.050322097 -0.23864219 -0.12831303
-0.22628313 -0.21156043 -0.18487813 -0.23377025 -0.025295168 -0.13681515 0.10352629 -0.13731125
0.22546479 -0.1336245 -0.116715536 -0.12971717 0.026318062 0.06321493 0.026724817 -0.18555921
0.085529625 -0.005366518 -0.22027591 0.1901178 0.12635227 0.18545514 -0.13712358 -0.20319091
0.027168721 -0.33597592 -0.042317133 -0.0062856674 0.0065797567 -0.087502085 0.043495964 -0.18742698
0.13002984 0.034920342 -0.21239844 -0.17963916 -0.1546112 0.20109145 -0.12309617 0.10075554
0.14532067 -0.15772158 -0.29179308 -0.20954043 -0.012469679 0.034204125 0.11419061 -0.1379275
-0.19780779 0.100160584 0.044645272 -0.09146944 -0.05592472 -0.047607213 -0.2260867 0.0970148
0.020046711 -0.0006096518 -0.0035857009 -0.21198061 0.19897631 -0.09506255 -0.0067829676 0.0650478
0.13198937 0.21305136 0.011819013 -0.20583168 -0.05944121 -0.111534104 0.03421276 -0.21720967
0.16429551 0.19289082 0.23675308 0.17704797 0.09624673 -0.24956304 -0.17070258 -0.1606881
-0.14161077 0.19088015 -0.0067071957 -0.05715868 0.23747425 0.0427801 0.0038808584 0.19516523
-0.050733775 -0.21640062 -0.12745742 -0.059100688 0.14894253 0.20726968 0.103294 0.19239369
0.15953483 -0.17886464 0.066531524 -0.19453567 -0.0785501 0.17520483 -0.20931894 -0.24179736
0.36064842 0.13391963 0.2315248 -0.016900927 -0.0651825 -0.22918195 0.10027631 -0.20229642
0.09074426 -0.030344145 -0.1269833 0.105568975 0.048237436 0.17274806 -0.13586849 -0.2070985
-0.16987368 -0.017847659 0.23374082 -0.08332166 0.12643021 -0.19644882 0.12813978 0.117949605
-0.018599108 0.25357553 0.1857474 0.2498759 0.010053307 -0.22027758 0.17362012 -0.21412104
-0.11851671 -0.047008067 0.060263604 -0.14944687 0.15562183 -0.041967005 0.20072189 0.18663847
-0.064852595 0.25362825 0.07272944 0.14839116 0.19796522 0.15972996 0.032791376 -0.2506109
-0.20904252 0.30615756 0.045637745 0.03509465 0.18405518 -0.037876595 -0.07099692 0.23819077
0.08581866 0.058677677 -0.025143998 -0.0009839833 -0.018426567 -0.13653105 0.000867155 0.23101878
0.18174368 0.012910455 -0.24402472 0.10193479 0.019245867 -0.08534536 0.06447816 -0.054248452
0.0043830276 -0.20441368 -0.19124997 -0.055372924 0.12514292 -0.044086903 0.1443722 -0.17865144
0.02916196 -0.005287027 -0.05465166 0.24454829 -0.04823962 -0.09021523 0.08405954 -0.12533301
-0.17409675 0.17066914 -0.21281971 0.06400135 0.22453478 -0.23495202 -0.0925202 -0.017864287
0.115481205 -0.21832874 -0.06944455 -0.068877935 -0.11254284 -0.0056778193 -0.09367188 0.2656408
0.027739972 0.0036571529 0.17928675 0.07306787 0.09644845 0.23393905 -0.19931716 0.016991457
-0.07802853 0.065093845 0.29411685 -0.13228884 0.1571106 -0.106319584 -0.19251443 -0.11763281
00000000: 0616 543e 2afd 86be 40a2 5abd 485a 0dbd
00000010: 38e1 113e 418c e93d 0a0a 373e 083a 51be
00000020: 5819 0d3d f89c 86bd b3b4 bb3c 1e1c 673e
00000030: 2e7f ab3d 00b4 b8bb 067e 623e 383c bcba
00000040: 8252 7fbe dc91 25be 5e4b bf3c 30c2 da3d
00000050: 9b3b 8d3d ec5c 0dbe 082f 87bd da58 f2bd
00000060: 9063 4bbe 206b 3ebe a0e2 55be 80e3 65bc
00000070: 1c91 6e3e 8b1e 4ebd 9e5e 74be 7e64 03be
00000080: c4b6 67be 4ca3 58be b150 3dbe 7861 6fbe
00000090: d037 cfbc 4519 0cbe 9705 d43d 529b 0cbe
000000a0: 3ee0 663e dcd4 08be 8e08 efbd 94d4 04be
000000b0: fa98 d73c d476 813d 01ee da3c 3c03 3ebe
000000c0: 282a af3d 9ed9 afbb 0290 61be 3eae 423e
000000d0: 7d62 013e f4e7 3d3e 206a 0cbe 4711 50be
000000e0: f090 de3c 0905 acbe bb54 2dbd 00f8 cdbb
000000f0: 009b d73b 4b34 b3bd d328 323d dcec 3fbe
00000100: 8b26 053e a208 0f3d fa7e 59be 54f3 37be
00000110: 6652 1ebe ebea 4d3e d819 fcbd ec58 ce3d
00000120: f1ce 143e c481 21be e765 95be c491 56be
00000130: a04d 4cbc a019 0c3d c4dc e93d de3c 0dbe
00000140: 208e 4abe fe20 cd3d f6dd 363d 5454 bbbd
00000150: 5211 65bd c8ff 42bd 4683 67be b2af c63d
00000160: 0039 a43c 0ad1 1fba 14fe 6abb 7211 59be
00000170: 72c0 4b3e 27b0 c2bd a843 debb c837 853d
00000180: 3928 073e 232a 5a3e 89a4 413c 8ac5 52be
00000190: a078 73bd fe6b e4bd ae22 0c3d 366c 5ebe
000001a0: 153d 283e 2c85 453e 666f 723e 104c 353e
000001b0: 011d c53d 748d 7fbe a8cc 2ebe 6c8b 24be
000001c0: 6a02 11be 1676 433e 09c8 dbbb 381f 6abd
000001d0: 732c 733e 303a 2f3d 0056 7e3b 65d9 473e
000001e0: 38ce 4fbd 2098 5dbe 3384 02be 9013 72bd
000001f0: 6484 183e 813e 543e ce8b d33d da02 453e
00000200: 195d 233e 4b28 37be ae41 883d 5c34 47be
00000210: e0de a0bd e568 333e b457 56be ba99 77be
00000220: e9a6 b83e 3a22 093e d614 6d3e d073 8abc
00000230: 677e 85bd acae 6abe ab5d cd3d cb26 4fbe
00000240: 20d8 b93d 4994 f8bc e907 02be 8c34 d83d
00000250: 9e94 453d dee4 303e 1c21 0bbe a111 54be
00000260: 5ef3 2dbe 4135 92bc c159 6f3e 8ca4 aabd
00000270: ec76 013e e129 49be 1337 033e 908f f13d
00000280: 285d 98bc a7d4 813e 9134 3e3e 78df 7f3e
00000290: a0b6 243c 7290 61be 79c9 313e 8c42 5bbe
000002a0: e4b8 f2bd 888b 40bd f8d6 763d 9a08 19be
000002b0: 545b 1f3e 98e5 2bbd 0a8a 4d3e 281e 3f3e
000002c0: 70d1 84bd 90db 813e 2cf3 943d daf3 173e
000002d0: 65b7 4a3e 4090 233e 4050 063d 1250 80be
000002e0: 3e0f 56be afc0 9c3e a5ee 3a3d 68bf 0f3d
000002f0: f678 3c3e 7d24 1bbd d566 91bd 48e8 733e
00000300: b2c1 af3d 0158 703d c9fa cdbc 00f9 80ba
00000310: 50f3 96bc ccce 0bbe c951 633a 3090 6c3e
00000320: 041b 3a3e 6086 533c 9ee1 79be 30c3 d03d
00000330: 82a9 9d3c 8cc9 aebd 200d 843d a033 5ebd
00000340: 809f 8f3b d251 51be 08d7 43be b8ce 62bd
00000350: 7725 003e 7894 34bd 4ed6 133e 67f0 36be
00000360: 10e5 ee3c cc3e adbb 6bda 5fbd de6a 7a3e
00000370: e896 45bd c3c2 b8bd 6827 ac3d 4c57 00be
00000380: 6b46 32be e4c3 2e3e 69ed 59be 2413 833d
00000390: 72ec 653e 4397 70be 3b7b bdbd 2058 92bc
000003a0: 6981 ec3d 9291 5fbe f238 8ebd e00f 8dbd
000003b0: dc7c e6bd 000d babb 0bd7 bfbd 1202 883e
000003c0: f03e e33c d8ac 6f3b f296 373e 9ca4 953d
000003d0: c486 c53d b88d 6f3e cc19 4cbe ab31 8b3c
000003e0: 6ccd 9fbd ec4f 853d 7c96 963e ba76 07be
000003f0: 9ae1 203e 15be d9bd 8122 45be 78e9 f0bd

lstm1_1.weight_hh_l0_reverse f4 [64, 16]
0.17147267 -0.2444916 0.15718205 -0.14570768 -0.059113327 0.17652945 0.088308185 -0.23389404
0.10151498 -0.037589293 0.029343175 0.23086768 -0.23097263 -0.07010994 0.26548585 0.25326565
-0.14529014 -0.07357752 0.16768306 -0.09090936 0.0066867936 0.17518057 -0.15814717 0.09794078
0.019294174 0.34713274 -0.08586066 -0.16614766 -0.043190636 0.08681444 0.22815098 -0.07637488
-0.034529503 -0.21725528 -0.21607047 -0.1418177 -0.15163036 -0.12429391 0.1805753 -0.1896171
0.009051378 0.3425436 -0.20347415 -0.20140159 -0.040108606 0.028706884 -0.07818709 -0.09856553
-0.20170125 -0.08902356 0.012318488 -0.094964065 0.1959909 -0.1004064 -0.24292907 -0.12583487
-0.17347966 -0.028573522 0.1529178 0.07092687 0.10570249 0.066203974 -0.17675708 0.012489
-0.058766432 -0.052615542 -0.20171425 -0.20166609 -0.011082785 0.02853157 -0.20831557 -0.0702793
-0.0050791753 0.20924751 0.06843006 0.20109299 0.2233789 -0.2269185 -0.04249789 -0.05719348
-0.19891861 -0.024872802 0.039491635 -0.06498873 -0.26160645 -0.084290646 -0.10797394 0.24004439
0.039119646 -0.2891152 -0.066547595 0.21954322 0.15946674 0.029788354 -0.20705266 -0.33831048
0.18157329 0.0889992 0.15402256 0.20646027 0.08543881 -0.10954608 -0.14889818 0.19670261
0.14950985 -0.15209153 0.2233539 0.017046288 0.030216843 0.08881818 0.23470621 0.27702537
0.18646556 -0.17816523 -0.10244599 0.0892722 -0.0044340873 0.19763334 -0.06195307 0.12894535
0.05117776 -0.18986526 0.18006529 -0.13115625 -0.047359083 -0.01505757 0.047006734 0.114809476
-0.1235323 0.24192376 -0.042315587 0.012003516 0.22337694 -0.040314708 -0.05294194 0.04843426
-0.13370538 0.045359015 0.18197282 0.09693606 -0.032382235 -0.1547784 0.01952728 -0.066916786
0.16879606 0.07691102 -0.13462399 -0.21671191 -0.17555079 -0.15716356 -0.06961374 0.14875224
0.20093071 -0.20242609 0.020203594 -0.0024010045 -0.13801947 0.1778901 0.07987002 0.27039054
0.19659567 3.541722e-05 0.09432367 0.14917137 -0.2548604 -0.022425722 -0.050389964 -0.061194133
-0.21491253 0.27952582 -0.25921604 -0.26065654 0.0894021 -0.1553044 0.031020183 0.11368693
0.10721465 0.23128991 0.1065591 -0.13050912 0.08781797 0.08438592 -0.23459157 0.2580918
-0.026846956 0.17613319 -0.13453355 -0.15686451 0.05809968 -0.17152534 -0.19436015 -0.1631632
0.25880027 0.026464153 0.07861514 -0.16594397 -0.046653796 -0.25534683 -0.10933385 0.39825645
0.2876371 0.110622555 -0.02501135 0.15742682 -0.051333774 -0.3418908 -0.19443357 0.007907016
0.03660278 0.19039239 -0.10697894 -0.073730715 -0.18485883 -0.24977846 0.08467472 0.07038812
0.0064930217 -0.38302457 0.22669098 -0.026696078 -0.18470436 -0.31275764 -0.07610736 -0.22616857
0.044318557 -0.1962969 -0.21500097 0.011873508 0.17608927 -0.18110016 0.12186201 -0.051069345
0.1342084 -0.3707924 -0.084347986 0.22067723 -0.061143197 -0.28792962 0.10536051 -0.19066663
-0.0031518743 -0.21251073 -0.14124587 -0.10025187 0.20054214 0.033473566 0.17359988 -0.19968177
0.035922706 -0.24925147 0.21494797 0.14984477 0.0021981199 -0.23577675 0.16589183 0.042601038
00000000: 8896 2f3e 025c 7abe 55f4 203e 6534 15be
00000010: d120 72bd 23c4 343e ecda b43d eb81 6fbe
00000020: 16e7 cf3d 3bf7 19bd 1961 f03c 9468 6c3e
00000030: 1784 6cbe cd95 8fbd c3ed 873e 09ac 813e
00000040: f0c6 14be d0af 96bd 1cb5 2b3e b02e babd
00000050: e41c db3b 8962 333e 55f1 21be 2d95 c83d
00000060: d10e 9e3c 62bb b13e b7d7 afbd 9d22 2abe
00000070: aae8 30bd c5cb b13d 69a0 693e 6f6a 9cbd
00000080: cf6e 0dbd 2b78 5ebe 9441 5dbe a938 11be
00000090: fd44 1bbe ce8d febd bbe8 383e fc2a 42be
000000a0: 3b4c 143c e061 af3e 875b 50be 383c 4ebe
000000b0: ec48 24bd b32a eb3c 8e20 a0bd b9dc c9bd
000000c0: c68a 4ebe fc51 b6bd 7cd3 493c 857c c2bd
000000d0: d7b1 483e dfa1 cdbd 66c2 78be dbda 00be
000000e0: a7a4 31be 0513 eabc 7c96 1c3e 1b42 913d
000000f0: 8c7a d83d f395 873d cfff 34be aa9e 4c3c
00000100: 12b5 70bd 6583 57bd 2e8e 4ebe 8e81 4ebe
00000110: 9294 35bc 0abb e93c ad50 55be 98ee 8fbd
00000120: 366f a6bb fb44 563e 0f25 8c3d 52eb 4d3e
00000130: 70bd 643e 535d 68be 4412 2ebd b643 6abd
00000140: 52b1 4bbe 0cc2 cbbc fbc1 213d d018 85bd
00000150: 48f1 85be 93a0 acbd 7121 ddbd 32ce 753e
00000160: ec3b 203d e806 94be 1b4a 88bd f0cf 603e
00000170: 404b 233e b506 f43c 9d05 54be 0837 adbe
00000180: 59ee 393e 3645 b63d 17b8 1d3e 526a 533e
00000190: 8bfa ae3d b259 e0bd c478 18be 696c 493e
000001a0: 1c19 193e e2bd 1bbe e2b6 643e a8a4 8b3c
000001b0: 5089 f73c 4ee6 b53d d356 703e 45d6 8d3e
000001c0: d4f0 3e3e f270 36be 34cf d1bd 58d4 b63d
000001d0: d24b 91bb 6560 4a3e 81c2 7dbd 400a 043e
000001e0: c59f 513d 0a6c 42be 0963 383e d34d 06be
000001f0: 99fb 41bd 07b4 76bc 228a 403d 3b21 eb3d
00000200: 81fe fcbd ddba 773e 1c53 2dbd 65aa 443c
00000210: edbc 643e 0921 25bd a6d9 58bd 0163 463d
00000220: 10ea 08be 60ca 393d 1557 3a3e 6a86 c63d
00000230: 3ca3 04bd 3b7e 1ebe adf7 9f3c ab0b 89bd
00000240: e0d8 2c3e 8683 9d3d dfda 09be bae9 5dbe
00000250: 96c3 33be 7cef 20be a691 8ebd 8252 183e
00000260: c8c0 4d3e c948 4fbe 0282 a53c 2c5a 1dbb
00000270: fa54 0dbe d328 363e e592 a33d a170 8a3e
00000280: 6050 493e f38c 1438 c52c c13d 61c0 183e
00000290: 107d 82be 26b6 b7bc b565 4ebd b3a6 7abd
000002a0: 0812 5cbe 021e 8f3e f7b7 84be c674 85be
000002b0: 7318 b73d 1e08 1fbe 0a1e fe3c b1d4 e83d
000002c0: 5b93 db3d 43d7 6c3e a83b da3d 2fa4 05be
000002d0: e8d9 b33d 86d2 ac3d c638 70be 9c24 843e
000002e0: 26ee dbbc 425c 343e 2ac3 09be 17a1 20be
000002f0: eef9 6d3d 57a4 2fbe 5906 47be 4114 27be
00000300: 7881 843e 5acb d83c f900 a13d 37ed 29be
00000310: 0d18 3fbd d2bc 82be 6dea dfbd 45e8 cb3e
00000320: 2c45 933e 148e e23d 9ae4 ccbc 7f34 213e
00000330: 5d43 52bd 500c afbe 9819 47be 6e8c 013c
00000340: ccec 153d 39f6 423e c617 dbbd 2100 97bd
00000350: a24b 3dbe edc5 7fbe f169 ad3d a627 903d
00000360: 6ac3 d43b cc1b c4be ae21 683e bcb1 dabc
00000370: 2423 3dbe c521 a0be 2dde 9bbd bc98 67be
00000380: 6087 353d 0e02 49be 3729 5cbe 1a89 423c
00000390: bf50 343e 5272 39be ca92 f93d 172e 51bd
000003a0: ed6d 093e 80d8 bdbe a3be acbd 36f9 613e
000003b0: 4a71 7abd 836b 93be 40c7 d73d 1d3e 43be
000003c0: ad8f 4ebb 6a9c 59be c2a2 10be da50 cdbd
000003d0: eb5a 4d3e 941b 093d 2bc4 313e 6179 4cbe
000003e0: b023 133d c73b 7fbe 521b 5c3e e870 193e
000003f0: 550e 103b 766f 71be 8cdf 293e 6d7e 2e3d

lstm1_1.bias_ih_l0_reverse f4 [64]
-0.14849423 0.018903878 -0.2337645 -0.13462396 0.2630707 -0.16648482 0.1557791 0.22329645
0.18182088 0.15781537 0.045660753 -0.23098114 -0.105056986 0.23634604 0.26617056 0.10526771
-0.13500458 0.13583961 0.09553916 -0.020573014 0.24471845 0.0065720323 -0.033442847 0.15492885
0.023639431 0.16618264 -0.074541084 -0.1821548 0.25371727 0.07642224 0.13438518 -0.1587024
0.07824429 -0.074762 -0.086241595 -0.22264428 -0.14261885 -0.036303047 -0.17193455 0.030213384
0.17020816 0.19473234 -0.16326068 -0.10090087 -0.032695152 0.060939588 -0.21582241 0.033905655
-0.22240539 -0.038933054 0.1527437 0.08757129 -0.03134897 0.09073347 0.09243347 0.07546253
-0.21214229 0.26075155 -0.2088456 -0.11386557 -0.06094513 0.13206406 0.02378664 -0.027416207
00000000: df0e 18be 4edc 9a3c f65f 6fbe ddda 09be
00000010: 34b1 863e ff7a 2abe 8e84 1f3e d3a7 643e
00000020: 412f 3a3e 5a9a 213e c506 3b3d 5286 6cbe
00000030: 1e28 d7bd b204 723e 8247 883e 9996 d73d
00000040: a43e 0abe 8a19 0b3e 09aa c33d bd88 a8bc
00000050: 7997 7a3e 345a d73b 5efb 08bd aba5 1e3e
00000060: 7ba7 c13c c82b 2a3e ffa8 98bd ca86 3abe
00000070: 3be7 813e 4383 9c3d 459c 093e e282 22be
00000080: 8b3e a03d d21c 99bd 6f9f b0bd ddfc 63be
00000090: ad0a 12be 81b2 14bd 9c0f 30be 0f82 f73c
000000a0: 0c4b 2e3e ea67 473e cf2d 27be 1ea5 cebd
000000b0: 5aeb 05bd ca9b 793d 8d00 5dbe a8e0 0a3d
000000c0: 3dbe 63be 4478 1fbd d868 1c3e 9458 b33d
000000d0: c767 00bd 78d2 b93d c24d bd3d 198c 9a3d
000000e0: d43b 59be 3a81 853e 9fdb 55be 5a32 e9bd
000000f0: 9aa1 79bd cd3b 073e 33dc c23c f497 e0bc

lstm1_1.bias_hh_l0_reverse f4 [64]
0.030583905 0.2513604 -0.03947777 0.2599422 -0.21053988 -0.10149599 0.24852762 -0.08989373
-0.035400257 0.3433985 0.18731926 -0.1714747 0.24599478 0.22189224 -0.083193995 0.17992696
0.06087759 0.018537091 0.13049132 -0.098978385 0.10214814 0.27526158 0.13055348 -0.1916271
0.11487912 0.23827903 -0.09325346 0.16866797 -0.1877672 0.023916796 -0.04431186 -0.007886427
0.22024481 -0.093728825 -0.10944124 -0.21432357 0.16805623 0.06562871 -0.08480089 0.15327936
-0.027280916 0.24627762 0.067486174 0.14883703 -0.0433691 0.08229977 -0.10643998 0.048148084
-0.089638054 0.17665637 0.12516865 -0.0010530694 -0.13547845 -0.20342092 0.21212676 -0.043300536
0.049061447 0.38290074 0.18998791 0.086875096 -0.17707998 0.2786753 0.10249929 -0.06141004
00000000: 198b fa3c 4fb2 803e 71b3 21bd 2517 853e
00000010: c497 57be 21dd cfbd 067e 7e3e 341a b8bd
00000020: dcff 10bd eed1 af3e 9fd0 3f3e 1097 2fbe
00000030: 0ee6 7b3e b837 633e 9d61 aabd c63e 383e
00000040: c85a 793d 19db 973c 849f 053e 2eb5 cabd
00000050: 0b33 d13d 16ef 8c3e d0af 053e e539 44be
00000060: be45 eb3d 6bff 733e acfb bebd 4cb7 2c3e
00000070: 0b46 40be 28ed c33c 5a80 35bd 1336 01bc
00000080: db87 613e e6f4 bfbd bb22 e0bd a377 5bbe
00000090: ef16 2c3e 5868 863d 17ac adbd 44f5 1c3e
000000a0: 3a7c dfbc 3330 7c3e 3136 8a3d bc68 183e
000000b0: cca3 31bd c88c a83d 34fd d9bd ed36 453d
000000c0: 2894 b7bd 68e5 343e 362c 003e 2507 8aba
000000d0: ddba 0abe 934d 50be c237 593e e75b 31bd
000000e0: a8f4 483d 910b c43e 318c 423e 92eb b13d
000000f0: 7454 35be 87ae 8e3e 26eb d13d 1889 7bbd

lstm1_2.0.weight f4 [32, 32]
0.022593215 -0.011292401 -0.018058078 -0.060370438 -0.047460057 -0.021117361 0.091904104 0.031065885
0.07251324 0.018741053 0.09708554 -0.14764933 0.015078258 0.05008006 -0.06575362 -0.15932877
-0.006612373 -0.054922037 0.07262104 0.1771163 -0.054761954 -0.17820856 -0.005590309 0.014478606
0.0452317 -0.24493876 -0.07697028 -0.087966405 -0.09395302 0.15749057 0.08118456 -0.1350806
-0.06608917 -0.08057759 -0.08413914 0.1295419 0.21730898 -0.09683819 0.118119836 0.011886518
-0.137588 -0.11843499 0.1272742 0.043773387 -0.070771135 4.8418467e-05 -0.121273085 0.09147796
-0.18864103 0.09666601 0.13285951 -0.019424492 0.11040099 0.056807596 0.0958173 -0.10698909
0.03325349 0.024720978 -0.13589528 0.12643313 0.13448876 0.023091163 -0.09533288 0.09873302
-0.1424755 0.11650934 -0.0503885 0.10064223 -0.0013621518 -0.113471664 -0.10995887 -0.10169333
0.11208228 0.12920474 0.04584302 -0.19029066 0.15459707 -0.18564226 0.16461281 0.09826926
0.17912757 0.008762849 -0.06253875 -0.073709086 -0.009260085 -0.10826692 0.06507341 -0.07747253
0.12345465 0.15467672 0.01634183 0.03347408 -0.06983542 0.042138968 -0.08233185 -0.0632137
-0.015468098 0.025743142 0.014511729 -0.070074424 -0.059974592 -0.08747847 -0.14696845 -0.08522831
0.0045683924 0.08164673 0.089680485 -0.09860561 -0.0717504 0.16120555 -0.039744485 0.17302206
-0.079756 0.17245826 -0.08626389 0.11096448 -0.17522848 0.025961835 -0.15758494 0.061827127
-0.028189002 -0.058966774 -0.13272993 -0.1320688 -0.019335903 0.0020179346 0.050405543 0.009652505
-0.12141108 -0.09393752 0.010521202 0.108644925 -0.080347404 -0.100584656 -0.103374586 0.14807281
0.01607544 0.08051837 -0.10349795 0.0060931067 0.1747641 -0.113090254 -0.075079 0.12281895
-0.086564 0.17124577 0.16639183 0.07356294 -0.05549526 -0.053118538 -0.04583889 -0.03357736
0.07901284 -0.03471556 0.054271337 0.15836757 0.13791625 0.032589883 -0.13311228 -0.16640608
-0.18088832 -0.09155971 0.04095493 -0.12749106 -0.06444762 -0.035899088 -0.055649444 0.12125729
-0.07436703 0.032608513 0.08925631 -0.03777797 -0.14105776 -0.11778816 0.15695456 -0.1585773
-0.088990994 0.19531865 -0.075008795 0.13615894 -0.13036466 -0.1457077 0.04265837 0.04689363
-0.0708847 -0.21031551 -0.12576148 -0.11783711 0.19079113 -0.081274405 -0.118366905 -0.16922688
0.026747867 0.15040612 -0.15414403 -0.118452705 -0.060187723 0.08262534 0.032758787 0.027922705
0.12803893 0.085645124 0.051743712 -0.15095314 -0.09164011 0.11253751 0.15437609 -0.1415855
-0.11034982 -0.061117668 0.07251946 -0.10560461 0.077278964 -0.037602443 -0.08345449 -0.1496081
0.17196456 -0.038378876 0.07404561 -0.026858248 0.1989677 0.00034946544 -0.027269196 0.09689358
0.11619607 -0.015477504 -0.03643647 -0.12209176 0.04266701 0.14050207 -0.0026849327 0.0023461045
0.01844692 -0.13655709 -0.10116347 -0.042765882 0.10268578 0.031396084 0.12886928 0.14143448
0.015740888 -0.107319355 0.14082217 -0.14162284 0.16000694 0.081293344 0.06659658 -0.11940993
0.061405756 0.12274215 0.10180597 0.15347297 -0.10719107 -0.1367505 -0.097752355 0.056343406
00000000: 6815 b93c c303 39bc 89ee 93bc fe46 77bd
00000010: 7a65 42bd 51fe acbc 3838 bc3d e27d fe3c
00000020: d281 943d d686 993c c9d4 c63d 6331 17be
00000030: cc0a 773c c020 4d3d d5a9 86bd 1527 23be
00000040: 9bac d8bb eef5 60bd 57ba 943d fa5d 353e
00000050: 124e 60bd 4e7c 36be e92e b7bb ad37 6d3c
00000060: e044 393d 3ad1 7abe 98a2 9dbd bb27 b4bd
00000070: 716a c0bd 3545 213e 1744 a63d 9252 0abe
00000080: c259 87bd dd05 a5bd 2451 acbd a2a6 043e
00000090: 3f86 5e3e 1a53 c6bd d0e8 f13d acbf 423c
000000a0: dee3 0cbe 0b8e f2bd 2b54 023e b94b 333d
000000b0: 75f0 90bd ef14 4b38 065e f8bd cc58 bb3d
000000c0: 1d2b 41be d4f8 c53d 530c 083e 1d20 9fbc
000000d0: ea19 e23d 15af 683d dc3b c43d 191d dbbd
000000e0: d034 083d a683 ca3c 2228 0bbe b077 013e
000000f0: 6cb7 093e ae29 bd3c e33d c3bd 8a34 ca3d
00000100: 19e5 11be 739c ee3d 2c64 4ebd 831d ce3d
00000110: 3b8a b2ba d563 e8bd 1e32 e1bd 9844 d0bd
00000120: 658b e53d 3f4e 043e e4c5 3b3d 8edb 42be
00000130: b24e 1e3e 0119 3ebe 4390 283e 6541 c93d
00000140: 386d 373e 0d92 0f3c 5114 80bd caf4 96bd
00000150: 9db7 17bc 0cbb ddbd 3545 853d eba9 9ebd
00000160: cbd5 fc3d 9363 1e3e 4ddf 853c 1e1c 093d
00000170: df05 8fbd e999 2c3d 9a9d a8bd 2f76 81bd
00000180: e86d 7dbc 48e3 d23c 9ac2 6d3c 2e83 8fbd
00000190: eba7 75bd e927 b3bd e67e 16be 2e8c aebd
000001a0: 74b2 953b 6736 a73d 67aa b73d bdf1 c9bd
000001b0: e0f1 92bd 1113 253e 1dcb 22bd b22c 313e
000001c0: 1d57 a3bd e698 303e 1fab b0bd 5841 e33d
000001d0: 186f 33be eaad d43c f25d 21be 713e 7d3d
000001e0: 9fec e6bc 2587 71bd 5bea 07be 0b3d 07be
000001f0: 5466 9ebc 533f 043b 0b76 4e3d 8a25 1e3c
00000200: 5fa6 f8bd 5162 c0bd 1f61 2c3c 3b81 de3d
00000210: 2e8d a4bd 54ff cdbd 0eb6 d3bd 66a0 173e
00000220: a4b0 833c d1e6 a43d bcf6 d3bd afa8 c73b
00000230: 5cf5 323e dd9b e7bd 05c3 99bd 8088 fb3d
00000240: 7748 b1bd 0d5b 2f3e 9f62 2a3e 2ba8 963d
00000250: ff4e 63bd d392 59bd 8fc1 3bbd 6a88 09bd
00000260: 7cd1 a13d e731 0ebd 9f4b 5e3d 1c2b 223e
00000270: eb39 0d3e f87c 053d 964e 08be 5b66 2abe
00000280: ca3a 39be a883 bbbd 5bc0 273d 048d 02be
00000290: 1dfd 83bd ec0a 13bd acf0 63bd be55 f83d
000002a0: be4d 98bd 8190 053d 03cc b63d 13bd 1abd
000002b0: 7271 10be eb3a f1bd b2b8 203e 1662 22be
000002c0: e940 b6bd 9d01 483e 369e 99bd 406d 0b3e
000002d0: 507e 05be 6634 15be 8bba 2e3d 8913 403d
000002e0: ff2b 91bd f35c 57be 9ec7 00be 9554 f1bd
000002f0: c05e 433e 3273 a6bd 596a f2bd d049 2dbe
00000300: 581e db3c 1004 1a3e efd7 1dbe 5597 f2bd
00000310: 6787 76bd 7937 a93d 142e 063d 28be e43c
00000320: a31c 033e b666 af3d 37f1 533d 7693 1abe
00000330: cfad bbbd 117a e63d c414 1e3e cafb 10be
00000340: 16ff e1bd 8556 7abd 1585 943d 3b47 d8bd
00000350: 6f44 9e3d 0505 1abd 30ea aabd de32 19be
00000360: 7a17 303e 2b33 1dbd 3aa5 973d d405 dcbc
00000370: 30be 4b3e 7538 b739 a663 dfbc 2470 c63d
00000380: 35f8 ed3d 5b95 7dbc 683e 15bd 3f0b fabd
00000390: 9ac3 2e3d c6df 0f3e b2f5 2fbb 1ac1 193b
000003a0: ff1d 973c 9fd5 0bbe cb2e cfbd 472b 2fbd
000003b0: ec4c d23d 2e99 003d 4ff6 033e 33d4 103e
000003c0: 09f3 803c 40ca dbbd b033 103e 9405 11be
000003d0: dcd8 233e 207d a63d ca63 883d 328d f4bd
000003e0: 9a84 7b3d 3d60 fb3d a67f d03d 0528 1d3e
000003f0: fe86 dbbd 5308 0cbe 6332 c8bd 58c8 663d

lstm1_2.0.bias f4 [32]
0.16591038 0.08781972 0.09760086 0.117165044 -0.1190176 -0.15300041 -0.027708769 -0.121731885
-0.030938795 -0.016656287 0.1582013 0.006228351 -0.024975255 0.086435564 0.08298471 0.06642074
0.031841807 0.18161103 -0.13860713 0.104201674 -0.07886932 0.15427181 -0.12928845 0.14702818
0.064544015 0.15901947 0.15259433 0.08902962 0.11316864 -0.17481445 0.070377044 -0.1816956
00000000: 69e4 293e d3da b33d f6e2 c73d 3af4 ef3d
00000010: 80bf f3bd 24ac 1cbe 80fd e2bc 914e f9bd
00000020: 5b73 fdbc c472 88bc 86ff 213e 3217 cc3b
00000030: e898 ccbc 2105 b13d e3f3 a93d 9907 883d
00000040: 8e6c 023d 3ef8 393e 07ef 0dbe b067 d53d
00000050: 3d86 a1bd 6ef9 1d3e 3164 04be 8e8e 163e
00000060: a72f 843d 00d6 223e b041 1c3e 2955 b63d
00000070: f6c4 e73d 8f02 33be d721 903d 690e 3abe
